CliffWalking.pth (torch, 95866 bytes, 6 tensors)

fc.0.weight f4 [128, 48]
0	0xbe5b7bca	-0.2143394
1	0xbda4eb50	-0.08052695
2	0xbe26371c	-0.1623196
3	0xbe756583	-0.23964505
4	0xbe648155	-0.22314961
5	0xbe0c4a3a	-0.1370019
6	0xbe65e9e4	-0.22452503
7	0xbe2016b1	-0.15633656
8	0xbd1d628b	-0.038424056
9	0xbe8fd126	-0.28089255
10	0xbcf50d50	-0.029913574
11	0xbe4a8669	-0.19777836
12	0xbe1e4ea2	-0.15459684
13	0xbde697d6	-0.11259429
14	0xbdd42a01	-0.10359574
15	0xbe5babc6	-0.21452245
16	0xbe337eec	-0.17528886
17	0xbcfeb629	-0.03109272
18	0xbe40ab7f	-0.1881542
19	0xbe1a0521	-0.15041019
20	0xbe905e35	-0.28196874
21	0xbe42e988	-0.19034398
22	0xbe4d923e	-0.20075318
23	0xbd2dfdaa	-0.04247824
24	0xbe55f71b	-0.20895045
25	0x3e94f9c7	0.29096815
26	0xbb75eff2	-0.0037527052
27	0x3e82c534	0.2554108
28	0x3e4e8d76	0.2017115
29	0x3ea0fa86	0.31441134
30	0x3e870125	0.2636806
31	0x3e2b8d03	0.1675301
32	0x3e898961	0.26862624
33	0x3e83d6fc	0.25749958
34	0x3e362102	0.17786029
35	0xbd88e0ef	-0.06683528
36	0xbe92c86b	-0.28668532
37	0x3df902b8	0.12158722
38	0x3b9c00c0	0.0047608316
39	0xbc1c8c00	-0.009554863
40	0xbd2b6bc8	-0.041850835
41	0x3dc56e2a	0.09640153
42	0xbd294c0a	-0.041332282
43	0xbe0aee3f	-0.13567446
44	0xbdbe1d92	-0.09282984
45	0xbc67f9b0	-0.014158651
46	0x3d661514	0.056172445
47	0xbd745f0a	-0.05966095
48	0xbd542a89	-0.051798377
49	0xbd4e6ef5	-0.050398786
50	0x3ea3aac3	0.31966218
51	0xbe0e8ef6	-0.13921723
52	0xbd6b9b30	-0.057521045
53	0x3c833ec6	0.016021144
54	0xbdecaba2	-0.11556174
55	0xbd59a2f4	-0.05313392
56	0xbd13e20d	-0.03610425
57	0xbd659458	-0.056049675
58	0xbd153227	-0.036424782
59	0xbd3c3d63	-0.04595698
60	0x3ed9d1b1	0.42542794
61	0xbd8274e9	-0.06369955
62	0xbdeaa324	-0.11456898
63	0xbe12d45b	-0.1433882
64	0x3ec1f8e0	0.3788519
65	0xbdd52650	-0.10407698
66	0x3e94e4cc	0.29080808
67	0x3c635017	0.013874075
68	0xbd3baef0	-0.04582113
69	0x3e5222bd	0.20521064
70	0xbd453acc	-0.048151776
71	0xbd4d284a	-0.05008725
72	0xbd4e060e	-0.050298743
73	0xbe04cbf3	-0.12968425
74	0xbdbbf159	-0.09176893
75	0xbd4a6f7d	-0.04942273
76	0xbe06dfc6	-0.131713
77	0xbe12b85c	-0.1432814
78	0xbde24340	-0.11047983
79	0xbd3b6793	-0.045753073
80	0x3dde823f	0.10864686
81	0xbd6f1940	-0.05837369
82	0xbbee7d88	-0.007278148
83	0xbe03e60f	-0.12880729
84	0xbd6d89a7	-0.057992604
85	0x3df8bcd8	0.12145394
86	0x3d084a70	0.033274114
87	0xbd97a876	-0.07405178
88	0x3d43f690	0.047842562
89	0xbe00b089	-0.12567343
90	0x3dfe9564	0.12430838
91	0xbd4359d8	-0.047693104
92	0x3ca6adb0	0.020346493
93	0x3db23176	0.0870084
94	0x3cba3538	0.022730455
95	0xbd9f238c	-0.07770452
96	0x3d49b514	0.049244955
97	0x3e0c3137	0.13690649
98	0x3e2b8743	0.16750817
99	0x3da6a3eb	0.081367336
100	0xbdb20469	-0.086922474
101	0xbd3ce7cc	-0.046119496
102	0xbd603f60	-0.05474794
103	0xbe53e3e4	-0.20692402
104	0x3d08896c	0.03333418
105	0xbd34cf90	-0.04414326
106	0xbe4eeaef	-0.20206808
107	0xbe4e98bb	-0.2017545
108	0x3d2f69f4	0.042825654
109	0x3e064eaa	0.13115945
110	0x3d6dcf07	0.058058765
111	0xbde62ac8	-0.112386286
112	0xbc6258ab	-0.013815085
113	0x3df625e9	0.120189495
114	0xbddfcda8	-0.10927898
115	0xbe3ace04	-0.18242651
116	0xbe06bbb9	-0.13157548
117	0xbb35e10a	-0.0027752542
118	0xbe321b3b	-0.173932
119	0xbe59cadc	-0.21268791
120	0xbde940fd	-0.11389349
121	0x3e284b82	0.16435054
122	0x3e19785f	0.14987324
123	0x3e667a06	0.22507486
124	0x3b911524	0.004427569
125	0x3e473e52	0.19457367
126	0x3d903a85	0.07042412
127	0xbe1d7f92	-0.15380695
128	0x3b1ec710	0.0024227537
129	0x3de035ad	0.10947738
130	0xbe58d1c8	-0.21173775
131	0xbe317abe	-0.17331979
132	0x3ef0176a	0.46892864
133	0x3ca2c238	0.019868001
134	0xbe0402ba	-0.12891665
135	0x3d7888c8	0.06067732
136	0x3ccf27f0	0.025287598
137	0xbdedbf2a	-0.11608727
138	0x3d438754	0.04773648
139	0xbd0521f6	-0.03250309
140	0x3ddcf3b4	0.1078867
141	0xbdec86b3	-0.11549129
142	0xbe110c60	-0.14164877
143	0xbcc824d8	-0.024431631
144	0x3d80aa65	0.062825
145	0xbe1261ee	-0.1429517
146	0x3dab1366	0.08353309
147	0xb8cdf5d0	-9.820948e-05
148	0xbe09a444	-0.13441569
149	0x3de1a814	0.110183865
150	0x3d4726bd	0.048620928
151	0xbd6aa359	-0.057284687
152	0x3bd6ba9d	0.0065530078
153	0xbe085dd6	-0.13317046
154	0x3dacc2bb	0.084355794
155	0xbd7cce7d	-0.06172036
156	0x3d4debb3	0.05027361
157	0x3d566ad2	0.052347966
158	0x3d8228a7	0.0635541
159	0x3d4a9f01	0.049468044
160	0x3d1e2c95	0.038616735
161	0xbe05d630	-0.13069987
162	0x3c67c5b3	0.014146256
163	0x3dc1b7f3	0.09458914
164	0x3c009790	0.007848635
165	0x3ddfc65f	0.10926508
166	0xbe0c82b2	-0.13721731
167	0xbd888394	-0.066657215
168	0x3e080d57	0.13286339
169	0xbe05aead	-0.13054915
170	0xbe05d174	-0.13068181
171	0xbe004471	-0.12526108
172	0xbe126d52	-0.14299515
173	0x3de5d058	0.11221379
174	0xbd8dfb59	-0.069327064
175	0xbe091240	-0.13385868
176	0xbe00c8bb	-0.12576573
177	0xbdab1b42	-0.083548084
178	0xbd8643f3	-0.06555929
179	0xbc21a02b	-0.009864847
180	0x3f09bba2	0.5380193
181	0xbda05e93	-0.078305386
182	0xbd118538	-0.035527438
183	0x3d2186d4	0.039435223
184	0x3df97058	0.12179631
185	0xbc1930c0	-0.009350002
186	0x3d98c2dc	0.074590415
187	0x3de301bc	0.11084315
188	0x3c9d4d50	0.019201905
189	0xbd23d71c	-0.040000066
190	0x3d708f94	0.058730677
191	0x3e0e6dbe	0.13909051
192	0x3e0be0c9	0.13659967
193	0x3e6238f2	0.22092035
194	0x3f07acdd	0.52998143
195	0x3e95fd3d	0.29294768
196	0x3e68e913	0.22745161
197	0x3ea1fd6c	0.31638658
198	0x3e672424	0.2257238
199	0x3e6f6ea0	0.23382044
200	0x3de60f62	0.11233403
201	0x3e2f999d	0.17148443
202	0x3e4ed0a6	0.2019678
203	0xbcb7413e	-0.022369977
204	0x3ec28601	0.37992862
205	0x3e439e8a	0.19103447
206	0x3ea31138	0.31849074
207	0x3d65aa9b	0.056070905
208	0x3d5ad70b	0.053427737
209	0x3e7fe54d	0.24989815
210	0xbd96d091	-0.07364
211	0xbe594423	-0.21217398
212	0x3d96d6e7	0.07365208
213	0x3dbdb347	0.0926271
214	0xbc82c348	-0.015962258
215	0xbe64a036	-0.2232674
216	0x3e4af8ac	0.19821423
217	0xbd59b616	-0.053152166
218	0xbd6f625d	-0.058443416
219	0xbd1d3a1a	-0.038385488
220	0x3dfe6e21	0.12423349
221	0xbe525e30	-0.20543742
222	0xbe5848df	-0.21121548
223	0xbde5e86d	-0.11225972
224	0xbe12f91a	-0.14352837
225	0xbe272120	-0.1632123
226	0xbdc7ae9f	-0.09750103
227	0x3e021f2e	0.12707207
228	0xbe4f3c2a	-0.20237795
229	0x3e0bb110	0.13641763
230	0xbc9fffb8	-0.019531116
231	0x3df418d4	0.11918798
232	0xbc1d8840	-0.009615004
233	0x3d092e9c	0.033491716
234	0x3dcbbfcc	0.09948692
235	0xbe01d1cb	-0.12677686
236	0xbcd44604	-0.025912292
237	0xbddca69b	-0.10773965
238	0x3dbd88d8	0.092546165
239	0x3e046af2	0.12931421
240	0xbe2de127	-0.1698042
241	0x3c5ce617	0.013482592
242	0x3c1db5e0	0.009625882
243	0xbcc1be27	-0.023650242
244	0xbc34908e	-0.011020793
245	0xbcb8b7d0	-0.022548586
246	0x3d195bd0	0.037441075
247	0xbe2dc5db	-0.16970007
248	0xbe3b4466	-0.1828781
249	0xbe2ecab0	-0.17069507
250	0xbe332fd9	-0.17498721
251	0xbe2cceff	-0.16875838
252	0xbe37da30	-0.17954326
253	0x3d203190	0.039109766
254	0x3d8c162a	0.06840165
255	0xbcde4764	-0.027133651

fc.0.bias f4 [128]
0	0x3e892ce7	0.2679207
1	0xbce7c7fb	-0.0282936
2	0x3e2d85e8	0.16945612
3	0x3d48c198	0.04901275
4	0x3e4a666c	0.19765633
5	0x3e20a32a	0.15687242
6	0x3e54323e	0.20722291
7	0x3d9d179b	0.07670518
8	0xbe1271a6	-0.14301166
9	0x3e4dd403	0.20100407
10	0x3dbd3806	0.09239201
11	0x3e5d5ec1	0.21618177
12	0x3e731b73	0.2374094
13	0x3e6e925d	0.2329802
14	0x3e03db81	0.12876703
15	0x3e7e0a56	0.2480863
16	0x3ea669c7	0.32502577
17	0x3e790263	0.24317317
18	0x3e6bc4df	0.23024319
19	0xbe11505c	-0.14190811
20	0x3e633d84	0.22191435
21	0x3e9c1e0d	0.30491677
22	0x3e59c129	0.21265091
23	0x3e4a95e6	0.19783744
24	0x3a2416de	0.0006259511
25	0x3dc5d1ea	0.096591786
26	0x3e8d95ef	0.27653453
27	0x3e40d9f1	0.18833138
28	0x3e88afe4	0.26696694
29	0x3e3d92bc	0.18513006
30	0x3e4dc4a5	0.20094545
31	0x3dec6b43	0.11543896
32	0x3e916cdb	0.28403363
33	0xbe09c844	-0.13455302
34	0x3e388b15	0.18021806
35	0xbe07de9f	-0.13268517
36	0x3e61e09e	0.22058341
37	0xbe0f9fba	-0.14025775
38	0x3e3a6b53	0.18205003
39	0x3e4825bc	0.19545645
40	0x3e6b5f52	0.2298558
41	0x3e93b7b7	0.288511
42	0x3e44e490	0.19227815
43	0x3e8216dc	0.25408065
44	0xbe103bfc	-0.14085382
45	0x3ece55ce	0.4029984
46	0x3e8634af	0.2621207
47	0x3d886e68	0.06661683
48	0x3e4ec50d	0.20192356
49	0x3d7c234d	0.061557103
50	0x3b1b61ec	0.002370949
51	0x3e0ccc15	0.13749726
52	0x3e89e0f0	0.26929426
53	0x3e6eced1	0.23321082
54	0x3e828fb4	0.25500262
55	0x3e97d598	0.29655147
56	0x3e22d361	0.15900947
57	0xbdf75e51	-0.12078536
58	0x3e88bae3	0.26705083
59	0x3e6bdfae	0.23034546
60	0x3bcf94f6	0.006334896
61	0x3da2f590	0.079569936
62	0x3e76125c	0.24030441
63	0x3de5b4d9	0.112161346
64	0x3e213ab0	0.15745044
65	0x3e26e17b	0.16296951
66	0xbcc9b99a	-0.024624635
67	0x3e99c2ae	0.3003134
68	0x3e6a577f	0.2288494
69	0x3e95c5e4	0.2925254
70	0x3e887952	0.2665506
71	0x3e660ed1	0.2246659
72	0x3e08fd03	0.13377766
73	0x3e1a7149	0.15082277
74	0x3e2e63c7	0.1703025
75	0x3e4e3b32	0.20139769
76	0x3e9223c2	0.28542906
77	0x3e059ca9	0.13048042
78	0x3e5d82b3	0.21631889
79	0x3eb52756	0.35381573
80	0x3d81c289	0.06335933
81	0x3ec238a8	0.3793385
82	0x3e8a808c	0.27051198
83	0x3e40a350	0.18812299
84	0x3db06c86	0.08614449
85	0x3e897d36	0.2685334
86	0x3e238c26	0.15971431
87	0x3e9223d7	0.2854297
88	0x3e513b51	0.20432784
89	0x3d0547ac	0.032539055
90	0x3e84255f	0.25809762
91	0x3e5fe843	0.21865945
92	0x3de0f314	0.109838635
93	0xbcf17762	-0.029475871
94	0x3e927aa9	0.28609207
95	0x3de6f177	0.112765245
96	0x3e5c1b37	0.21494757
97	0x3e7ccf94	0.2468856
98	0x3e8764e3	0.26444158
99	0x3e276557	0.16347252
100	0x3e591e06	0.2120286
101	0x3e825317	0.25454018
102	0x3e5f4240	0.21802616
103	0x3e5f6ef6	0.21819672
104	0x3e8da728	0.27666593
105	0x3dedf58d	0.11619101
106	0x3e7ff8d1	0.2499726
107	0x3e26cf37	0.16289984
108	0x3e715540	0.23567677
109	0x3e807875	0.250919
110	0x3e6a3a4a	0.22873798
111	0x3e87089d	0.2637376
112	0xbe081f32	-0.1329315
113	0x3e583016	0.21112093
114	0xbe11ba43	-0.1423121
115	0x3e8aa381	0.2707787
116	0x3e5dba54	0.2165311
117	0x3d331b89	0.04372743
118	0x3e89982b	0.26873907
119	0x3e50ab44	0.20377833
120	0x3e51bb4f	0.20481609
121	0xbd9a263a	-0.075268224
122	0x3e4cc8c2	0.19998458
123	0x3e98cdca	0.29844505
124	0x3e38a36f	0.18031095
125	0xbe0b36d6	-0.13595137
126	0x3e93ac3f	0.2884235
127	0x3e3617c6	0.17782506

fc.2.weight f4 [128, 128]
0	0x3e8d9d52	0.27659088
1	0xbe2b5b3f	-0.16734026
2	0x3debde99	0.115170665
3	0x3d90d42d	0.07071719
4	0xbe55fe93	-0.20897894
5	0x3ea1058d	0.31449547
6	0x3e10cd0f	0.14140724
7	0x3ccedd1f	0.025251923
8	0xbd4e36d3	-0.050345253
9	0x3e3bdafa	0.18345252
10	0x3de70924	0.1128104
11	0x3e7e62d5	0.24842389
12	0xbe634d47	-0.22197448
13	0x3e598806	0.21243295
14	0x3d1a57ee	0.037681513
15	0xbda28e14	-0.079372555
16	0x3e929b11	0.2863393
17	0x3e8cd941	0.27509502
18	0x3e4758c1	0.1946745
19	0x3db4ec45	0.08834127
20	0x3d2c3dcb	0.042051118
21	0x3de56cb1	0.11202372
22	0x3e86328c	0.2621044
23	0x3e9125a3	0.28349027
24	0x3c8decef	0.017324893
25	0x3e26b7ea	0.16281095
26	0x3e251c31	0.16124035
27	0x3e9cb3bc	0.30605876
28	0x3de233f9	0.11045069
29	0x3e669371	0.22517182
30	0x3dfc1429	0.12308533
31	0x3c4f77b4	0.012662817
32	0x3ec15914	0.37763274
33	0xbd6e8248	-0.058229715
34	0x3e8a796c	0.27045763
35	0xbd9c331a	-0.07626934
36	0x3db94315	0.09045998
37	0xbd4ad753	-0.049521755
38	0x3c462580	0.012093902
39	0xbcd9082d	-0.026493156
40	0x3efb017e	0.49024576
41	0x3e93f904	0.2890092
42	0x3e678bca	0.22611919
43	0x3e8e5ddc	0.27805984
44	0xba0ca192	-0.0005364652
45	0x3e68245e	0.22670123
46	0x3e98e550	0.29862452
47	0x3dfd7f31	0.123777755
48	0x3deb20fa	0.11480899
49	0x3e72c5ba	0.23708239
50	0xbc90ba80	-0.017667055
51	0xbecca172	-0.39966923
52	0x3e8ac176	0.27100724
53	0x3e737479	0.237749
54	0x3e38412a	0.17993608
55	0x3e5fcb2f	0.21854852
56	0x3e0852ad	0.13312788
57	0xbcfa02f1	-0.03051898
58	0x3e13f369	0.14448322
59	0x3e0d1ae3	0.13779788
60	0x3e2a4cbd	0.16630836
61	0x3de813b8	0.11331886
62	0x3e7c7c1d	0.2465672
63	0xbe1e1ad3	-0.1543992
64	0x3df9eac7	0.12202983
65	0x3dc394c6	0.09549861
66	0xbe9675b0	-0.29386663
67	0x3e8bc8e8	0.27301717
68	0xbed91337	-0.42397472
69	0x3e812ce8	0.25229573
70	0x3e823fa8	0.2543919
71	0x3e99b452	0.30020386
72	0x3e4c3d08	0.19945157
73	0x39702bca	0.00022904496
74	0x3e04065b	0.1289305
75	0x3e264052	0.16235474
76	0x3e728ad1	0.23685767
77	0x3ea2e618	0.31816173
78	0xbebe67f3	-0.37188682
79	0x3e4b6ed2	0.19866493
80	0xbea6bd95	-0.32566515
81	0x3e3f9d5c	0.18712372
82	0x3e317b2b	0.17332141
83	0x3e3a7b7c	0.18211168
84	0x3e817835	0.25287023
85	0x3e483880	0.19552803
86	0x3e699c19	0.22813453
87	0x3e80606b	0.2507356
88	0x3e8f7174	0.28016245
89	0x3d9c39cb	0.07628211
90	0x3eac6a15	0.33674684
91	0x3e956519	0.29178694
92	0x3b04eba7	0.0020282061
93	0x3dce3b03	0.10069849
94	0x3e73fc2c	0.23826665
95	0x3e855364	0.26040184
96	0x3e54985b	0.20761244
97	0xbf46317d	-0.77419263
98	0x3ea6bb8a	0.32564956
99	0x3e15b250	0.14618802
100	0x3e764ed3	0.24053507
101	0x3e8fe6ce	0.28105778
102	0x3e0f30bb	0.13983433
103	0xbede06e3	-0.4336463
104	0x3e2ec6b4	0.17067987
105	0x3d8907a8	0.066909134
106	0xbee997b4	-0.45623553
107	0xbea58fad	-0.32336178
108	0x3e5f297f	0.21793173
109	0x3e46830b	0.19385926
110	0x3e56bf44	0.209714
111	0x3e5bc431	0.2146156
112	0xbd28d315	-0.04121693
113	0x3dd75d0d	0.10515795
114	0xbbb040d1	-0.0053788205
115	0x3e7c6da8	0.24651206
116	0x3e34fd23	0.17674689
117	0x3e3a799b	0.18210451
118	0x3e80b47b	0.25137696
119	0x3e446543	0.19179253
120	0x3e464e4f	0.1936581
121	0x3e29fbc4	0.16599947
122	0x3e1b4cd9	0.15166034
123	0x3d5adffd	0.053436268
124	0x3e664b02	0.2248955
125	0xbd98a4cc	-0.074533075
126	0x3e8547be	0.26031297
127	0x3e27723e	0.16352174
128	0xbe863156	-0.26209515
129	0x3ec52556	0.38505048
130	0x3d4888df	0.048958655
131	0x3e02c0a0	0.12768793
132	0x3ec39bcd	0.38204804
133	0xbd0e81dd	-0.034791816
134	0x3d297dc1	0.041379694
135	0x3e430638	0.19045341
136	0xbba500a0	-0.005035475
137	0xbd13f4be	-0.036122076
138	0x3d375306	0.04475691
139	0x3df3fb5f	0.119131796
140	0x3e8b916f	0.27259395
141	0x3db4ac23	0.08821895
142	0x3da85d63	0.08220937
143	0x3edd9fc5	0.43285957
144	0xbd3dd449	-0.04634503
145	0xbe0e08f7	-0.13870607
146	0xbe441113	-0.19147138
147	0x3cd07ff4	0.025451638
148	0x3e472b3d	0.19450088
149	0x3d9efd4b	0.077631555
150	0x3db56842	0.08857776
151	0xbe4e684e	-0.20156977
152	0x3d384921	0.044991616
153	0x3e297197	0.16547237
154	0xbc91e040	-0.017807126
155	0x3cb9de8b	0.022689125
156	0x3b98d8da	0.0046645226
157	0x3dcf10ae	0.10110603
158	0x3e6a4645	0.22878368
159	0x3e2fc2a0	0.17164087
160	0xbdbbe625	-0.09174756
161	0xbd69b6a5	-0.05705895
162	0xbde3a1d1	-0.111148484
163	0x3d85fed7	0.065427475
164	0xbd315846	-0.043297075
165	0x3ce26e38	0.027640447
166	0x3e4754b9	0.19465913
167	0x3e86e10a	0.26343566
168	0xbebdc04d	-0.37060776
169	0xbded321d	-0.11581824
170	0xbdb1cfc2	-0.08682205
171	0x3cae5f15	0.021285573
172	0x3d2cbfce	0.042175107
173	0xbd0c2e99	-0.034224126
174	0xbd75594c	-0.059899613
175	0x3da68871	0.08131493
176	0x3e86d0c6	0.26331156
177	0x3d7e6f8e	0.062118106
178	0x3e02a484	0.1275807
179	0x3d95c3b4	0.07312718
180	0xbe24301f	-0.16033982
181	0xbe8fe853	-0.28106937
182	0xba260a52	-0.00063339353
183	0x3c617470	0.013760671
184	0x3c8f10d3	0.017464077
185	0x3d5248ab	0.051338833
186	0xbcdae916	-0.026722472
187	0xbcaf4935	-0.021397213
188	0x3d156102	0.036469467
189	0x3e2112f7	0.15729891
190	0x3bba5be8	0.0056872256
191	0x3ededd6e	0.43528312
192	0x3db5a7e3	0.088699125
193	0x3e32210f	0.17395423
194	0x3e416d54	0.18889362
195	0xbd89988d	-0.0671855
196	0x3f03bddd	0.51461583
197	0xbca54307	-0.020173563
198	0xbe8f00cb	-0.27930292
199	0xbe561033	-0.20904617
200	0x3c32a1b4	0.010902811
201	0xbcadd0e1	-0.021217765
202	0xbc24c470	-0.0100566
203	0x3dfff583	0.124979995
204	0x3d12fb48	0.03588417
205	0x3dae6e96	0.08517186
206	0x3ecec163	0.40381917
207	0xbe226cc3	-0.15861802
208	0x3e82530a	0.2545398
209	0x3da21110	0.07913411
210	0x3db37e2b	0.08764299
211	0xbe3f37a0	-0.18673563
212	0xbdb59a1a	-0.08867283
213	0xbcdd3a7b	-0.027005425
214	0x3d2bd215	0.041948397
215	0xbe21de90	-0.15807557
216	0xbe4c0d74	-0.19927007
217	0x3dffe614	0.12495056
218	0xbc1b645a	-0.009484375
219	0xbd19cb3b	-0.03754733
220	0x3de090f7	0.1096515
221	0x3d779e15	0.060453493
222	0xb9a12219	-0.00030733718
223	0x3e25f143	0.16205315
224	0x3cb2e2a2	0.021836583
225	0x3f24d0dc	0.64381194
226	0x3d986c3e	0.074425206
227	0x3dc6991b	0.09697171
228	0xbd19ce63	-0.03755034
229	0xbc795939	-0.015219026
230	0x3db3725a	0.08762045
231	0x3f2d011c	0.6757982
232	0x3d856f26	0.065153405
233	0x3dc15010	0.09439099
234	0x3f0d224c	0.5513046
235	0x3efbb707	0.49163076
236	0x3e125844	0.14291483
237	0x3c8fedb5	0.017569402
238	0xbe61fb48	-0.22068512
239	0xbe8765b4	-0.2644478
240	0xbda27a28	-0.07933456
241	0x3e1c399f	0.15256356
242	0xbd6d4e6a	-0.05793611
243	0xbdb43b2b	-0.08800348
244	0x3e75ceb1	0.24004628
245	0x3e0ee85a	0.13955823
246	0x3d8b014b	0.06787356
247	0x3d88aa01	0.06673051
248	0x3e495a51	0.19663359
249	0xbd886a3f	-0.0666089
250	0x3d907831	0.07054175
251	0x3cc31531	0.023813816
252	0xbd1039c0	-0.035211325
253	0x3c1d4c30	0.009600684
254	0xbe0ca8a1	-0.13736202
255	0x3e474ee5	0.1946369

fc.2.bias f4 [128]
0	0x3e6c5ca5	0.23082216
1	0x3dece2f8	0.11566728
2	0x3e4b6063	0.19860987
3	0xbd60bfe3	-0.054870497
4	0xbd2ab793	-0.041678976
5	0xbcba91cf	-0.022774605
6	0xbd78e4df	-0.060765143
7	0x3d433829	0.04766098
8	0x3b63a133	0.0034733533
9	0x3d67b535	0.056569297
10	0x3e2ee7d5	0.17080624
11	0x3e24c509	0.16090788
12	0x3dcf049f	0.10108303
13	0x3e8e3d3f	0.27781102
14	0x3df2d51a	0.11857052
15	0x3e425928	0.18979323
16	0x3e694a13	0.22782163
17	0xbdb32e42	-0.08749057
18	0xbd64a9d4	-0.055826023
19	0x3e57cc33	0.2107399
20	0x3c94fc8d	0.018186832
21	0x3dd36ff8	0.10324091
22	0xbd21cefe	-0.039504044
23	0x3d654035	0.055969436
24	0xbbe2721f	-0.006910577
25	0x3dbb7a90	0.09154236
26	0x3e067bf0	0.13133216
27	0x3b895fea	0.004192342
28	0x3e733452	0.23750427
29	0x3eb24a19	0.34822157
30	0x3e084fc2	0.13311675
31	0x3e5297ca	0.20565715
32	0xbd898423	-0.06714656
33	0x3e521d60	0.20519018
34	0x3eab71e3	0.33485326
35	0x3e4836b8	0.19552124
36	0xbdcbfcae	-0.09960304
37	0x3e1dee80	0.15423012
38	0x3e12e5dc	0.14345497
39	0x3e14c2fa	0.14527503
40	0x3d1a99f2	0.03774447
41	0x3d61dfbb	0.055145007
42	0x3d1e19fc	0.038599
43	0xbd93026f	-0.071781985
44	0x3e47d228	0.19513762
45	0x3d39f9e9	0.04540435
46	0x3e2de619	0.16982307
47	0xbd7cb71c	-0.061698064
48	0x3e86b130	0.26307058
49	0x3da8dccb	0.08245238
50	0xbd0f9d58	-0.035062164
51	0x3d15f2af	0.036608394
52	0x3e3ff517	0.18745838
53	0x3e0ffa68	0.14060366
54	0x3dfaced5	0.12246481
55	0x3df8381f	0.12120079
56	0x3df16e39	0.117886014
57	0x3e60d77c	0.21957201
58	0x3e275937	0.16342627
59	0xbd5a3126	-0.053269528
60	0xbdbbb58f	-0.09165489
61	0x3e80fd93	0.25193462
62	0xbc9e0587	-0.019289745
63	0xbd45bbdb	-0.048274856
64	0xbd75caf5	-0.060008008
65	0x3db2800c	0.08715829
66	0xbd40ca8d	-0.047068167
67	0xbd501e9c	-0.05081044
68	0x3e64b1ee	0.223335
69	0x3e96a2f5	0.294212
70	0xbac6aee6	-0.0015158325
71	0x3de97d4b	0.11400851
72	0x3dd77f2b	0.10522302
73	0xbd51bfbe	-0.05120825
74	0x3e8e608a	0.27808028
75	0x3dd33dbf	0.103145115
76	0x3e70f919	0.23532523
77	0xbe39b1bb	-0.18134205
78	0xbcb98605	-0.022646913
79	0x3e9191fa	0.28431684
80	0x3e78a751	0.24282576
81	0x3e2f2013	0.17102079
82	0x3d72e02a	0.05929581
83	0x3d2286ed	0.039679457
84	0x3e33403f	0.17504977
85	0xbdb2a173	-0.087222
86	0x3e881bb1	0.26583627
87	0xbd9cbf3f	-0.07653665
88	0x3dec2814	0.11531082
89	0xbd223cca	-0.039608754
90	0x3e8452a4	0.258443
91	0x3e15a6b1	0.14614369
92	0xbd026410	-0.03183371
93	0x3d398c97	0.045300093
94	0x3e3b81a6	0.18311176
95	0x3e39d478	0.18147457
96	0x3e2de2cf	0.16981052
97	0x3e5ec441	0.21754552
98	0x3d47dd28	0.048794895
99	0xbdaa82ab	-0.08325704
100	0x3e3ea853	0.18618898
101	0x3e5000da	0.20312825
102	0x3d73e5ff	0.059545513
103	0x3de67f30	0.11254728
104	0x3e92c750	0.28667688
105	0xbdbac0af	-0.09118783
106	0x3e0d5d0d	0.13805027
107	0x3e40611a	0.18787041
108	0xbcfe6949	-0.031056063
109	0x3d52201e	0.05130016
110	0x3d56e371	0.052463
111	0x3d5e6fae	0.054305725
112	0x3e92877a	0.28618985
113	0xbd84b85f	-0.064804785
114	0x3cf0d6dc	0.029399328
115	0xbd7aad4f	-0.061200436
116	0x3e7aef82	0.24505427
117	0xbcbefa94	-0.023312844
118	0x3dc4f5be	0.09617184
119	0xbd13f753	-0.03612454
120	0x3d897727	0.0671218
121	0x3e51f4f4	0.20503598
122	0x3deb6b67	0.11495095
123	0x3d403b67	0.04693165
124	0x3e348e34	0.17632371
125	0xbd724f0a	-0.05915741
126	0x3d9b16be	0.07572697
127	0x3d369a2c	0.044580624

fc.4.weight f4 [4, 128]
0	0xbdb4a657	-0.08820789
1	0xbe5287fa	-0.20559683
2	0xbb1c75a7	-0.0023873837
3	0x3e290038	0.1650399
4	0x3e17739c	0.14790195
5	0x3d970ca4	0.07375458
6	0xbe5ded1b	-0.2167248
7	0x3cb952f7	0.022622569
8	0xbe21cadc	-0.15800041
9	0xbd68b5d3	-0.056814026
10	0xbdedaae1	-0.11604858
11	0x3d66f6cc	0.056387708
12	0x3de7538e	0.11295234
13	0xbddbe7c6	-0.10737567
14	0x3d4137ee	0.04717248
15	0xbc438af8	-0.011934988
16	0x3d5a2564	0.053258315
17	0x3cb704ec	0.022341214
18	0xbd6ecd11	-0.058301035
19	0xbd2fe36a	-0.04294149
20	0xbe37ac7a	-0.17936888
21	0x3d9bde5e	0.076107726
22	0x3da139fe	0.07872389
23	0x3dd45a32	0.10368766
24	0x3d6aed11	0.05735499
25	0x3e421e40	0.18956852
26	0x3b66293c	0.0035119792
27	0x3e9877dd	0.29778948
28	0xbdd6fc61	-0.10497356
29	0xbde99521	-0.11405397
30	0xbe1b66f0	-0.15175986
31	0xbd37eb43	-0.044902097
32	0x3da4e50e	0.08051501
33	0xbe3a178c	-0.18173045
34	0xbe1129df	-0.14176129
35	0x3d920f8a	0.0713187
36	0x3d9618fb	0.073289834
37	0xbf5b5eab	-0.85691327
38	0xbe74485f	-0.23855732
39	0xbcb9d90a	-0.0226865
40	0xbd05f20c	-0.032701537
41	0xbda2a54f	-0.07941686
42	0xbddbdccd	-0.10735474
43	0x3ca75ecd	0.020430947
44	0x3e1110b5	0.1416653
45	0xbe523a3e	-0.2053003
46	0x3beede4b	0.007289683
47	0xbcafccb8	-0.021459922
48	0xbd4e4464	-0.05035819
49	0x3e184aac	0.14872235
50	0x3dd812cb	0.105504595
51	0x3d9f6d23	0.07784488
52	0xbde2f6fd	-0.110822655
53	0x3e388714	0.18020278
54	0x3da069b5	0.07832662
55	0xbe08f7d2	-0.13375786
56	0x3e416f88	0.18890202
57	0xbe0440aa	-0.12915292
58	0xbde690e4	-0.112581044
59	0xb9d47e00	-0.00040529668
60	0xbd0c727d	-0.034288872
61	0xbf1cbaf8	-0.6122279
62	0xbe495bed	-0.19663973
63	0xbd35904f	-0.044327077
64	0xbd8edcb7	-0.06975692
65	0x3dd3f869	0.10350115
66	0x3e63748b	0.22212426
67	0x3d7e4767	0.062079813
68	0xbe864349	-0.2622321
69	0xbdf42190	-0.11920464
70	0x3cddd1d9	0.027077602
71	0xbc582577	-0.013192526
72	0xbe3b837e	-0.18311879
73	0xbc77bea8	-0.01512114
74	0x37ae4b3c	2.077745e-05
75	0xbd674b84	-0.0564685
76	0xbddf4df8	-0.10903543
77	0xbea8aa5b	-0.3294247
78	0xbe1b50b5	-0.15167506
79	0xbe36f8fc	-0.17868418
80	0xbc65b484	-0.014020089
81	0xbd0d10d2	-0.03443987
82	0x3da7a3b6	0.08185522
83	0x3e4c5323	0.19953589
84	0x3db1a2f1	0.08673657
85	0xbcffcc2f	-0.031225292
86	0xbd89fb5f	-0.06737398
87	0x3f0751fd	0.5285948
88	0xbcbf9bde	-0.023389753
89	0x3c6ee4e2	0.014580937
90	0x3c6e8d72	0.01456009
91	0xbdec6626	-0.11542921
92	0x3c6bf406	0.014401441
93	0xbc7ea70d	-0.015542758
94	0x3e0fa164	0.1402641
95	0xbe5f3216	-0.2179645
96	0xbec0681a	-0.37579423
97	0x3de074a3	0.10959747
98	0x3ddd7eb7	0.108151846
99	0x3d27c66a	0.040960707
100	0xbc772e8f	-0.015086784
101	0x3d1604e2	0.03662575
102	0x3e44afc5	0.19207676
103	0xbdca8fb2	-0.09890689
104	0xbe269e31	-0.16271283
105	0xbd955ac3	-0.07292702
106	0x3ce24325	0.027619908
107	0xbc1a9ba9	-0.009436526
108	0xbe1843ec	-0.1486966
109	0x3eace5ab	0.33768973
110	0xbd61740e	-0.05504232
111	0x3d5c2125	0.053742547
112	0xbe4d5b30	-0.20054317
113	0x3e1da76d	0.15395899
114	0xbe2a3bbf	-0.16624354
115	0xbd6bafe8	-0.057540804
116	0xbd90b73a	-0.07066198
117	0xbdc18b3a	-0.094503835
118	0x3dcd7bed	0.100334026
119	0xbe740616	-0.23830447
120	0xbe6a461a	-0.22878304
121	0x3d58241a	0.052768804
122	0xbd70e381	-0.058810715
123	0xbdabcdee	-0.08388887
124	0xbd8e7cf7	-0.06957429
125	0xbc9e0d6b	-0.019293508
126	0xbc83adab	-0.016074022
127	0xbcb9d82c	-0.022686087
128	0xbe660eba	-0.22466555
129	0x3d6a0c9a	0.057140924
130	0xbe151323	-0.14558081
131	0xbe982989	-0.2971919
132	0xbe8cbfc8	-0.27490067
133	0xbd9da3c3	-0.07697251
134	0xbe679bbb	-0.22618
135	0x3bfe306c	0.007757237
136	0xbe66bf0a	-0.22533813
137	0xbe497a9a	-0.19675675
138	0xbe5bd734	-0.21468812
139	0xbe7266c3	-0.23672013
140	0xbe332b0d	-0.17496891
141	0x3eb9547a	0.36197263
142	0xbeb0aa48	-0.34504914
143	0xbe991ce9	-0.2990487
144	0xbe59e293	-0.21277837
145	0x3d9a3db9	0.07531304
146	0x3d9240a8	0.071412385
147	0xbe8d74a1	-0.27628043
148	0xbe803082	-0.2503701
149	0x3ea9d431	0.33169702
150	0xbe84e7ee	-0.25958198
151	0xbe77fac0	-0.24216747
152	0x3bf51820	0.0074796826
153	0x3e228a6b	0.15873115
154	0xbeb00f68	-0.34386754
155	0xbe81a045	-0.25317588
156	0xbe4e3aa6	-0.2013956
157	0x3ea8d2b6	0.3297326
158	0xbebe5725	-0.3717586
159	0xbe530516	-0.20607409
160	0xbd810fcf	-0.063018434
161	0xbe6fc818	-0.23416173
162	0x3ed22a2c	0.410478
163	0xbe67b551	-0.2262776
164	0xbd831a60	-0.06401515
165	0xbdb2b4d6	-0.08725898
166	0xbeb9bcf7	-0.3627698
167	0xbe8203be	-0.2539348
168	0x3c9c8f1e	0.019111212
169	0xbe147d7d	-0.14500995
170	0xbdd49923	-0.10380771
171	0x3b8b0230	0.004242204
172	0xbe2711a4	-0.16315323
173	0xbdf2ce61	-0.1185577
174	0x3eb4d26b	0.35316786
175	0xbc08e428	-0.008355178
176	0x3edd7859	0.4325588
177	0xbe8c6ad6	-0.2742526
178	0xbebae721	-0.36504462
179	0xbed9d741	-0.42547038
180	0x3ec12dcd	0.37730256
181	0x3d575bd7	0.05257782
182	0xbe72f3e7	-0.23725854
183	0xbe0bfb68	-0.13670123
184	0xbed983ff	-0.42483518
185	0xbe3554ce	-0.17708132
186	0x3edb1a5e	0.42793554
187	0x3da1e563	0.0790508
188	0x3d254ec5	0.040358324
189	0x3e739da4	0.23790604
190	0xbe7e3b47	-0.248273
191	0x3cbc1800	0.022960663
192	0x3da369ae	0.07979141
193	0xbde1ecda	-0.11031504
194	0xbe1df757	-0.15426384
195	0xbcb2bfe1	-0.02182001
196	0xbeb912d0	-0.36147165
197	0x3eb51df6	0.3537442
198	0xbd8d7bcb	-0.06908377
199	0xbeb55847	-0.35418913
200	0xbe78139d	-0.24226232
201	0x3cbefaac	0.023312889
202	0x3ed1ac06	0.40951556
203	0xbe8a1cdd	-0.26975146
204	0x3eb7840a	0.35842925
205	0xbe85918d	-0.2608761
206	0xbeb5fda1	-0.35545066
207	0x3eb2e780	0.34942245
208	0xbe8fbf87	-0.2807581
209	0xbe8255c3	-0.25456056
210	0xbee34aa0	-0.44392872
211	0x3db45aab	0.08806356
212	0xbe751687	-0.23934375
213	0x3d01e3e6	0.03171148
214	0xbe563ab3	-0.2092083
215	0xbe59023e	-0.21192262
216	0xbe908895	-0.28229204
217	0x3d90f6d5	0.070783295
218	0xbe2d99ed	-0.1695325
219	0xbe3780c5	-0.17920215
220	0xbd7c4996	-0.061593615
221	0x3be945d7	0.0071189213
222	0x3e9bdfad	0.3044409
223	0x3e5b53c5	0.21418674
224	0xbdff35dd	-0.124614455
225	0x3eb021bc	0.34400737
226	0xbe1b8e1f	-0.15190934
227	0x3cca41da	0.024689604
228	0x3eca4ead	0.3951315
229	0xbe652da7	-0.22380696
230	0x3e81f444	0.25381672
231	0xbd3ea56c	-0.046544477
232	0xbe5c98ea	-0.21542707
233	0xbc946413	-0.018114125
234	0xbe6f8bbd	-0.2339315
235	0xbe8089a9	-0.25105026
236	0xbe8f3e2d	-0.27977124
237	0xbc4dcc8d	-0.012560976
238	0x3b5b6a4e	0.003348011
239	0x3d32032a	0.04346005
240	0xbeaf7311	-0.34267476
241	0xbee1cb03	-0.44100198
242	0xbe3fffdf	-0.18749951
243	0xbc26ff98	-0.010192774
244	0xbe6f1104	-0.23346335
245	0x3bb5f1b6	0.005552496
246	0xbed00916	-0.40631932
247	0xbe95d13e	-0.29261202
248	0xbe9456d8	-0.28972507
249	0x3e954995	0.291577
250	0xbe441fe2	-0.19152787
251	0xbe857eca	-0.26073295
252	0xbe87f961	-0.26557449
253	0x3d41eda8	0.047345787
254	0xbe909ed5	-0.2824618
255	0xbd564673	-0.05231328

fc.4.bias f4 [4]
0	0xbeba8ed2	-0.36437088
1	0xbe52fbf4	-0.20603925
2	0xbdfe788a	-0.12425335
3	0xbe8cd7ca	-0.27508384
