dqn_lunar_lander.pth (torch, 75426 bytes, 6 tensors)

fc.0.weight f4 [128, 8]
-0.21611394 -2.0208073 1.1497265 -0.15349275 -2.2809482 0.8915223 0.8112463 -0.82170886
0.61981326 -2.0408585 -0.18245482 -0.6120621 -1.1176894 -1.144665 -0.84673864 2.0685592
0.85671103 0.6580928 -0.871215 -0.82019186 0.07779359 -1.1047077 0.14827123 0.80923903
-0.13370024 -3.0844762 -0.06490951 2.8541496 0.37431085 -1.3852562 0.27299199 0.8987593
-0.46259874 -0.07829036 0.053994946 0.049177486 -4.0957313 0.10483455 0.48176044 -0.3830179
1.526512 -0.1554173 -0.68196374 -0.23295626 0.55490154 1.196335 0.3338556 -1.6844641
0.07993689 -1.9167118 -0.3197253 1.5775522 0.30356553 0.815408 1.8245656 -0.10827674
0.062608585 -0.17478226 -0.09343525 -0.40765783 1.2315156 1.8794823 1.1249491 -1.6947815
1.1925521 -0.2783851 0.47234863 0.1218579 2.5417407 0.11752264 -0.7900253 -0.42423752
-0.55354595 -0.20773613 -0.7866817 -0.5966672 0.4977472 0.9959972 -1.6613603 -0.8806145
-3.0584188 0.08670535 -1.6451901 -0.52450556 1.2321651 0.7988141 -0.11819103 -0.55104697
2.2466247 -2.4981053 -0.6755722 -0.17913112 -2.0731983 1.3191804 0.83153963 -1.3441172
-0.2357433 -2.4856267 -1.487917 1.8929479 -2.0894551 -0.11222254 1.5422734 -1.2160716
-0.30340374 -1.273394 -0.053422075 0.97296154 0.69182485 1.8417745 0.9852053 -0.34665778
0.5329592 0.5160912 -1.272319 0.41450143 -0.03891274 -1.851681 -2.1044629 1.5974451
-1.7501754 -0.83876497 -0.6210203 -0.4298237 2.0155613 -0.21957031 -1.2506695 -1.370042
1.463012 -0.59859747 1.247475 -0.6010252 1.5127573 -0.327158 0.13954443 -1.555358
1.7262071 -2.6720674 0.22961135 0.81444716 0.6530083 -0.56135654 -0.7761809 -0.148418
-0.61317754 -1.3750106 -1.6552778 -0.40154475 2.1222801 -0.69050115 -0.91335726 0.43172738
0.2536644 -3.0063174 -0.93746537 -1.1821474 -0.0041080615 1.1731222 1.2904265 -2.6429179
-0.109298654 -0.19251454 -2.0189133 -1.7261841 -1.0095341 0.18579835 -0.34622803 -0.49240586
-0.9198787 -5.1828337 -0.63485277 -0.8785627 1.2212609 0.8919498 0.69766515 0.22879395
-1.4128836 0.4850317 -1.8539699 0.9020634 -0.52435386 -1.8236378 0.5134491 1.4959244
-0.25886723 -0.0023173043 0.08687625 2.1349227 1.9863827 -1.4975997 0.21286647 0.16808201
-2.352152 0.13625118 0.4058489 -0.085588716 -0.47076046 1.6885754 -1.7595273 -1.3393539
0.11493646 -0.08261563 -1.4697506 1.2987057 -0.66002357 -1.1448135 -0.27074006 -0.23592453
-2.7527225 -1.1287459 -0.60864186 0.19080624 2.7730122 -0.09504882 0.3335857 -0.20557001
-2.153021 0.952763 -0.40255144 0.68903476 0.87189656 0.00030695842 0.046665616 1.8868536
1.0621963 -0.4079713 -1.4160678 -0.5472402 -1.3460221 -1.9749852 1.5037926 -1.7799137
-0.81243205 0.3543887 0.3575816 -1.3842347 1.3195127 2.374653 -0.015280679 -1.0669767
-2.1439734 0.4193828 0.28676695 -1.5939541 0.9822309 0.84754765 -0.16186798 -1.2663099
-1.9660158 0.08186523 -0.05469944 -0.79648715 -0.2928646 0.0024483837 1.3870544 1.41224
00000000: f94c 5dbe e854 01c0 3d2a 933f 342d 1dbe
00000010: 0efb 11c0 ce3a 643f d6ad 4f3f 835b 52bf
00000020: 15ac 1e3f 6d9d 02c0 70d5 3abe 1ab0 1cbf
00000030: 7210 8fbf 6284 92bf ddc3 58bf 4663 0440
00000040: 6a51 5b3f c578 283f f207 5fbf 18f8 51bf
00000050: 3f52 9f3d 1067 8dbf 6ad4 173e 4a2a 4f3f
00000060: b7e8 08be 0f68 45c0 47ef 84bd 63aa 3640
00000070: aca5 bf3e 1350 b1bf 9bc5 8b3e 1715 663f
00000080: bed9 ecbe b256 a0bd ce29 5d3d 556e 493d
00000090: 3b10 83c0 7fb3 d63d 4ea9 f63e ec1a c4be
000000a0: bf64 c33f b625 1fbe 2d95 2ebf 168c 6ebe
000000b0: 070e 0e3f 8121 993f 1fef aa3e 859c d7bf
000000c0: f4b5 a33d d056 f5bf 09b3 a3be 3bed c93f
000000d0: f16c 9b3e 94be 503f 5e8b e93f 32c0 ddbd
000000e0: ee38 803d 1ffa 32be fb5a bfbd 87b8 d0be
000000f0: 4ea2 9d3f e092 f03f 55fe 8f3f 9aee d8bf
00000100: 8ca5 983f 7e88 8ebe aed7 f13e a290 f93d
00000110: e1ab 2240 b6af f03d 193f 4abf a935 d9be
00000120: 30b5 0dbf c8b8 54be f963 49bf 2ebf 18bf
00000130: b9d8 fe3e acf9 7e3f 74a7 d4bf f46f 61bf
00000140: 22bd 43c0 9392 b13d 9795 d2bf ff45 06bf
00000150: 96b7 9d3f 157f 4c3f 240e f2bd 6a11 0dbf
00000160: b3c8 0f40 f5e0 1fc0 4df2 2cbf 266e 37be
00000170: 48af 04c0 e7da a83f c8df 543f 080c acbf
00000180: b166 71be 8214 1fc0 1074 bebf 1e4c f23f
00000190: a2b9 05c0 eed4 e5bd 3769 c53f 3ca8 9bbf
000001a0: bc57 9bbe 93fe a2bf 1bd1 5abd 0214 793f
000001b0: 6f1b 313f 44bf eb3f 6a36 7c3f 217d b1be
000001c0: 0470 083f 8e1e 043f 59db a2bf 8839 d43e
000001d0: f762 1fbd e203 edbf 85af 06c0 1579 cc3f
000001e0: bf05 e0bf 4db9 56bf 30fb 1ebf da11 dcbe
000001f0: f5fe 0040 0ad7 60be f015 a0bf 895d afbf
00000200: fa43 bb3f af3d 19bf 43ad 9f3f cadc 19bf
00000210: 08a2 c13f 4181 a7be bce4 0e3e f915 c7bf
00000220: 5bf4 dc3f 2703 2bc0 3d1f 6b3e 9c7f 503f
00000230: 8d2b 273f 10b5 0fbf cbb3 46bf e3fa 17be
00000240: 34f9 1cbf 5900 b0bf 25e0 d3bf 4697 cdbe
00000250: 70d3 0740 afc4 30bf c8d1 69bf 5f0b dd3e
00000260: 4de0 813e 8167 40c0 bbfd 6fbf 9b50 97bf
00000270: eb9c 86bb de28 963f b22c a53f 9125 29c0
00000280: f9d7 dfbd 8822 45be e035 01c0 9af3 dcbf
00000290: 6a38 81bf ec41 3e3e cd44 b1be 9f1c fcbe
000002a0: 2c7d 6bbf c6d9 a5c0 b685 22bf 7ce9 60bf
000002b0: 4752 9c3f d256 643f 2f9a 323f f648 6a3e
000002c0: 5fd9 b4bf 1356 f83e e34e edbf a1ed 663f
000002d0: 0e3c 06bf f76c e9bf 6671 033f 737a bf3f
000002e0: 3f8a 84be eadd 17bb 2dec b13d 93a2 0840
000002f0: ca41 fe3f 59b1 bfbf abf9 593e b11d 2c3e
00000300: a989 16c0 6e85 0b3e 6dcb cf3e 2349 afbd
00000310: 8407 f1be 3d23 d83f 3138 e1bf f36f abbf
00000320: cf63 eb3d 6232 a9bd ca20 bcbf fd3b a63f
00000330: 4ef7 28bf 4089 92bf 719e 8abe 3396 71be
00000340: 9b2c 30c0 bf7a 90bf f4cf 1bbf b662 433e
00000350: 0879 3140 f5a8 c2bd bfcb aa3e f280 52be
00000360: 19cb 09c0 47e8 733f 391b cebe 9564 303f
00000370: 9d34 5f3f 43ef a039 7224 3f3d 6b84 f13f
00000380: 0cf6 873f 9de1 d0be b641 b5bf ef17 0cbf
00000390: 744a acbf 51cc fcbf 477c c03f 36d4 e3bf
000003a0: 8cfb 4fbf 7072 b53e ef14 b73e 9a2e b1bf
000003b0: cbe5 a83f 51fa 1740 d05b 7abc b192 88bf
000003c0: dc36 09c0 58b9 d63e 1ed3 923e b006 ccbf
000003d0: 7c73 7b3f e2f8 583f b8c0 25be 7116 a2bf
000003e0: 68a6 fbbf f5a8 a73d 850c 60bd 95e6 4bbf
000003f0: 59f2 95be 1075 203b 008b b13f 48c4 b43f

fc.0.bias f4 [128]
0.50876266 0.5459127 -0.50904655 0.4359247 0.10862189 -0.4731787 -0.28777725 -0.27491173
0.41695124 0.9802393 0.04060393 0.13571966 -0.99104124 0.9278687 0.14489813 0.1313156
-0.90437156 -1.2875688 -0.7442729 0.0028459444 0.073018186 0.0051939124 -0.4159473 0.33205715
-0.3443368 1.6474066 0.37820727 0.1042213 0.18101172 -0.9891999 -0.10490635 0.093601204
0.30285788 0.042380854 -0.36681566 0.72591317 0.47767505 0.77915585 -0.87193185 -0.505427
-1.0988274 0.32224363 0.16645999 0.36651352 -0.9417103 -1.4779589 0.19447567 0.06690225
-0.3154669 0.42642805 -1.310945 1.0694567 1.7005429 0.8263392 0.41040957 -0.5741752
-2.0078902 0.18014698 0.20283513 0.4619641 0.5270035 0.8178223 -0.11800972 1.1534432
-0.6103477 -1.4040066 0.57365423 -0.1535536 -0.10179793 0.9074592 -1.0250275 0.4718284
-0.527489 -0.927744 0.79213125 -1.9874787 -1.2376846 0.2249701 0.031319756 0.6898259
1.2115474 -0.67551184 -0.8637423 -0.13673292 0.8879886 -0.5871612 0.792174 -0.96920294
0.44744334 0.48058876 1.1970013 0.65520805 -0.043683097 -1.3839343 -0.80852836 0.5675683
-0.030975515 0.41118294 0.6022776 0.08688763 -0.439792 0.95067984 -0.54245174 0.8312575
0.043299105 -0.8656218 -0.1677582 -0.22518139 0.17016615 0.62099206 -0.14870432 -0.4877801
-0.5986515 1.4849188 -0.10104235 -0.39245343 -0.017475368 1.3134252 -1.067372 0.018695746
-0.696605 0.9010752 -0.7341584 -1.174621 1.273759 -0.2613113 -0.90794957 -0.7762294
00000000: 453e 023f efc0 0b3f e050 02bf 8631 df3e
00000010: 2775 de3d 7b44 f2be 8a57 93be 3bc1 8cbe
00000020: a27a d53e f6f0 7a3f 4e50 263d 18fa 0a3e
00000030: e1b4 7dbf ce88 6d3f 2d60 143e 9977 063e
00000040: e584 67bf 0ecf a4bf ab88 3ebf 0683 3a3b
00000050: 8f8a 953d b231 aa3b 0bf7 d4be 6503 aa3e
00000060: ea4c b0be 38de d23f 62a4 c13e fa71 d53d
00000070: 235b 393e 343c 7dbf 24d9 d6bd fdb1 bf3d
00000080: 3010 9b3e 8c97 2d3d 43cf bbbe 72d5 393f
00000090: d391 f43e c276 473f ed36 5fbf aa63 01bf
000000a0: 60a6 8cbf 1efd a43e 7d74 2a3e a9a7 bb3e
000000b0: ed13 71bf c22d bdbf a124 473e 0c04 893d
000000c0: e184 a1be c754 da3e 0ccd a7bf f5e3 883f
000000d0: 64ab d93f f78a 533f 3421 d23e 25fd 12bf
000000e0: 4681 00c0 7378 383e 03b4 4f3e 8f86 ec3e
000000f0: b4e9 063f cd5c 513f 15af f1bd 07a4 933f
00000100: bf3f 1cbf 7db6 b3bf 01db 123f 283d 1dbe
00000110: 6f7b d0bd 3f4f 683f 1a34 83bf 7e93 f13e
00000120: 8509 07bf a180 6dbf 1dc9 4a3f b465 febf
00000130: 736c 9ebf 905e 663e 2549 003d 6e98 303f
00000140: fc13 9b3f 58ee 2cbf 371e 5dbf b703 0cbe
00000150: 3953 633f 3250 16bf eacb 4a3f af1d 78bf
00000160: 4b17 e53e bb0f f63e 5737 993f b7bb 273f
00000170: 0ced 32bd c224 b1bf b7fb 4ebf 284c 113f
00000180: 5dc0 fdbc 9286 d23e dd2e 1a3f 24f2 b13d
00000190: 6b2c e1be c15f 733f 1ede 0abf 4bcd 543f
000001a0: 675a 313d 6499 5dbf cec8 2bbe f395 66be
000001b0: 0940 2e3e 56f9 1e3f f245 18be 50be f9be
000001c0: 3a41 19bf d211 be3f 4bef cebd a8ef c8be
000001d0: 8128 8fbc 511e a83f a59f 88bf d227 993c
000001e0: b554 32bf ddac 663f cef1 3bbf fb59 96bf
000001f0: 890a a33f 98ca 85be 626f 68bf f8b6 46bf

fc.2.weight f4 [128, 128]
-0.1683082 -0.07901012 0.013497538 -0.08627423 -0.08440618 -0.14892626 -0.07854113 -0.14262739
-0.040754717 0.068005465 0.017257104 -0.042254623 0.065473326 -0.015150174 -0.029247457 0.06327938
0.06456517 -0.12567817 0.044278778 -0.058942955 -0.070709854 -0.102489226 -0.045347277 -0.024336766
0.059364315 -0.026419496 -0.114172086 -0.056521248 -0.028203366 -0.11111287 0.054925196 -0.08938852
-0.2259647 -0.016732352 -0.08949977 -0.016700294 0.044964693 -0.014015955 0.0173124 0.010413233
0.011312866 0.11047248 -0.04134934 0.002592581 0.05995852 -0.037040204 -0.12637521 -0.017091312
-0.1583501 -0.1279147 0.0053610937 -0.102871016 -0.057721797 -0.23158012 -0.07306336 -0.1020026
0.022343352 -0.030329725 0.013346695 -0.02385899 -0.031643774 -0.12950213 0.10754034 0.041292418
-0.22825116 -0.12903778 -0.17435387 -0.03329958 -0.081938595 -0.11173388 -0.067753166 -0.08390788
-0.06968624 -0.084884025 -0.0060710995 0.038186032 -0.037014425 -0.012055458 0.044998873 0.061552644
0.08141723 -0.039038744 -0.29385278 -0.036274664 -0.08571481 -0.10239674 -0.1665629 -0.04372075
0.010274439 -0.019308394 0.023528142 0.07091784 -0.021836383 -0.062776305 0.034881096 0.15634792
-0.19020279 -0.009171825 0.06642381 -0.12326981 0.02152327 0.033672288 -0.015566978 0.065980904
0.084725186 0.01672605 -0.13745548 -0.014320038 0.04383412 -0.098350465 0.12628722 0.00019406428
0.047971364 -0.063635685 -0.15005055 -0.00081261003 -0.09439593 0.014710622 -0.027987808 -0.058381002
0.07892568 -0.041680425 -0.14643344 0.042446516 0.045430638 0.11601415 -0.1781109 -0.14729525
-0.84439105 0.32422185 -0.054924283 2.0469599 1.4466782 -0.25367907 -2.0710723 -1.4284433
-1.2995284 -0.44371176 -1.5142939 -0.3692037 -3.0935903 0.11488487 -0.2588109 -2.4884076
0.8824234 0.25541082 -2.8689036 -3.7088501 0.2154444 0.5766415 -0.8531527 -0.786507
-2.765762 -0.25870654 0.44481298 0.021006633 -0.1066217 -0.030969454 -0.2680709 0.24859743
-0.2725937 1.1216731 -0.6113289 0.6764816 0.5062088 0.1693082 0.11598827 -1.8427314
0.122072496 0.3729897 1.2916626 -0.49081156 -3.2353797 -2.8493116 -0.032262277 0.13967448
-0.7525602 -1.7800217 -1.2688109 -0.26239905 0.40621498 0.08935219 -1.534895 -3.5130384
-0.9257622 -1.7560456 0.32128662 -0.101067886 0.47183263 0.5475036 -3.228693 0.8332749
-1.4000503 1.4192883 0.20387584 -1.0453936 -0.6418891 0.11008108 0.1889934 0.69112444
-0.85781276 0.14327721 1.5439378 -1.0349581 -0.11603782 1.1803446 -0.16687429 0.31084535
0.43534884 -2.1665008 0.13754845 0.023636049 0.33434507 -0.09819146 1.0115058 -3.1374218
-0.7371062 0.3239408 -0.4542366 0.19601427 0.4078079 -3.313471 -1.0030894 -5.0513563
-0.1856496 -0.68669254 -1.0282346 -0.3011957 1.440114 0.62867284 -0.12594528 -2.4223683
-0.088846214 1.1701723 0.5286592 -4.4831862 -1.5859884 1.2700019 1.4761783 0.36376965
-0.4728568 -0.16389163 -0.4820555 2.6421738 0.16056022 -0.84477264 0.3388579 0.21024889
-0.21082994 -0.4951253 -3.668246 -1.2402467 -1.8905069 -1.3948246 0.21935621 0.44581282
00000000: fc58 2cbe 0fd0 a1bd c724 5d3c 8bb0 b0bd
00000010: 26dd acbd 2080 18be 2cda a0bd ea0c 12be
00000020: 6bee 26bd 7346 8b3d c55e 8d3c 2f13 2dbd
00000030: e116 863d 6f38 78bc 5d98 efbc 9f98 813d
00000040: be3a 843d c7b1 00be aa5d 353d 2b6e 71bd
00000050: 54d0 90bd dfe5 d1bd 11be 39bd e65d c7bc
00000060: ff27 733d b36d d8bc 0ed3 e9bd d382 67bd
00000070: bf0a e7bc 258f e3bd 3ef9 603d 5411 b7bd
00000080: 4a63 67be 4912 89bc a84b b7bd 0ecf 88bc
00000090: e62c 383d 2da3 65bc bcd2 8d3c 449c 2a3c
000000a0: 9959 393c 653f e23d ed5d 29bd 4be8 293b
000000b0: 1197 753d 78b7 17bd 8168 01be 1403 8cbc
000000c0: 8726 22be 12fc 02be 1dac af3b 0aae d2bd
000000d0: b16d 6cbd 5723 6dbe 3ea2 95bd bde6 d0bd
000000e0: 6809 b73c 0b76 f8bc 19ac 5a3c ee73 c3bc
000000f0: e79c 01bd 359c 04be 1c3e dc3d 3d22 293d
00000100: acba 69be 7b22 04be d289 32be 2465 08bd
00000110: 6ccf a7bd bcd4 e4bd 2cc2 8abd e5d7 abbd
00000120: a9b7 8ebd add7 adbd 13f0 c6bb f568 1c3d
00000130: 709c 17bd 4184 45bc bd50 383d a01e 7c3d
00000140: 14be a63d 17e7 1fbd df73 96be be94 14bd
00000150: 3f8b afbd 62b5 d1bd 778f 2abe 8714 33bd
00000160: 1f56 283c a32c 9ebc 17be c03c 5f3d 913d
00000170: 37e2 b2bc dd90 80bd 7bdf 0e3d ab19 203e
00000180: 85c4 42be 6c45 16bc 3509 883d e274 fcbd
00000190: 9251 b03c f4eb 093d a30c 7fbc ff20 873d
000001a0: 6684 ad3d 1205 893c 21c1 0cbe 989e 6abc
000001b0: 688b 333d f86b c9bd 7051 013e bc7d 4b39
000001c0: 9f7d 443d 6d53 82bd daa6 19be 5605 55ba
000001d0: a752 c1bd d204 713c b046 e5bc eb20 6fbd
000001e0: c9a3 a13d 18b9 2abd a6f2 15be 66dc 2d3d
000001f0: 7a15 3a3d d498 ed3d b462 36be 91d4 16be
00000200: 032a 58bf 6800 a63e 49f8 60bd 6401 0340
00000210: c02c b93f 39e2 81be 738c 04c0 3bd7 b6bf
00000220: f256 a6bf 302e e3be 62d4 c1bf 4408 bdbe
00000230: 62fd 45c0 c248 eb3d dd82 84be 1242 1fc0
00000240: 80e6 613f 35c5 823e 1e9c 37c0 cd5d 6dc0
00000250: 759d 5c3e c79e 133f 3768 5abf 8658 49bf
00000260: 3f02 31c0 2f75 84be 87be e33e 1a16 ac3c
00000270: 7a5c dabd a7b3 fdbc 9740 89be 5390 7e3e
00000280: 6791 8bbe fc92 8f3f 0d80 1cbf e62d 2d3f
00000290: e696 013f 215f 2d3e 428b ed3d 9fde ebbf
000002a0: 2501 fa3d 82f8 be3e 3355 a53f a74b fbbe
000002b0: 7610 4fc0 1f5b 36c0 7325 04bd d406 0f3e
000002c0: c9a7 40bf c0d7 e3bf 6568 a2bf 2b59 86be
000002d0: 69fb cf3e 48fe b63d 7077 c4bf 9fd5 60c0
000002e0: c0fe 6cbf 1ac6 e0bf ae7f a43e aefc cebd
000002f0: 0c94 f13e 3229 0c3f e8a2 4ec0 8151 553f
00000300: d934 b3bf 3dab b53f d4c4 503e 75cf 85bf
00000310: d852 24bf 3072 e13d 7c87 413e 88ed 303f
00000320: 9e99 5bbf 43b7 123e c19f c53f 8279 84bf
00000330: 3da5 edbd 8815 973f 18e1 2abe 1f27 9f3e
00000340: 0be6 de3e f3a7 0ac0 80d9 0c3e 63a0 c13c
00000350: 472f ab3e 9b18 c9bd 0679 813f 85cb 48c0
00000360: feb2 3cbf 92db a53e b391 e8be f7b7 483e
00000370: 32cc d03e e90f 54c0 3c65 80bf b6a4 a1c0
00000380: ee1a 3ebe 15cb 2fbf 319d 83bf 5336 9abe
00000390: a855 b83f b4f0 203f cdf7 00be 1508 1bc0
000003a0: 01f5 b5bd 35c8 953f 3656 073f 4376 8fc0
000003b0: ab01 cbbf 6c8f a23f 69f3 bc3f 0440 ba3e
000003c0: 491a f2be 35d3 27be facf f6be 6019 2940
000003d0: e669 243e 0543 58bf c87e ad3e 7c4b 573e
000003e0: cee3 57be 1081 fdbe 8bc4 6ac0 67c0 9ebf
000003f0: 21fc f1bf 9d89 b2bf ea9e 603e 9441 e43e

fc.2.bias f4 [128]
-0.10421532 0.3200185 -0.1033902 0.5132488 -0.19068153 -0.6186991 0.71579 1.0447018
-0.39342391 -0.049186993 0.010551277 -0.025496203 -0.070923135 0.2965184 -0.20715512 0.07541389
-1.0622857 0.21016866 0.021806806 -0.15270288 -0.039635338 -0.04132992 0.5130148 -0.7150811
0.11188478 -0.0799743 0.08449377 0.21683127 -0.0028159837 0.0038486854 0.5635722 0.06806719
-0.8392629 -0.17152943 0.24052493 0.17395635 -0.08574422 0.015218031 -0.24065652 -0.12929751
0.20785782 -0.8367344 -0.122820266 0.00081982417 -0.22553125 0.70195675 -0.14014938 -0.22419958
0.20971309 1.0387224 -0.300536 -0.560038 0.6005201 -0.049269356 -0.12395572 -1.0879557
0.02398234 -0.11253689 -0.10425206 0.87741566 -0.062075205 -0.72340584 0.7892034 0.5496434
-0.26921436 0.6838442 0.6369001 -0.20067436 -0.24884166 0.25834766 -0.023713283 -0.028693367
-0.3365447 -0.23632163 -0.20009726 -0.13859835 0.031574924 -0.13485043 -0.06641145 0.9869025
0.13424513 0.07079295 -0.3570215 -0.6897975 0.035981037 -0.018672703 0.011817143 -0.5467908
-0.099468134 0.3172273 -0.29967785 -0.53410846 -1.083171 -0.40523097 -0.7114464 -0.050530203
0.73757076 0.33590198 -0.05551691 -0.09039637 -0.12960781 0.38211545 0.09287744 -0.01903458
0.3368323 0.40898812 -0.08217045 0.030516066 0.2654972 -0.38811243 0.23939729 -0.09552404
-0.97317755 -0.3682213 0.016022267 -0.058007043 -1.2329236 -0.10274043 -0.48089573 -0.04623922
-0.07608759 -0.35395724 0.17766686 0.34442317 0.017080167 -0.36690524 -0.37468714 -0.059794676
00000000: d76e d5bd 77d9 a33e 3ebe d3bd 4664 033f
00000010: 0542 43be 1063 1ebf 033e 373f cab8 853f
00000020: dc6e c9be 4d78 49bd 43df 2c3c 6add d0bc
00000030: 2640 91bd 42d1 973e 7920 54be 9972 9a3d
00000040: faf8 87bf 7436 573e 30a4 b23c 255e 1cbe
00000050: aa58 22bd 9049 29bd f054 033f 8e0f 37bf
00000060: d923 e53d 91c9 a3bd 120b ad3d 0409 5e3e
00000070: 5e8c 38bb 3a3a 7c3b 4546 103f d066 8b3d
00000080: efd9 56bf 69a5 2fbe 2b4c 763e 9d21 323e
00000090: aa9a afbd 0c55 793c aa6e 76be 9166 04be
000000a0: aed8 543e 3a34 56bf 3189 fbbd 78e9 563a
000000b0: aaf1 66be 70b3 333f 5283 0fbe 9394 65be
000000c0: 07bf 563e dbf4 843f dbdf 99be a65e 0fbf
000000d0: afbb 193f aace 49bd 7fdc fdbd 2242 8bbf
000000e0: 9d76 c43c be79 e6bd 1b82 d5bd 509e 603f
000000f0: 9242 7ebd 2031 39bf 3c09 4a3f 6eb5 0c3f
00000100: 77d6 89be 6a10 2f3f e30b 233f 947d 4dbe
00000110: 59d0 7ebe 2546 843e 5c42 c2bc 5a0e ebbc
00000120: 964f acbe 4cfe 71be 4ce6 4cbe baec 0dbe
00000130: b554 013d 3b16 0abe ba02 88bd a4a5 7c3f
00000140: 8e77 093e e5fb 903d 86cb b6be 9296 30bf
00000150: da60 133d 7ff7 98bc b19c 413c 7bfa 0bbf
00000160: f3b5 cbbd 9e6b a23e 606f 99be 55bb 08bf
00000170: 59a5 8abf 6f7a cfbe 5a21 36bf c2f8 4ebd
00000180: 70d1 3c3f 58fb ab3e b365 63bd bb21 b9bd
00000190: e9b7 04be a3a4 c33e 8736 be3d 68ee 9bbc
000001a0: 4975 ac3e e466 d13e fb48 a8bd d4fc f93c
000001b0: 40ef 873e acb6 c6be 9024 753e 1ca2 c3bd
000001c0: 2a22 79bf 8187 bcbe 2141 833c cb98 6dbd
000001d0: 71d0 9dbf 9369 d2bd f737 f6be 5665 3dbd
000001e0: cfd3 9bbd e239 b5be 4dee 353e 3c58 b03e
000001f0: b5eb 8b3c 01db bbbe fed6 bfbe 43eb 74bd

fc.4.weight f4 [4, 128]
0.037055917 1.7641633 -0.08143238 2.3842869 1.0784945 -1.6784155 -0.38483718 2.415678
1.736885 1.5534345 -0.024206638 -0.0028301964 2.2748415 2.0746512 -2.1061578 1.7169379
-1.2775759 -0.5237501 -0.07452724 -1.6558154 -0.093968794 -0.07970537 -1.2898605 -1.1956891
2.1243582 -0.077827886 -0.43080375 -0.82441324 -0.07541058 0.022419877 0.9537757 0.010372215
1.1163776 1.6759484 3.0919054 1.7357473 0.050221432 -0.035508305 -0.7932881 -0.016626915
3.2069383 1.4020941 -0.015031456 0.029703282 1.0555689 2.168055 0.010346252 0.3257055
1.3767085 1.9848717 1.1303153 0.5524613 2.1021934 0.0909123 0.57554847 1.6431619
-0.094061136 0.0892535 0.04762273 1.3378766 -0.034298763 -0.80250293 1.4532328 -1.3781621
-1.1203219 2.0001514 1.4416246 -1.861014 0.5711023 1.7353781 -0.033222117 -0.030026393
0.25412402 0.7614454 0.82134736 0.36243728 0.083537094 0.9385554 0.059046734 1.2783778
1.7900571 1.1674645 -0.08667508 2.3634303 0.001670268 -0.04631201 2.4645102 -0.553429
0.23652099 1.5791324 0.24486107 2.2599277 -1.4616828 0.3236098 0.24121803 -0.035201605
1.606565 2.7989702 1.4597529 0.040199943 0.02585756 -0.7178772 -0.531653 -0.0041005015
2.6638992 0.037448093 -0.05955608 0.097338066 0.759747 2.1012933 3.2360482 -0.015432423
-0.5805513 -0.49601808 0.019299319 -0.0021770447 -1.0499955 -0.036546227 0.8981326 2.1248665
0.023192445 1.2800653 0.32502222 1.9083757 -0.02750557 2.0555546 -0.3352594 -0.4800349
0.054450586 1.6899679 -0.059705097 1.908621 -0.6774628 -0.7523223 -0.10527101 2.1452055
2.376895 -1.4006407 0.006279505 -0.0020099208 1.7960854 2.142907 1.7025304 1.7402419
-1.9522855 -0.99714124 0.01127798 -1.5890737 -0.004891336 0.05532415 -1.043448 -0.93735474
2.1480691 -0.074856296 -0.9464023 -0.9797258 0.07934079 0.027220428 0.90663207 -0.0769377
-0.6056182 -0.83005047 2.4900641 0.23871318 0.048592027 -0.019865124 1.1232264 -0.06957193
1.6404914 -1.543317 -0.0064743543 -0.052703295 -0.4326252 2.7578087 0.051246453 -0.18184336
1.6149397 2.2391152 1.2971181 0.6507538 3.0131323 -0.010840897 -0.52822745 -1.0347034
-0.030600827 0.02100475 0.061761472 0.84268713 -0.036631294 -0.03831336 1.354792 -1.0076239
-0.5759308 1.7683861 1.7740424 1.4260439 -0.6038896 2.4344325 -0.07455223 0.044813614
-0.523181 -0.5599628 -0.46615097 -0.9115632 0.017264836 2.0756507 0.011242826 1.6904157
1.7299882 0.9811239 -0.15597019 -2.038968 0.050907325 0.052799515 2.8044412 -0.85027194
0.8882567 1.8861036 -0.6514384 2.2458227 0.7608661 -0.5211791 -0.43279037 -0.0041035363
1.5397537 2.8947 1.3193643 -0.0312687 0.092863426 -0.32652593 -1.7533236 0.0021316854
1.4151901 -0.7132435 -0.08104801 0.11225629 -1.1111418 1.5101123 2.424586 -0.06408268
-0.833175 -1.2377019 0.014225913 0.07077315 -0.18401942 -0.02869429 1.6505352 1.7252367
-0.048681334 -1.8818796 -0.24559982 2.6671963 -0.037558373 2.0852973 -0.667894 -0.45338252
00000000: f2c7 173d 1ad0 e13f 05c6 a6bd 2898 1840
00000010: 1c0c 8a3f 52d6 d6bf 6109 c5be 789a 1a40
00000020: 3f52 de3f f1d6 c63f 004d c6bc d17a 39bb
00000030: 0197 1140 16c7 0440 4acb 06c0 9fc4 db3f
00000040: 9b87 a3bf 7d14 06bf bda1 98bd c2f1 d3bf
00000050: b672 c0bd 923c a3bd 261a a5bf 570c 99bf
00000060: 7cf5 0740 3a64 9fbd 4f92 dcbe bf0c 53bf
00000070: dd70 9abd e4a9 b73c a52a 743f 39f0 293c
00000080: 76e5 8e3f 7a85 d63f c7e1 4540 f82c de3f
00000090: fdb4 4d3d 2871 11bd ee14 4bbf 2b35 88bc
000000a0: 7a3e 4d40 d277 b33f 7f46 76bc 4c54 f33c
000000b0: e21c 873f 6ac1 0a40 5383 293c dfc2 a63e
000000c0: fc37 b03f 4710 fe3f 2cae 903f 1b6e 0d3f
000000d0: 568a 0640 3a30 ba3d 2557 133f 2153 d23f
000000e0: 20a3 c0bd 8aca b63d 0d10 433d 8a3f ab3f
000000f0: dc7c 0cbd d570 4dbf 8803 ba3f 9e67 b0bf
00000100: b566 8fbf 7b02 0040 2887 b83f b535 eebf
00000110: c333 123f df20 de3f ea13 08bd e9f9 f5bc
00000120: 8b1c 823e 16ee 423f d243 523f 6191 b93e
00000130: 7f15 ab3d 2b45 703f fdda 713d e2a1 a33f
00000140: 9720 e53f 7a6f 953f b482 b1bd 7142 1740
00000150: e5ec da3a aab1 3dbd 89ba 1d40 86ad 0dbf
00000160: 8f32 723e 0321 ca3f dcbc 7a3e a8a2 1040
00000170: 6c18 bbbf 2fb0 a53e dc01 773e 8f2f 10bd
00000180: eca3 cd3f 5422 3340 2fd9 ba3f b2a8 243d
00000190: 3cd3 d33c cdc6 37bf 691a 08bf 805d 86bb
000001a0: 537d 2a40 2c63 193d 13f1 73bd 2e59 c73d
000001b0: c87e 423f 977b 0640 6a1b 4f40 46d8 7cbc
000001c0: 039f 14bf 15f6 fdbe 9b19 9e3c c0ac 0ebb
000001d0: 4166 86bf 7fb1 15bd 05ec 653f d0fd 0740
000001e0: 15fe bd3c 2ed9 a33f 5069 a63e a845 f43f
000001f0: 5c53 e1bc 358e 0340 1fa7 abbe 22c7 f5be
00000200: 9407 5f3d de50 d83f 558d 74bd b14d f43f
00000210: 346e 2dbf 3298 40bf 5498 d7bd 0c4b 0940
00000220: 0c1f 1840 3248 b3bf 4ec4 cd3b e0b8 03bb
00000230: 20e6 e53f 6325 0940 84ec d93f 3fc0 de3f
00000240: 7ee4 f9bf a644 7fbf 47c7 383c c466 cbbf
00000250: 8047 a0bb 939b 623d b48f 85bf 7bf6 6fbf
00000260: f779 0940 424e 99bd 6c47 72bf 4fcf 7abf
00000270: 6d7d a23d 60fd de3c 0a19 683f 8391 9dbd
00000280: cb09 1bbf 307e 54bf 365d 1f40 3a71 743e
00000290: 6f08 473d 2fbc a2bc e2c5 8f3f ba7b 8ebd
000002a0: 9ffb d13f 698b c5bf d226 d4bb 69df 57bd
000002b0: 0d81 ddbe f07f 3040 cde7 513d 2535 3abe
000002c0: 58b6 ce3f aa4d 0f40 f707 a63f cd97 263f
000002d0: 29d7 4040 059e 31bc ea39 07bf 2971 84bf
000002e0: 96ae fabc 2712 ac3c 99f9 7c3d 58ba 573f
000002f0: b20a 16bd 78ee 1cbd d369 ad3f d2f9 80bf
00000300: 3370 13bf 7a5a e23f d213 e33f 9b88 b63f
00000310: 8298 1abf becd 1b40 d7ae 98bd 7b8e 373d
00000320: 31ef 05bf b959 0fbf 57ab eebe 355c 69bf
00000330: fc6e 8d3c 76d7 0440 d433 383c 8b5f d83f
00000340: 4170 dd3f f02a 7b3f a6b6 1fbe 747e 02c0
00000350: 3384 503d 4e44 583d f77b 3340 6cab 59bf
00000360: cb64 633f d86b f13f abc4 26bf 8fbb 0f40
00000370: 1fc8 423f fe6b 05bf b396 ddbe f576 86bb
00000380: a616 c53f c442 3940 eee0 a83f 9c13 00bd
00000390: 2e2f be3d 682e a7be e86c e0bf bfb3 0b3b
000003a0: f324 b53f 2097 36bf 80fc a5bd a0e6 e53d
000003b0: e539 8ebf 5c4b c13f 6b2c 1b40 c83d 83bd
000003c0: f54a 55bf 046d 9ebf ce13 693c 83f1 903d
000003d0: 966f 3cbe 4a10 ebbc bd44 d33f 8ed4 dc3f
000003e0: 1466 47bd 6ee1 f0bf 857e 7bbe 58b3 2a40
000003f0: cfd6 19bd 8375 0540 1afb 2abf c121 e8be

fc.4.bias f4 [4]
-0.119731896 -0.4792205 0.2988841 0.025379973
00000000: ff35 f5bd 645c f5be 5607 993e a9e9 cf3c
