dqn_flappy_bird.pth (torch, 162456 bytes, 6 tensors)

fc.0.weight f4 [128, 180]
000000 55 09 20 3d 0d aa dc bd 3d 34 cf bd 4b 55 89 bd
       0.0390714 -0.10774622 -0.101173855 -0.067057215
000010 2b b4 78 bd 54 b5 8e 3c 64 b6 8b bd aa 34 46 3d
       -0.060718697 0.017420448 -0.068218976 0.048390068
000020 4d d4 2f 3d 71 bb e2 3b 68 79 0a bd 87 b7 95 3d
       0.042927075 0.0069193174 -0.03380719 0.07310396
000030 e5 79 23 bd 52 fb f8 bd d0 7a 2e bd cf 54 90 3c
       -0.03991117 -0.121573105 -0.042597592 0.017618565
000040 86 e6 9d bd 87 75 a6 bd d2 af c3 bc 36 1e 38 bb
       -0.077099845 -0.08127885 -0.023887549 -0.002809418
000050 11 d8 d5 bc 51 f3 5d bd 72 81 be 3c be c6 43 3d
       -0.026104005 -0.054187123 0.023255084 0.047796957
000060 89 d7 a3 bc 2f 12 33 bc 8a 21 99 bd e7 1e 04 bc
       -0.020000236 -0.010929628 -0.074771 -0.008064008
000070 32 b0 38 bd fa 75 27 3c 3d 6c 6d 3c 0e 00 38 bd
       -0.045089908 0.010220999 0.014491138 -0.044921927
000080 32 6a 35 bd 80 59 7b bd 4a fd d6 3c 3c 6d 29 3d
       -0.04429073 -0.06136465 0.026243825 0.04136394
000090 bd d4 47 3d a0 eb ae bc 7d 02 98 bd ee b0 04 3d
       0.048786867 -0.02135259 -0.074223496 0.032395296
0000a0 90 24 08 3d 14 10 bb 3c e4 d3 9a bd 36 7e 53 bd
       0.033237994 0.022834815 -0.07559946 -0.051634036
0000b0 92 21 6d bc 1a 2f df bc 15 da 31 3d e8 f0 5a bb
       -0.014473336 -0.02724414 0.04342087 -0.0033407751
0000c0 02 6f 24 bc 03 cf da bb 18 52 33 bd a7 01 72 bd
       -0.010036232 -0.0066775098 -0.043779463 -0.059083607
0000d0 d3 2a 5e 3d f8 73 2d bd 10 71 b2 bd c6 15 4c bd
       0.05424006 -0.042346925 -0.08712971 -0.049825452
0000e0 64 62 29 bd 5c e6 46 3d c5 2d 38 bc c6 85 a0 bd
       -0.0413536 0.04855953 -0.011241381 -0.07838015
0000f0 0b ee 8b bb f4 7f 97 bb 59 c0 b9 3c 9c f0 a1 bd
       -0.0042703203 -0.0046234075 0.022674726 -0.07907221
000100 5e cb 60 bd 83 71 cc 3c 0c 51 c5 3b d9 fb 20 bd
       -0.054881446 0.02495647 0.0060216244 -0.03930268
000110 46 ee 9c bd 5f 11 af bd 54 a0 f4 bc 74 fb b9 bd
       -0.076626346 -0.08548235 -0.029861607 -0.09081164
000120 91 c0 4c 3c 03 4c 9e bd b2 25 35 bd 0c ac 78 bd
       0.012497083 -0.07729342 -0.044225402 -0.06071095
000130 47 65 04 bd 00 af 4c 3d 8b 75 bd bd 7f cd 45 bd
       -0.032323148 0.04997158 -0.09250935 -0.04829168
000140 7f 89 e5 bc 0a 7c 6a 3d 73 b0 a7 3c af 71 37 bd
       -0.028019665 0.0572472 0.02046988 -0.04478615
000150 dd c6 b2 bd 5e 62 e7 3c a4 d6 93 bd 22 ee 4c 3d
       -0.087293364 0.028245147 -0.07218674 0.05003179
000160 9e 2a 6b 3c 57 25 5a 3d bb 5e 87 bd 59 d9 8d 3b
       0.014353422 0.053258266 -0.06609865 0.0043288884
000170 82 57 a7 bd 63 aa af 3b f7 5f 4b 3d 8e 90 92 bd
       -0.08170988 0.005360888 0.049652066 -0.07156478
000180 2e fd 1e 3d 20 5f 8f 3c 32 1c 5c bd e6 a4 8e 3c
       0.03881567 0.017501414 -0.053737827 0.017412614
000190 ad 51 98 bc 4c 05 10 3a 0f 53 9a 3c 57 ce fe bc
       -0.018593634 0.00054939534 0.018838434 -0.03110425
0001a0 19 43 b2 3c 62 5c b2 bd d1 e0 b3 bd f0 bb bd bb
       0.02176051 -0.08709027 -0.08783115 -0.005790226
0001b0 e2 dc 83 bd f9 c3 bc bd 7d 26 92 bd d2 40 a1 bd
       -0.064386144 -0.09217066 -0.07136247 -0.078736916
0001c0 9b 0e 90 bc 87 3d c6 3c e5 e7 06 3d ec e4 7d bd
       -0.01758509 0.02419926 0.032935996 -0.061985895
0001d0 d4 d6 34 3d c4 ad 43 3d db 14 34 bb b9 60 2d 3d
       0.04415019 0.047773138 -0.002747825 0.04232857
0001e0 38 e2 a3 bc a0 95 f0 bc 86 69 05 bd dc d6 36 bd
       -0.02000533 -0.029368222 -0.032571338 -0.0446385
0001f0 01 6f b6 3c f1 dd 82 bd a0 24 52 bd 07 c8 23 3d
       0.022269728 -0.06389988 -0.05130446 0.039985683
000200 c3 4a 07 bc 41 bd b8 bd 2d 7e f0 bc 5e 21 2e bd
       -0.008257571 -0.09020472 -0.02935704 -0.04251229
000210 da 62 2b 3d b9 8a 63 3c 74 e6 1b bc 64 83 d6 bb
       0.04184232 0.0138880545 -0.0095153935 -0.0065464247
000220 7a a0 37 3d 1f 6e d6 bb 20 8d 75 bd 73 63 7c bc
       0.044830777 -0.006543889 -0.05994904 -0.01540457
000230 f2 80 df 3c e4 2a 85 bd 6e 6c 00 bd 30 dc 4f 3c
       0.027283166 -0.06502321 -0.031353407 0.012686774
000240 0d c4 cc bc 3e aa 97 bd 94 cd 17 3d 80 ba b0 3c
       -0.024995828 -0.07405518 0.03706129 0.021573305
000250 8d 13 bc bc 6f 77 95 bd 05 63 a4 bd 0b 78 9f bc
       -0.022958541 -0.07298171 -0.08026699 -0.01946642
000260 d9 c5 08 bd 00 ea 92 bd ab 12 cc bb 56 ce 20 bd
       -0.033391807 -0.07173538 -0.0062278113 -0.039259277
000270 32 17 bb bd 2e ae 2c 3d 04 e0 66 bd 8d 58 ae bd
       -0.091352835 0.0421583 -0.05636598 -0.085129835
000280 a8 f3 c9 3c 46 c6 a2 3a f0 2b ef bc ef d7 cc bd
       0.024652317 0.0012418709 -0.029195756 -0.100021236
000290 c3 f5 d4 bc 73 54 17 3d 27 63 a2 bd 3e d3 a2 bd
       -0.025996095 0.03694577 -0.07929068 -0.079504475
0002a0 32 01 26 bc 25 71 d1 bd 0d 65 47 bc fa ef 61 3c
       -0.010132121 -0.10226659 -0.0121700885 0.013790125
0002b0 2e d2 ba 3c db 4f 8e bc eb 84 3e bc 92 7e 6b bc
       0.0228053 -0.017372062 -0.01162837 -0.014373438
0002c0 2e 65 29 3d 8f 6b 25 3d a9 8b bf bc 07 13 33 3d
       0.041356258 0.04038578 -0.023382025 0.043719318
0002d0 7c d1 7d 3c 7e 9b c1 3c eb 49 47 3d 05 ae b1 3d
       0.0154918395 0.023633715 0.048654478 0.0867577
0002e0 43 f9 ca 3a 75 72 c9 3d c4 f5 c6 3d d1 e6 2b 3d
       0.0015485663 0.09836284 0.09714845 0.04196817
0002f0 29 7c 0c 3b 0f 0c 13 bd a4 f2 ab 3d 4d 89 86 3d
       0.002143631 -0.03590017 0.083958894 0.06569157
000300 26 d0 ee 3b fc 9d 44 3c d2 55 05 3d e2 b7 69 3d
       0.007287997 0.012000557 0.032552548 0.05706013
000310 3c 8e 25 3c 38 eb 0f 3c bf a2 15 bd 79 4a 95 3d
       0.010104712 0.008784108 -0.03653216 0.07289595
000320 bd 90 d8 3d af 92 95 3b 75 4c 3f 3d 55 43 75 3d
       0.10574482 0.004564605 0.046703774 0.059878666
000330 12 e5 57 3d a2 49 32 bd 4d 75 46 3d 25 72 22 bd
       0.052708693 -0.043527253 0.04845171 -0.039659638
000340 47 5a e1 bc 91 ce f5 bc 1c 9d 2c bb a1 3d 96 3d
       -0.027508868 -0.030005725 -0.0026338762 0.073359735
000350 67 7a 0c bd 51 12 0e bd dd 6a bb bc 5e ca 46 3d
       -0.03429642 -0.034685437 -0.022878105 0.048532836
000360 15 b7 43 bd ed 5f d0 bc 34 2b 99 3d 57 30 d2 ba
       -0.047782023 -0.025436366 0.074789435 -0.0016036135
000370 9c 41 6d 3d 7d a5 e6 3d ec c5 1a 3e e3 df 36 3e
       0.057923898 0.11262033 0.15114564 0.17858844
000380 87 64 46 3e e2 de 53 3e 5c 75 34 3e 35 45 c8 3d
       0.19374286 0.20690492 0.17622894 0.09778825
000390 8d e2 ed 3d 34 e5 34 3e 40 f1 fc 3d c5 04 f0 3d
       0.11615477 0.17665559 0.12350702 0.1171966
0003a0 04 88 19 3e 8b 6d e1 3d 8c 4e 1d 3d 35 ea 8c 3d
       0.14993292 0.11007222 0.038404986 0.06880609
0003b0 2c b9 ad 3d ae a4 f0 3d 13 25 85 39 59 77 11 3d
       0.08482584 0.1175016 0.0002539536 0.03551421
0003c0 f8 92 b3 3d 4a e1 09 bd 98 7d 93 3d db 28 71 3d
       0.087682664 -0.033662118 0.072016895 0.058876853
0003d0 63 7d be bd fb 13 09 bd bc f8 98 3c ee bc a6 bc
       -0.09301259 -0.03346632 0.018673293 -0.02035376
0003e0 d7 d9 a2 bd e7 1c e5 bc 57 a5 0a be 0d 8e ca bd
       -0.07951706 -0.027967883 -0.13539635 -0.09890375
0003f0 71 29 20 be a0 1a 12 be 9b cd f1 bd 0b 56 36 be
       -0.15640809 -0.14267969 -0.11806794 -0.1780626

fc.0.bias f4 [128]
000000 38 34 cd bc 2f e9 ca 3d a6 58 b4 3d 23 df 21 bd
       -0.025049314 0.099077575 0.08805971 -0.03951944
000010 7e 62 37 3b ae d5 a6 bd 5a 55 90 bc 7c ec 8d bd
       0.002798229 -0.08146225 -0.017618824 -0.069298714
000020 b5 5d 29 bd fb 9a c2 3b 62 93 cc bc ed 5c 6c bd
       -0.04134913 0.0059388853 -0.024972621 -0.05770581
000030 5e 87 16 3d 0c 31 9d bd 44 52 7f 3d 02 7e 8f bb
       0.03675019 -0.076753706 0.062334314 -0.004379035
000040 e0 53 a9 3d 59 3f 73 3d 26 72 b8 bd 88 f4 cc bb
       0.08267951 0.059386585 -0.09006147 -0.0062547363
000050 26 f5 e3 3c e8 88 89 bd 05 10 27 3d c7 53 84 3d
       0.027826857 -0.06715566 0.04078676 0.06461292
000060 f9 90 d1 bc e9 b6 a8 3d e9 8b f8 ba 02 ef 04 3e
       -0.025581824 0.08238012 -0.0018962595 0.12981799
000070 06 a9 14 3e e3 47 32 3e 92 05 43 bd 7a c2 8c 3d
       0.14517602 0.17410235 -0.047612734 0.06873031
000080 a2 06 4d bd 1c 7a 10 bd fb 68 76 3d 81 7e 2f 3e
       -0.050055154 -0.035272703 0.06015871 0.17138101
000090 d0 68 c8 3b c1 df 2e bd 7c dc 94 bd 1d 38 d9 3d
       0.0061160102 -0.042693857 -0.072686166 0.10606406
0000a0 30 d5 e1 3d d5 46 9e bd 81 c0 26 3e d0 be 08 3e
       0.110269904 -0.07728354 0.16284372 0.13354039
0000b0 51 c5 67 bd 7b 02 2b bc 4f 04 0f 3b be ac f1 3d
       -0.05658466 -0.010437603 0.0021822636 0.11800526
0000c0 a0 28 9a bd 93 7c 87 3d 63 85 5f 3e 96 78 91 bd
       -0.0752728 0.066155575 0.21828227 -0.07103078
0000d0 9e 76 66 3d 7a 46 a2 bd 55 09 3c bd 06 61 a7 3d
       0.056265466 -0.079235986 -0.045907337 0.081728026
0000e0 28 04 45 bb 02 fd b4 bd 0c c8 44 3e 23 12 89 3c
       -0.0030062292 -0.0883732 0.19216937 0.016732281
0000f0 c8 0f 4a bd c5 93 0d 3d db 48 dc 3c 25 65 c7 3d
       -0.049331456 0.034564752 0.026890209 0.09736089
000100 58 ba 95 bd c4 c3 28 3c 29 e6 5d bd d8 09 d7 3d
       -0.07310933 0.01030058 -0.054174576 0.104999244
000110 c1 cd 8c 3e 1f d9 9a bc 98 96 91 3d 13 d1 89 bd
       0.27500728 -0.01890236 0.071088016 -0.06729331
000120 20 8c d3 bc 7e 43 01 3a df 66 97 bd 7b bf 97 bd
       -0.025823653 0.00049310166 -0.07392668 -0.07409569
000130 2a 87 26 bd 3b 4e 8c bd a9 42 27 3d e3 72 17 3e
       -0.040656246 -0.06850859 0.040835056 0.1478992
000140 e2 16 55 3e aa 4e 7b bd ec 2b e4 3d 42 4c ca ba
       0.2080951 -0.061354317 0.1114119 -0.0015434104
000150 42 f1 97 bd b0 a1 e3 3c 3e 80 86 3d 20 6e b1 bc
       -0.07419063 0.02778706 0.06567429 -0.021658957
000160 99 96 8b bd 2f 4a 97 3c 93 cf 1f 3c 28 f2 1c bd
       -0.068158336 0.01846799 0.009754079 -0.038316876
000170 ad fe 22 bd 1c 55 13 bd 53 ef 6b 3d a7 d3 32 3c
       -0.03979366 -0.03596984 0.057601284 0.01091472
000180 18 fa 65 3c e0 f2 73 bd b9 d4 aa bc 05 11 6e 3d
       0.014036678 -0.059557796 -0.020853387 0.0581217
000190 19 0c 2f bd b4 fe 4f 3e d8 fd be 3d a4 fc 33 3e
       -0.042736147 0.20312005 0.093257606 0.17576844
0001a0 70 44 b6 bd 15 e5 2b 3c c7 ef 61 bd 73 eb 17 3e
       -0.08899772 0.010491629 -0.05516031 0.1483591
0001b0 10 cc 0d 3d ed 08 a7 3d dd 8b 80 bc f1 67 3a 3e
       0.034618437 0.08155999 -0.015691692 0.18203713
0001c0 e2 b2 44 3d ad 50 bd bc 07 33 2e bd d5 d1 da 3d
       0.04802216 -0.023109758 -0.042529132 0.106845535
0001d0 ec 0e 31 bd b5 d1 30 bd ee 3d 44 3d 05 2a c9 3d
       -0.04322712 -0.043168742 0.047910623 0.09822468
0001e0 9b d6 0f 3e cd 70 91 bd dc 09 94 3c 60 18 21 3d
       0.14046709 -0.07101593 0.018071108 0.039329886
0001f0 de 56 69 3b 92 d7 a1 3d 49 c4 d7 3d 66 ff ad bc
       0.0035604755 0.07902445 0.10535485 -0.021239948

fc.2.weight f4 [128, 128]
000000 55 31 cf 3d c0 5f ad bd 0a 7e 52 be f2 47 03 bc
       0.10116831 -0.084655285 -0.20555893 -0.008012759
000010 70 5a 5b 3d 28 1b d2 3d c2 12 02 be f1 55 c3 bb
       0.053553045 0.10259086 -0.12702468 -0.0059611727
000020 3e d6 7d 3e d5 8f 36 bd bd 13 de bc 14 dc c2 bc
       0.24788758 -0.044570763 -0.027109021 -0.023786582
000030 e5 e0 07 3b 7e 81 d1 bc 4f 30 db bd a6 d2 1c 3e
       0.0020733413 -0.025574442 -0.107025735 0.15314731
000040 12 b7 e9 bc d3 2a 5a be df d5 74 3d f3 c5 3a 3d
       -0.028529678 -0.21305399 0.059774276 0.045598935
000050 4b f3 f8 3d 9f 16 23 bd 6b 3f bb 3c d0 2d 0d be
       0.121557795 -0.039816495 0.022857388 -0.13787007
000060 2a d6 18 3d fa bd 3f 3c c8 fd 28 bd da 50 ad bd
       0.037313618 0.011703009 -0.04125765 -0.08462687
000070 f5 39 2d bd 63 2f 8f 3c bb e8 7c 3d 38 0b d9 3c
       -0.0422916 0.01747865 0.061745387 0.026494607
000080 2d 6e ad 3d b1 25 8c 3c a2 74 7e bd 4a b1 e7 bc
       0.0846828 0.017107816 -0.06212295 -0.02828278
000090 a3 ee b6 be e9 7b 79 3e dc 3d ff bc 79 7d 34 be
       -0.3572894 0.24363674 -0.031157427 -0.17625989
0000a0 8a 46 5f be e4 87 12 bd cd 23 54 3d 1e 56 02 3b
       -0.21804252 -0.035774127 0.051791955 0.0019887756
0000b0 f4 46 81 be 67 ca cb bb 9e 4e 09 3d ce ce 9b 3d
       -0.25249445 -0.0062191966 0.03352224 0.07607804
0000c0 b6 ec c6 3d 7c 75 71 be 01 db 29 3e 34 ba 4d bc
       0.09713118 -0.23579973 0.1658745 -0.012556601
0000d0 f2 64 85 3d 2e 77 60 3d 30 1f 45 bc e6 21 80 be
       0.065133944 0.05480116 -0.012031361 -0.25025862
0000e0 42 b9 cf bb 29 b3 61 bd 17 a9 b0 3d c8 49 83 bc
       -0.006339223 -0.0551025 0.08626001 -0.016026393
0000f0 fe 49 9d bd d6 9e a7 3d d2 a9 44 3e c0 6b e9 bd
       -0.076801285 0.081845924 0.19205406 -0.11397505
000100 53 e8 83 3d 2c d0 d2 3c e4 29 c4 3c ed 31 60 bd
       0.06440797 0.02573403 0.023945756 -0.054735113
000110 25 76 08 3e 50 2b 42 bd 85 44 cc 3b 2d 85 48 3d
       0.13326319 -0.047404587 0.006233754 0.04895513
000120 2d c8 0d 3e fe 97 89 3d 92 4b 80 bd 4c 3f 15 3d
       0.13845892 0.06718443 -0.06264414 0.036437318
000130 e5 78 8a bc f0 bc 4b bd e4 a6 fc bd a7 86 44 be
       -0.01690335 -0.04974073 -0.12336519 -0.19191991
000140 5a 8a 05 3e ab 76 e9 bb 38 7c b6 be b1 cf a6 3d
       0.13041058 -0.007124742 -0.35641646 0.08145083
000150 de cc aa bd 53 db 98 bd 4a 45 76 3d 00 d0 e1 ba
       -0.083398566 -0.07463708 0.060124673 -0.0017228127
000160 c4 25 e6 3c 8c 3c cf bc b6 44 19 3d fc a4 85 3c
       0.02809418 -0.025297426 0.037419043 0.016314022
000170 2f 33 83 bd 20 76 8b 3c b5 61 ba 3c 8f 5e 44 3c
       -0.06406247 0.0170241 0.022751668 0.011985435
000180 3a 9f a3 3b 00 94 1e 3d 36 75 b3 3d 19 b9 82 bd
       0.0049933465 0.038715363 0.087625906 -0.06382961
000190 f0 59 93 3b 15 d3 bf bd 32 f8 02 be dc 4f ef bd
       0.0044968054 -0.093664326 -0.12789991 -0.11685154
0001a0 5e 1d 37 3d e5 c5 aa 3c b0 d8 be 3b 9a 76 fc 3d
       0.04470574 0.020846317 0.005824171 0.12327309
0001b0 8a 6c 57 be f9 9e bd bd c7 41 73 bd 62 54 33 be
       -0.21037498 -0.09258837 -0.059388902 -0.17512658
0001c0 e5 61 4c 3d 60 8e 73 3b ed ed 13 3d 11 e7 57 bd
       0.049898047 0.003716372 0.036115576 -0.052710596
0001d0 84 00 8f 3d e8 fb 90 3d 42 1f db 3c f8 e2 8b be
       0.0698252 0.07079297 0.026748303 -0.273216
0001e0 2e f2 41 3d 94 78 53 bc 3f b1 92 bb ed 8d 28 3e
       0.0473501 -0.012907166 -0.004476696 0.1646039
0001f0 0d 94 2a 3d 41 4a 25 3e 32 8c 32 bd c8 c7 86 3d
       0.0416451 0.16141607 -0.043590732 0.06581074
000200 71 71 a8 bc b8 f7 e2 be 82 0e 7e 3c 5a 02 cf bb
       -0.020561906 -0.4432962 0.015506389 -0.006317419
000210 e4 94 cc bd 2e 1a 4d bd 91 35 94 3c 54 52 01 3e
       -0.09989336 -0.050073795 0.018091949 0.12629062
000220 f7 0c f3 be 8f db 19 3e de 2b 06 3d cf 1d a1 3d
       -0.4747083 0.15025161 0.03275668 0.07867014
000230 a3 54 9c bd 5c 69 38 bd f5 61 26 be 0a d4 8e bf
       -0.07633331 -0.045022354 -0.16248305 -1.1158459
000240 a3 5b 42 3c 32 a9 67 bd e0 c8 52 bd 16 cc 95 be
       0.011862668 -0.05655784 -0.0514611 -0.29257268
000250 6c 40 61 bd 41 7b 8e 3d 8b 98 6f 3d 45 f6 a2 3d
       -0.054993078 0.069571026 0.058495086 0.079571284
000260 e8 4f 04 bd e0 7a 54 3e f0 b8 e4 3d b9 f0 18 3d
       -0.032302767 0.20749998 0.111680865 0.037338946
000270 0a 08 19 3e 35 7b 0d be ba 08 87 3d a1 da 22 be
       0.14944473 -0.13816531 0.06593461 -0.15903713
000280 25 df 2c bd c8 1f 31 3d bf bc 2f bd c6 ce 85 bd
       -0.042204995 0.0432432 -0.04290461 -0.065335795
000290 31 c1 06 3e 31 2c 20 bf 47 65 56 3e 6f 8d 72 3e
       0.13159634 -0.6256743 0.20937072 0.23686765
0002a0 f0 8a 79 bc 66 f8 e9 bc 3b c6 1f 3e a9 ea ad 3e
       -0.015230879 -0.028560828 0.15602963 0.33968094
0002b0 f0 c1 ca 3d b0 77 83 bd e2 a7 09 be 32 a3 eb be
       0.09900272 -0.06419313 -0.13442948 -0.46022946
0002c0 81 06 f1 bc 95 aa be bd 5e e7 71 3d 02 ff 86 3d
       -0.029422047 -0.0930988 0.05905854 0.06591608
0002d0 46 d6 1d be 5f b3 99 3d e6 68 0e bd 50 e1 8a be
       -0.1541377 0.075049154 -0.034768008 -0.27125025
0002e0 94 c0 f1 3c 5b 26 91 3e 76 c9 a3 ba 10 a8 a7 3c
       0.029510774 0.28349575 -0.0012495953 0.02046588
0002f0 ca a7 b9 bd 8c 46 c2 be 84 fc 47 3c 6f 71 88 be
       -0.09065206 -0.37944448 0.0122062005 -0.26649043
000300 96 a6 34 3d 3e 19 af bb e7 5b dc 3d e5 89 50 bd
       0.04410418 -0.0053435853 0.107597165 -0.050912756
000310 a4 fd 9f bc 39 e5 ce bb d2 89 df be 86 62 86 3d
       -0.019530125 -0.0063139466 -0.43659836 0.065617606
000320 c3 fa a3 bd 67 db 47 bd 58 d9 2e 3c 6b 7b 3a 3d
       -0.080068134 -0.048793223 0.010671936 0.045527857
000330 14 10 87 bc a0 58 28 bd 82 1c 0f be 92 81 c4 3d
       -0.016487159 -0.041100144 -0.13975719 0.09595026
000340 26 1b 24 3e 25 00 9f bc 6c fc 96 be 60 ba 6f 3d
       0.16025981 -0.019409249 -0.29489458 0.05852735
000350 20 87 22 3d 81 1b 1b 3c 94 3f a5 3c eb 56 51 3d
       0.039679646 0.009467007 0.020171918 0.051108282
000360 e7 b4 bc 3c 3f d5 fe 3c 2c 00 7e bd 53 4a a2 bd
       0.02303548 0.031107543 -0.062011883 -0.079243325
000370 d2 ca 8b bd ec fd 60 bb 47 32 c5 bd d0 c7 63 bb
       -0.06825794 -0.0034331037 -0.0962873 -0.0034756549
000380 a1 0d 20 bd 10 0e ac 3d 4a 41 1a 3c b9 98 c7 bb
       -0.039075498 0.0840112 0.00941498 -0.006091204
000390 5c e5 f9 3c 6f 20 4b 3e dc 94 21 be 9a 18 0c bf
       0.030504875 0.19836591 -0.15779442 -0.5472504
0003a0 4b 6d 92 bd 94 e4 37 bd 1f 51 2f 3d 41 f5 81 be
       -0.07149752 -0.044895723 0.042801972 -0.25382426
0003b0 8d cf ae 3d 07 c4 3b 3c f7 02 55 bd 87 bf 4e be
       0.08535681 0.011460311 -0.05200478 -0.2019025
0003c0 19 07 d9 bc 99 8a a8 3d ef 3e 79 bd 12 fc de be
       -0.026492642 0.082295604 -0.060851034 -0.4355169
0003d0 17 09 75 3d ae b5 ed bc 65 f3 e7 bc 13 73 16 3e
       0.059823122 -0.029017296 -0.028314302 0.14692335
0003e0 c8 c9 0a 3e f7 2f 6f bd 15 2c 96 bd 16 72 80 bd
       0.13553536 -0.058395352 -0.07332627 -0.0627176
0003f0 76 43 0b bd 22 f1 97 3c 98 b4 48 bd 7b c7 91 bd
       -0.033999883 0.018547598 -0.049000353 -0.07118126

fc.2.bias f4 [128]
000000 02 54 1a bd fc 8c 2d 3e 43 a7 fc 3d 9e 83 1a 3e
       -0.037677772 0.16948313 0.1233659 0.1508927
000010 33 c7 07 3d ac d6 8e bd 9b 0a 00 bd 6b c3 03 3e
       0.033148956 -0.06974539 -0.031260114 0.12867515
000020 d6 8a f9 3d a9 6c 13 be 03 f8 0e 3d 93 4f 85 3c
       0.12184684 -0.1439692 0.03490449 0.016273296
000030 f2 6d 74 bd 50 ba 89 3d 3a d5 8e 3d 7e 70 a1 3d
       -0.059675165 0.067249894 0.069742635 0.07882784
000040 72 47 d5 3c 2a b1 b7 bd d9 82 46 3d c0 e7 e4 bd
       0.026035044 -0.08969338 0.04846463 -0.11177015
000050 68 9b 17 3c bd ac 07 3e df ec 12 3e 91 2a 02 3e
       0.00925336 0.13249488 0.14348172 0.1271155
000060 4e 99 06 bd c4 29 dd bd 76 b8 4c 3d e3 ee 25 bc
       -0.032861046 -0.10798982 0.049980603 -0.010127756
000070 a4 3b 51 bd 6d 71 f6 3c 58 62 f3 3d 0f 33 ab bd
       -0.05108227 0.030083383 0.11883992 -0.08359348
000080 d0 42 1f 3e c1 20 4f 3a 89 bf 0d 3e 3c 1d 61 bd
       0.1555283 0.0007901304 0.13842596 -0.05495952
000090 ba d7 8f 3c e7 5e 6d bd 3c d5 9d 3d 7c 7a 8a 3c
       0.017558921 -0.057951834 0.07706687 0.016904108
0000a0 8a 12 dd 3d 87 e4 19 3e 1b f8 83 3d f6 b4 29 be
       0.10794552 0.15028583 0.06443807 -0.16572937
0000b0 d2 91 55 3d 71 78 2d be e9 0b 0f 3e 86 6a 02 3d
       0.05214102 -0.16940476 0.13969387 0.03183987
0000c0 a1 82 0c bd 58 2c bc 3c 8e 8c a3 3d 6c 63 ed bd
       -0.034304265 0.022970363 0.07985793 -0.11591229
0000d0 23 5d 10 3d 67 4f 1e ba 63 b3 80 3d 9f e2 06 3e
       0.035245072 -0.00060390536 0.06284215 0.13172387
0000e0 db a4 4e 3e ed 3f 3c 3c 94 20 d2 3d 29 f1 53 3d
       0.20180075 0.0114898505 0.1026012 0.05174366
0000f0 b3 26 26 3e 3d 54 56 3b c5 a9 64 3d cb ad c1 3d
       0.162257 0.0032704019 0.055825967 0.094569765
000100 2c fc 73 3c 9c 9e 3a 3e 73 ac a3 3d 70 13 60 bd
       0.014891665 0.18224567 0.079918765 -0.054706037
000110 4c d6 99 bc e9 26 96 3d aa 2e a1 3d d6 49 f0 3c
       -0.018778943 0.0733164 0.078702286 0.029332083
000120 7e 98 d3 bd 84 f3 05 3e b6 0c bb 3d 5f 64 6f bc
       -0.1033182 0.13081175 0.09133284 -0.014611333
000130 56 3b 65 3d d6 66 ec 3d b3 1c 3d 3d 66 c5 bc bd
       0.05596479 0.11543052 0.046169948 -0.09217338
000140 31 e3 bb 3c e2 09 83 bd cc 7c da bd 18 86 ef 3d
       0.022935482 -0.06398369 -0.10668334 0.11695498
000150 13 c9 1e 3e 63 cb 15 3e 96 30 09 3e e3 cb 97 3c
       0.15506391 0.14628367 0.1339744 0.018529838
000160 ff 08 b3 bd 7d c1 be 3d e7 ac e3 3d 99 64 90 bd
       -0.0874195 0.09314249 0.11116963 -0.070504375
000170 54 26 d8 3d 6c a0 a8 bd ca 20 27 3d ea 11 e3 3d
       0.105541855 -0.08233723 0.040802754 0.11087401
000180 82 d7 b6 3d d7 a2 6f 3d 47 12 f5 3d 1a 6a 1e 3e
       0.089278236 0.058504906 0.11966377 0.15470162
000190 60 ba b7 bd 24 7d 1f 3d 8e e7 8a 3d 64 4c 50 bd
       -0.08971095 0.038937703 0.06782447 -0.0508541
0001a0 a8 ed ac bb 94 4f ef 3d c2 aa 46 bc be 9d da 3d
       -0.0052773543 0.116851 -0.012125673 0.10674618
0001b0 80 2f 43 bd 63 4e 04 3d 48 60 9b bc 73 fb b3 bd
       -0.04765272 0.032301318 -0.018966809 -0.087881945
0001c0 2a 99 8d bd 41 4e a7 bd 1b 52 4d 3b 98 20 fa bd
       -0.06913979 -0.081692226 0.0031329456 -0.12213248
0001d0 8f 94 f5 3c 63 ec e1 bc 5b df 8d 3d 43 1f 46 3b
       0.029978065 -0.027578538 0.06927367 0.0030231036
0001e0 e0 20 10 3e a9 33 08 be f2 03 90 3d ef 08 cb 3d
       0.14075041 -0.13300957 0.070320025 0.09913813
0001f0 77 5b 0f be 5f ad 88 bd 4d 60 da bc b9 9f 28 3e
       -0.13999735 -0.06673693 -0.026657248 0.1646718

fc.4.weight f4 [2, 128]
000000 9d 63 ae 3d 82 53 18 bf bc 30 2d be cb 99 87 bc
       0.085150935 -0.5950242 -0.16913122 -0.016552826
000010 0a 83 8e be 84 ac bc be 42 e8 91 3e d1 1b f8 bd
       -0.2783435 -0.3685037 0.2849751 -0.121146806
000020 5a 34 cf be ce b4 4b bf 97 77 fd 3c 8a ef 47 bf
       -0.4046963 -0.7957276 0.030940814 -0.7809988
000030 dd db 07 bc a8 02 2d bf 31 5f ba be e4 1d 41 be
       -0.008292166 -0.6758218 -0.3640075 -0.18859059
000040 49 d1 16 bf f4 65 65 3e 31 c3 79 3d e1 a6 1c be
       -0.58913094 0.22402173 0.060977165 -0.15298034
000050 ac 5b a8 3e 39 b0 c9 be 08 4c 1a be 20 12 af be
       0.3288244 -0.3939226 -0.15068066 -0.34193516
000060 dd ac 71 3e dc c6 ff 3b 4e 1e 99 3e df 0c 70 3c
       0.23601098 0.0078056883 0.29905933 0.014651506
000070 da 09 df 3c ef cd b7 3d e9 63 a3 be 61 d8 11 bc
       0.027226377 0.089748256 -0.31912163 -0.008901686
000080 e8 19 1f be 12 4c 73 be a3 c8 9e bd 7f ad 8f 3c
       -0.15537226 -0.23759487 -0.07753112 0.017538784
000090 1a aa 12 be cc 7c 08 3e e2 0e 56 3e 49 7e 94 3e
       -0.14322701 0.13328856 0.20904115 0.29002598
0000a0 4b 3d 19 bf ce 88 3f be c1 e8 10 3f 16 24 9c 3e
       -0.5985915 -0.1870453 0.56605154 0.3049628
0000b0 74 6f 8f be d2 54 43 3e 83 6d 1a be 5f ba 81 be
       -0.2801472 0.19075325 -0.15080838 -0.25337502
0000c0 da 1b b5 be b3 ee a3 3e ed 51 b0 be cf a1 56 3e
       -0.35372812 0.3201805 -0.34437504 0.20960163
0000d0 65 5d b5 3e ad 93 ad 3e 41 0f 47 be 44 10 b6 be
       0.35422817 0.3390173 -0.19439413 -0.35559285
0000e0 58 35 8c 3d 46 4a 68 3e c3 49 d0 bd 8c 6d 0c 3e
       0.06846112 0.22684583 -0.10170319 0.13713664
0000f0 6b e2 30 be 15 42 a6 bd 8b 4c 15 be af 9e 8c be
       -0.17273872 -0.08118073 -0.1457998 -0.27464816
000100 17 ed a3 3e 11 2a 46 bd de 20 e9 be ef 8e 6b 3d
       0.32016823 -0.04837996 -0.45532888 0.05750936
000110 c5 7e 7a 3e 6d ec 14 3f 8d fe 4f be 53 d7 d7 be
       0.24462421 0.5817326 -0.20311947 -0.42156467
000120 f9 2b d3 3c e7 1f a6 3d cb 7c a1 be 10 cc 03 3c
       0.025777804 0.08111554 -0.31540522 0.008044258
000130 d8 69 07 bf 3f 7f 43 bd fa 06 7f be 4d fd 8b 3c
       -0.5289588 -0.047728773 -0.24905005 0.017088557
000140 9a 01 a6 3e 7e b4 9d bd 67 f7 d9 bc 28 c5 9b be
       0.32423097 -0.07700442 -0.026607228 -0.30423856
000150 23 3c 60 3e 2d 9a 0c bf 11 ea 97 be 8c 0f 27 3e
       0.2189794 -0.54922754 -0.29670766 0.16314524
000160 b8 88 5e be a4 65 83 be e6 b0 ba be 26 d1 8b bb
       -0.21731842 -0.25663483 -0.36463088 -0.004266876
000170 c0 18 57 be 93 8b 02 3e 69 23 3f be 91 fc a3 bd
       -0.21005535 0.12748556 -0.18665852 -0.080071576
000180 02 46 00 be 34 e7 92 be f5 b0 5f be 35 e2 2d be
       -0.12526706 -0.2869202 -0.21844848 -0.16980822
000190 8e 10 0e 3e 2b c8 e6 38 75 dc 61 be 9a 9d 0d 3e
       0.13873503 0.00011004539 -0.22056754 0.13829651
0001a0 06 7f ec 3e fd f8 8c be bc cc 9c 3e 68 30 fe bd
       0.4619066 -0.27533713 0.3062495 -0.124115765
0001b0 4d 1e 67 3a b7 df d2 3c 10 d6 66 3d 8b db 63 bc
       0.0008816466 0.025741441 0.05635649 -0.013907324
0001c0 2e 73 65 3e 62 b4 19 3c f8 a1 86 be 09 27 a8 3e
       0.22407219 0.0093813855 -0.26295447 0.3284228
0001d0 9f a9 ab 3e 2f b8 25 3c 73 53 6e be 08 f0 0a bd
       0.33527848 0.010114714 -0.23274021 -0.033920318
0001e0 c8 01 bf be ac 3c bf 3c e9 d7 e9 be 0f 06 a9 be
       -0.37306046 0.02334436 -0.4567254 -0.33012435
0001f0 c8 56 3e 3b 75 f0 00 be e2 ac 88 3e 0e e7 d5 be
       0.0029043425 -0.12591727 0.266944 -0.41777843
000200 82 77 18 3e 4b a2 02 bd 96 4a a0 be 91 d5 31 bf
       0.14889339 -0.031893056 -0.31306905 -0.694665
000210 f6 6c cc bc 96 7b a8 3e c6 33 8a 3e 3f b1 a6 be
       -0.0249543 0.3290679 0.26992625 -0.32557103
000220 aa 72 51 3d 4c 6c 9d 3d 76 4d 95 3c 87 a2 fb be
       0.051134743 0.076866716 0.018225413 -0.49147436
000230 05 68 b0 3d 66 b7 92 be fc 03 8f 3d b0 5d 9c 3d
       0.0861359 -0.28655547 0.06983182 0.07635057
000240 35 69 e3 be 32 4b 97 3e 5e 53 f2 3c 18 d2 00 3e
       -0.44416204 0.29549557 0.029580768 0.12580144
000250 a2 f5 54 3e 03 e5 d7 be 92 bd c9 be b3 cf 15 be
       0.20796826 -0.4216691 -0.39402443 -0.14630012
000260 90 62 4d 3e 32 cf 7e 3c 32 28 c1 3e d9 dc 82 bd
       0.2005713 0.015552329 0.3772598 -0.063897796
000270 bf 0b 8a bd 27 d6 cb 3a a2 65 2a 3e cb 51 90 bb
       -0.06740522 0.0015551493 0.16640332 -0.0044042817
000280 27 21 a5 be 70 c3 75 be 14 71 09 bf 93 14 9b bc
       -0.32251856 -0.24000335 -0.5368817 -0.018930709
000290 21 9c 16 bd 93 3a 84 3e 9f 9d 0e bf 21 07 64 bd
       -0.03676999 0.2582594 -0.5570926 -0.05567086
0002a0 17 d6 18 bf 36 ee 06 be e6 18 92 be 23 94 51 3e
       -0.59701675 -0.13176808 -0.2853462 0.20466666
0002b0 2d 2a 50 3d 3f 0d 9c 3e 92 62 8b be ee c7 8e be
       0.050821472 0.30478856 -0.2722364 -0.2788691
0002c0 47 0e 84 3d 47 bc c7 3c 1d c0 f6 3d 22 90 af 3e
       0.06448036 0.02438177 0.120483615 0.34289652
0002d0 bc 8c d7 3c fe 62 dc 3c 10 65 98 be b9 01 c7 be
       0.026312225 0.026902672 -0.29764605 -0.38868502
0002e0 00 75 12 bf 14 9f 01 3f 3f 41 44 be 69 5c ed 3d
       -0.5720978 0.5063336 -0.19165514 0.115898915
0002f0 2c c7 17 be eb 85 1b bf 99 53 3f 3e e8 d9 8b be
       -0.14822072 -0.6075122 0.18684234 -0.27314687
000300 0c 27 06 3b 94 ca f0 be 99 54 a4 bd 52 6d 65 bd
       0.002047005 -0.47029555 -0.08023948 -0.05601246
000310 4c fc 2a be c9 14 97 be 53 68 39 bf 42 7d 72 be
       -0.16697806 -0.29508045 -0.7242481 -0.23680595
000320 0e 2a 03 bc f2 41 89 be 0c b7 80 bd 61 fd 3c 3e
       -0.008005632 -0.26808125 -0.062849134 0.18456031
000330 0a 72 33 be 21 8f d7 be 7e 3f 55 be 40 3b 83 3c
       -0.17523971 -0.42101386 -0.20825002 0.016019464
000340 e4 86 db be 55 75 4f bc 62 9a 80 3c d1 15 2a bd
       -0.4287635 -0.0126622515 0.015698615 -0.041524712
000350 c9 d4 f7 bb d9 42 dc bd df b4 47 bf ff f2 2b 3e
       -0.0075632078 -0.10754938 -0.7801036 0.16791914
000360 9a b2 81 bd df 86 8d bd 84 22 ae bd 57 0e 4a bd
       -0.06332894 -0.0691049 -0.08502677 -0.04933008
000370 ec 73 28 3e 73 7c b0 3d 89 a2 28 bd ef 4f 17 3e
       0.1645047 0.08617487 -0.04117063 0.14776586
000380 34 53 82 be ee 5e 7e 3d 9d c7 31 3e 78 87 33 be
       -0.25454104 0.06210225 0.17361303 -0.17532146
000390 05 cb 86 3e 00 f2 b6 3b 85 e3 9b be b7 5a f0 3c
       0.26326767 0.005583048 -0.3044702 0.029340131
0003a0 b6 d5 bd bd 61 9a bb bd ff a0 3f 3e ba 2b 86 bd
       -0.09269278 -0.09160305 0.18713759 -0.06551309
0003b0 86 b2 ad bb b1 cb 71 3e b5 d8 01 3f c7 e7 e6 bc
       -0.0053008227 0.23612858 0.50721294 -0.028186692
0003c0 96 17 84 3c ce f6 f0 bb 8d 13 9d 3d a2 ac cc 3e
       0.016124528 -0.00735364 0.07669745 0.39975458
0003d0 00 e9 d7 bc 52 4b a0 3d da ac 9a be 4a 60 33 3d
       -0.02635622 0.07826866 -0.3021 0.043793
0003e0 a1 ea fa be 84 0f 04 bc 7b 4d a4 3e b7 41 77 be
       -0.49007133 -0.00806034 0.32090363 -0.24146162
0003f0 f9 c7 79 bd 9e 38 87 3e 30 69 87 3d 7a 32 1a be
       -0.060981724 0.26410383 0.0661186 -0.15058318

fc.4.bias f4 [2]
000000 d1 1b 20 3d 58 88 1c be
       0.039089028 -0.15286386
