dqn_lunar_lander_mul_env2.pth (torch, 76077 bytes, 6 tensors)

fc.0.weight f4 [128, 8]
00000000: 2480 b5bd 7b13 f3bd 8f95 ac3f b7df e73e
00000010: 6f62 3bbe cae7 08bf 2f32 d6bf f52d 4dbe
00000020: 28cf e73c 5c4d 04bd 08ed 6240 036c 0440
00000030: 1dd7 4abd c316 af3d 2cba bdbb 6d15 13bc
00000040: 746c 393f 4231 fc3e 8b74 3f3f e48c e53e
00000050: cb5e 9b3f 101e ec3d 51cd 29c0 a530 473f
00000060: 1b57 b6be 6fd0 c9bf 3b11 12bf 3e34 8dbf
00000070: 2688 00bf 0b1f 66bf 1cd8 04bf cfad 0ebf
00000080: 2e77 b7be e60e e8bf 7088 d83f 8877 343f
00000090: 2fc1 a83e d691 12be a265 993e 4002 763e
000000a0: 3f6a 623e f587 ce3d fe7e cd3e b141 973e
000000b0: c91b a9bf 30e7 65bf 65e2 46bf a83f ea3e
000000c0: 6a6b 35bf 9f2a 3ec0 899c ad3e 6dd7 25bf
000000d0: e64a 043e 2c7e 10be 9ab4 c8bc c756 503e
000000e0: 2158 96be ff67 0c3e fbfe 4abf e55b d23e
000000f0: 4488 0d40 a9ab c3be 3d6b 05bf 75e7 7c3e
00000100: d23d a33d c41e 25bf 92d7 163f 469c 9bbf
00000110: 1253 263f 5886 ac3d 9f97 a5be a1b8 173f
00000120: 3c30 37bf cc21 e83c e3ff 2d3f f4fe 033f
00000130: 99f1 6b3c b150 803d 1485 b1bf 1b51 3e3f
00000140: a44e 5ebe f654 88bf 612c 3f3f e465 6d40
00000150: e15d 333d 4d36 113f 099d 0f3e 61dd 353f
00000160: abc1 59bf 2bd2 ae3e ab66 643f 25af 6a3f
00000170: 5f95 48bf b076 9d3e a6de 183f 7a7b bebe
00000180: 5cba dcbe 4735 a1be 85eb b13d 34d5 433e
00000190: e32b 06be f661 943d 3fd8 fa3e e22c f2bf
000001a0: 0ec2 0b40 0aec b53e 478d 8a3f a7f0 833e
000001b0: 2f57 77be ef99 713e 657d aa3d 2cba f8bc
000001c0: 7b5c 18be 524c 2dbf 0cca 153f a6bc 22bf
000001d0: a83d c0bf 55f8 ff3d 3c02 1cbf c441 3e3f
000001e0: 215b 75bd f545 5d3d 1caf b73f d4d3 5cbf
000001f0: 3965 693f 2237 87bd 2c4c 78be 8ac4 09bf
00000200: 88f9 ea3e 20a1 36c0 23ca babc 0333 efbe
00000210: d26e b33f 5fd0 fd3d f798 193e e87c 56bf
00000220: 84b8 063f e94b b3bf 0f28 52bd 2794 9ebf
00000230: 2f4b 42bf 1cd2 a8b9 e864 e4bd 33c6 d3bd
00000240: 4142 69bf deb3 8fbf 172c 20bf ce03 4fbf
00000250: d3d3 b03f 0740 ce3d 883e c83e 9e5b a8be
00000260: 853e 063f 060b d7bf 9bed 6a3f d69a 6bbf
00000270: 0d9e 543f d72b 363f 11a7 22be 81ce 29bf
00000280: e756 d73d f9d3 94be 741b 2e3e 949b 7f3e
00000290: 26a6 0e3f 7286 19bf 30a7 a3bf ab87 62bd
000002a0: 8d84 d43d 77a5 7d3e 63fa c23f 6715 643f
000002b0: 7850 32bd 1b74 5dbe fb5d 73bf 79a4 a3be
000002c0: cbe5 46bf 811c 28c0 c953 153f d205 e43c
000002d0: f5a5 89bf 54f5 67bf c4e8 7bbf a08b 9bbd
000002e0: cacc 433e fcd1 a7bd 9a80 c4be d9e4 34bf
000002f0: 993f 3dbe 4eff d53c c7e9 8fbe 4b4b 223e
00000300: b555 0e3e c118 21bd 94be 873f 7911 3a3e
00000310: 38e8 04c0 19ed d0bd 8f2b 08be 76a0 313f
00000320: 8792 45bd b457 b23e 0012 d2bf 9e55 403f
00000330: 56c6 2cbd 30a0 aa3d f833 0dbf 971e 093f
00000340: db0f c3be 1f4e 35be 293a 683f b76c 3dbf
00000350: fbb0 003e 6799 683e 1677 bdbd 5071 76bd
00000360: 8095 65be d350 c83d 426e 2fbc c67b bb3d
00000370: d298 1cc0 5fd7 3fbd 2fee bebd fef2 603d
00000380: ff33 763f ea62 1e3e ebca 1f3e 0565 613f
00000390: 1ff7 003f a91e a8be 7d2d 6dbf 4a94 f1bf
000003a0: 5bba 743f 617e 593d 6217 2ebe 6215 4bbf
000003b0: 25fa 153f c407 853e 9edb 713e c454 ec3e
000003c0: b9a1 74bd 746a b1bd 4d4a a23d 628a 5cbe
000003d0: e9e6 09c0 d360 213f 786d edbe 0075 edbd
000003e0: 91e5 64bf 49e5 fd3e fc1b 0cbe 4413 453f
000003f0: df47 8f3e 061a 06bf ac40 6abf 2394 253f
-0.088623315 -0.1186895 1.3483142 0.45287868 -0.18299268 -0.5347868 -1.6734065 -0.20037062
0.028297022 -0.03230034 3.5457172 2.0690925 -0.049521554 0.08549263 -0.0057900157 -0.008977276
0.7243111 0.4925633 0.74787205 0.44834054 1.2138304 0.115291715 -2.6531565 0.778086
-0.3561333 -1.5766734 -0.5705754 -1.1031568 -0.50207746 -0.8989112 -0.51892257 -0.5573396
-0.35833114 -1.8129547 1.6916637 0.7049489 0.32959887 -0.14313444 0.29960352 0.24024296
0.22110842 0.100845255 0.4013595 0.29542306 -1.3211604 -0.8980589 -0.776892 0.4575169
-0.70867026 -2.9713514 0.3390849 -0.6478184 0.12919196 -0.14110631 -0.02450018 0.20345603
-0.29364112 0.13711546 -0.7929532 0.41085735 2.211442 -0.38216904 -0.5211676 0.24697669
0.07970776 -0.6450007 0.58922684 -1.2157066 0.64970505 0.084240615 -0.3234224 0.59266096
-0.71557975 0.028336428 0.6796858 0.515609 0.014400863 0.06265391 -1.3868737 0.7434251
-0.21709687 -1.0650928 0.7467709 3.709344 0.0437907 0.5672348 0.14024748 0.7104092
-0.8506114 0.3414472 0.8921916 0.916735 -0.7835292 0.30754614 0.59714735 -0.3720358
-0.4311093 -0.3148596 0.086875 0.191243 -0.13102679 0.07245247 0.48993108 -1.8919947
2.1837192 0.35531646 1.0824364 0.2576954 -0.24154352 0.23593877 0.08324698 -0.030362211
-0.14879028 -0.6769458 0.58511424 -0.63569105 -1.5018816 0.124985375 -0.6094091 0.743191
-0.05990136 0.054021794 1.4350314 -0.86260724 0.9117008 -0.066023126 -0.24247807 -0.5381552
0.45893502 -2.8535843 -0.022801464 -0.46718606 1.4018195 0.12393259 0.14999758 -0.8378434
0.526253 -1.4007541 -0.051307734 -1.2388963 -0.7589597 -0.000322 -0.11152059 -0.10340538
-0.9111672 -1.1226766 -0.62567276 -0.8086518 1.3814644 0.10070806 0.39110208 -0.32882398
0.5243915 -1.6800239 0.9176881 -0.92033136 0.83053666 0.71160644 -0.15884043 -0.66330725
0.10514622 -0.29067972 0.1700266 0.24961692 0.5572227 -0.5997077 -1.2785397 -0.055305164
0.103768446 0.24770151 1.5232662 0.8909516 -0.043533772 -0.21626322 -0.9506528 -0.3196142
-0.77694386 -2.6267397 0.5833097 0.027834807 -1.0753771 -0.90608716 -0.9840205 -0.07594991
0.1912109 -0.08194348 -0.38379365 -0.70661694 -0.18481292 0.026122715 -0.28108045 0.15849034
0.13899882 -0.039330248 1.0605035 0.18170728 -2.0766735 -0.10201473 -0.13297866 0.6938547
-0.048235442 0.34832537 -1.6411743 0.7513064 -0.042181335 0.083313346 -0.55157423 0.535623
-0.38098034 -0.17705582 0.90713745 -0.7399401 0.12567513 0.22714768 -0.092512295 -0.060166657
-0.22420311 0.09781041 -0.01070744 0.09154467 -2.4468274 -0.046836253 -0.09322774 0.054919235
0.9617309 0.1546742 0.15604751 0.8804477 0.50377077 -0.32835892 -0.92647535 -1.8873379
0.95596856 0.05309904 -0.17001107 -0.793295 0.58584815 0.25982487 0.23618934 0.4615842
-0.059724543 -0.086628824 0.07924328 -0.21537164 -2.1547186 0.6303837 -0.4637258 -0.115945816
-0.8941279 0.49588993 -0.1368255 0.7698252 0.2798452 -0.5238346 -0.9150493 0.64679164

fc.0.bias f4 [128]
00000000: 8859 813e 868e 093c d17c 57bf 0a6b aebe
00000010: c938 f53e cb66 193e 9604 743f f872 6dbe
00000020: 8500 1fbf 5044 3fbe 0db1 cf3d 0467 6ebe
00000030: c64b bb3e a3e0 e6bc 2d6d 6bbe ab5b 823d
00000040: 1422 54bc b965 713e 1675 13bf cc5c c7be
00000050: fd0e 6f3d 8c40 29bf a76c 5f3e 32af a63d
00000060: e3dd efbd adfa 8a3d 8f28 d73d 9b80 0fbe
00000070: a3d6 06be 7018 e8be 1c16 bbbb afbb 42bf
00000080: 1c7c 5c3d 325d 9fbe b0ed 3abf 75c9 23be
00000090: f716 093e 7a76 20bf 134a d5be 24a7 edbc
000000a0: 02c0 ccbe c6e1 42be 6b56 abbe bbf9 eb3e
000000b0: 6b50 b1be 3314 b83b d975 45bf 0052 8fbe
000000c0: ad68 a5bd 8023 0a3d f74e 033e c6ac 62be
000000d0: bfeb 84be e1a7 0b3e f5e5 773f 07cb 8dbe
000000e0: 34ae 84bf 74a4 ca3d dc46 e2be 9af6 32be
000000f0: 693d a8be ffa9 c13e ea52 693d aa7a 9fbe
00000100: f30a 7a3d b352 843c a0ae febe 754b 563e
00000110: be25 783e 3903 0cbf 4290 8ebf b27d cc3d
00000120: 45da 97bd 0459 9abe 1dd1 60be a06d d6bc
00000130: aad8 973e 4537 b63e 7f1e 113e 496c 85bb
00000140: 8cd6 e4bd 0fd6 b2bb 3d64 623e c041 ab3d
00000150: 41ff cd3d 771a dd3c 16ae 043b b9c9 b4be
00000160: 5921 d3be 0a4e 2abf 1f0a 4abe f4aa 86be
00000170: 604f 403d 802f 3b3e 1626 3b3f be01 88bb
00000180: c37a 9b3c 2f9c 70bd 398d 0fbb 635d a03e
00000190: b812 9cbd 19cd 1f3f eaec 913e d242 6cbe
000001a0: 851e 303e 42cb 1c3e 9a14 6f3d 6a6f 5e3e
000001b0: bfe1 1abd bab4 d4bd ff6b b63e 8ddb 143f
000001c0: 0071 a7be 9429 24bf c09a 87bf 44b1 9d3d
000001d0: e7af 2c3e 03a5 4c3e 2dac 83be 3613 893e
000001e0: ed96 04bf b789 9cbd b237 c7be 6048 ebbd
000001f0: be72 043e 3225 05bf 7f57 b23d bd16 113f
0.2526362 0.008395797 -0.8417483 -0.3406604 0.47894886 0.14980619 0.953195 -0.23188388
-0.6211017 -0.18678403 0.10141192 -0.23281485 0.36581248 -0.028183287 -0.22990866 0.063651405
-0.012947578 0.2357396 -0.57600534 -0.38937986 0.058363903 -0.66114116 0.21818791 0.081388846
-0.117122434 0.06786094 0.10505783 -0.14013903 -0.13167815 -0.45331144 -0.0057094228 -0.7606763
0.053829297 -0.3112579 -0.7301893 -0.15994819 0.13387667 -0.6268078 -0.41658077 -0.029010363
-0.3999024 -0.19031438 -0.3346437 0.46088967 -0.34631667 0.0056176423 -0.77132946 -0.2799225
-0.08076606 0.03372526 0.12823091 -0.2213622 -0.2596111 0.1363826 0.9683526 -0.2769396
-1.0365663 0.09894648 -0.44194686 -0.17476884 -0.32859352 0.3782501 0.05696384 -0.31148273
0.0610456 0.016152715 -0.49742603 0.20927222 0.24233148 -0.5469242 -1.1137774 0.09984912
-0.074146785 -0.3014604 -0.2195477 -0.02617532 0.2965749 0.35589042 0.1417179 -0.0040717465
-0.11173734 -0.0054576467 0.2210855 0.0836215 0.100584514 0.026990158 0.0020245365 -0.35310152
-0.4123638 -0.6652533 -0.19730423 -0.26302302 0.046950698 0.18279839 0.7310499 -0.0041505983
0.018979436 -0.0587427 -0.0021904244 0.31321248 -0.07620758 0.6242233 0.28501064 -0.23072365
0.17199142 0.15311912 0.058369257 0.21722189 -0.037812945 -0.10386033 0.3562927 0.5814751
-0.327034 -0.64125943 -1.0594101 0.07699826 0.16863976 0.19984822 -0.25717297 0.2677247
-0.51792794 -0.076434545 -0.3890968 -0.11488414 0.12934396 -0.5200988 0.08708095 0.5667532

fc.2.weight f4 [128, 128]
00000000: d0f1 0f3f d4fd 2ac0 8eb2 c3bd 80e3 61bf
00000010: c77a 05bf 3233 8a3e 1d6f d9be ebd0 06bf
00000020: 6187 483e a7b7 203d 1097 4a3e 0841 73bf
00000030: 95b6 7dbe bf49 193e 8360 4ebd 4c06 16bf
00000040: e7ca 95bd 7802 4abd c011 c23d 43a3 543e
00000050: 3669 54be 5a7f 40be 73f1 6cbf 74e2 543d
00000060: b0cd 12be 9e60 5b3e fa04 dfbf fb23 f6bf
00000070: 4f20 93be c42b c53d 541a debf be56 243f
00000080: 4629 943e 1092 2c3e 4008 483c 5f27 b5be
00000090: 8c20 acbb ae3c dd3d 139c f7bc 7ac1 8cbf
000000a0: c92a 2b3f 100c ffbe bafc 243e e2c0 2f3e
000000b0: 919d 463f 8b53 02bf b05e de3f 6bc6 a83d
000000c0: 08d5 90bd 1118 463c 5e62 9c3e 92fd 21bd
000000d0: 1186 593f 6f8f 86be 1ab6 4f3e 1ae4 203f
000000e0: 8257 863e 56e9 fa3e 6fb4 cf3d d550 e9be
000000f0: 2a78 2cbf 3848 05bf 8aa8 f4be 42a9 5e3e
00000100: a3c3 98bf ae62 e13c 280a 833e e7a1 943f
00000110: f636 e1bf 4dbe 8bbf 8dbf 913f 027b 7dbf
00000120: 6a87 813e 5346 47be abb8 8fbe d58e 953f
00000130: 5e3c 033f 79bb 0fbf 4ad8 1ebf 6da7 18be
00000140: 22ec eb3e 15cc 8b3e 07f9 563f c882 d73d
00000150: 82b3 8ebf 0c43 b63e dca9 ac3e 4abe 6abe
00000160: b3fe 9cbe 0c1c 133e f815 e6bf fae9 2a3c
00000170: 7579 82be 3410 2b3d a96e 8b3e 68cf 183e
00000180: adc3 a9bf f1ea 5dbf c95a e33e 5dda 553e
00000190: fa26 68bf 5948 ef3d 3792 113e 18e6 65bf
000001a0: 3815 983e 87da d83c 6d77 7ebe c9a4 52bf
000001b0: 3f25 e0be 3bbe 22bf 04b0 373e 3648 b1bd
000001c0: cb39 cc3e 7987 623e 9e4f 52bf 1c5d ab3e
000001d0: cfb6 bb3e 0944 623f 6e76 15be f6bb 0bbe
000001e0: 8993 3d3f d4c0 4ebf a0ae a5bb dd23 0abf
000001f0: 644e 8fbe ff19 58bd c8f4 373f 03f7 4f3c
00000200: fd6f 12bf aefd 46bf 2fa8 e1bd 11a9 603f
00000210: f73a 8abd d654 343e 8afa 62be d4e5 003d
00000220: f132 bdbe bd96 c43d 1ca2 993e fc75 813f
00000230: 1839 4b3e 66fd 4c3f 879a dc3e 4f55 223e
00000240: 7ad2 0fbf 2bde e93c 37f4 4e3f 6bd9 1d3e
00000250: 296f f2bd ecb5 9a3f 7d2f 97bf 647f 363e
00000260: e538 c33e bac4 25bf 8115 3abf e364 bebe
00000270: 3ba4 e0bf 9618 f7bd 428b afbe 20fc ea3e
00000280: cd59 e83d 5f95 e43e 60db c2bf 421d 1d3f
00000290: bd86 333f c3ff 59be e49f e93c 375b 2dbf
000002a0: 79f4 b83e 52d5 313e 46f9 053f 5307 ea3e
000002b0: 8caa 903e 0564 81bf 3a63 be3f 1c29 943e
000002c0: 15de 2f3f 6d3a 4e3f c2f0 4b3e 74e5 043f
000002d0: 9fec 8a3f 225d 4c3f 3742 533d 857e ed3b
000002e0: 8b32 f03e 7584 e43d c847 d53d d464 6d3d
000002f0: f879 2bbf 7417 443d bc61 b3be 989f fd3d
00000300: 3d99 36bf d7e5 44be 207c 8f3f f036 0d3f
00000310: 7459 4abf 1a54 babf 2efd f33e 77f5 e2bf
00000320: 5921 81be 9ba3 9abd 622e 893e ad25 4a3f
00000330: 18c4 633f 6f82 8a3e 1150 04bf 8c3d e83d
00000340: dad3 8d3e 95b0 c13e 713d 9c3d ce97 c43e
00000350: 5bab 36be 4d6d d83d d7ca 4d3f 9a0b df3f
00000360: 6c93 153d dd0e bcbd c595 adbd 267d 7e3f
00000370: 5ec0 4fbe 6697 e73d 9b25 293c b95f a03d
00000380: cea8 2cbe e22c a03c 3023 563f 38af 8fbe
00000390: 05bc ec3e 2b90 b6be 1322 5f3e 67de d2bf
000003a0: d228 1e3e 7fc9 d13e a6cd 1a3f 822e 9cbf
000003b0: ce56 82be 8be5 3f3e d709 a7bf 0e90 f9be
000003c0: e9e8 9d3e 31ea adbd 69e5 5e3e 6b8b e03e
000003d0: 69e3 743e 7540 ef3e 37a4 ac3c 1c0f 843d
000003e0: f084 5c3e 077e b2be ed35 cf3c 645e 133f
000003f0: 053f 383f 6105 d53d 86f4 b23e b027 ddbd
0.5622835 -2.6717424 -0.09555541 -0.8823776 -0.5214047 0.26992184 -0.42467585 -0.52662534
0.19582893 0.039237645 0.19784188 -0.95021105 -0.24776681 0.14969538 -0.05038501 -0.5860336
-0.07314091 -0.04931876 0.09476042 0.20765404 -0.2074326 -0.18798581 -0.9255592 0.051973775
-0.14336276 0.21423575 -1.7423394 -1.922973 -0.28735587 0.09627488 -1.7351785 0.6419486
0.2893774 0.16852593 0.012208998 -0.353816 -0.0052529033 0.10802589 -0.03022579 -1.0996544
0.6686216 -0.4981389 0.16112033 0.17163423 0.7758418 -0.50908726 1.7372646 0.0824097
-0.070718825 0.012090699 0.30543798 -0.039548464 0.84970194 -0.26281306 0.2028431 0.62848055
0.26238638 0.49006146 0.10141837 -0.45569482 -0.67370856 -0.5206332 -0.47784835 0.21744254
-1.1934704 0.027512874 0.25593686 1.1611909 -1.7594898 -1.091745 1.1386582 -0.9901582
0.25298625 -0.1946042 -0.28070578 1.1684214 0.5126399 -0.56145436 -0.6204878 -0.14907618
0.46078593 0.2730414 0.83973736 0.105229914 -1.1148531 0.35598028 0.33723342 -0.22924152
-0.3066307 0.14366168 -1.7975454 0.010431761 -0.2548329 0.0417635 0.27232864 0.14922869
-1.326284 -0.8668662 0.444052 0.2088408 -0.90684474 0.11683721 0.14215933 -0.8980422
0.2970369 0.02647139 -0.24850245 -0.8228269 -0.43778417 -0.6357152 0.17938238 -0.08656351
0.39887843 0.22121991 -0.82152736 0.33469474 0.3666291 0.88385063 -0.14595959 -0.1364592
0.74053246 -0.8076298 -0.0050562173 -0.53960973 -0.27989495 -0.052759167 0.7185788 0.0126931695
-0.5720213 -0.77730834 -0.110184066 0.87757975 -0.06749528 0.17610487 -0.22165886 0.03146918
-0.36952928 0.095990635 0.30006492 1.0114131 0.19845998 0.80074155 0.43086645 0.15852855
-0.56180537 0.02854832 0.8084139 0.1541497 -0.11837608 1.2086768 -1.1811367 0.17822033
0.38129345 -0.64753306 -0.7268906 -0.37186345 -1.7550119 -0.12065236 -0.34285933 0.4589548
0.11345253 0.4464521 -1.5223198 0.6137277 0.7012747 -0.21288972 0.028518625 -0.6771731
0.36124018 0.17366531 0.52333486 0.45708713 0.28255117 -1.0108649 1.4874032 0.28937614
0.68698245 0.805579 0.1991606 0.5191262 1.0853461 0.7982961 0.05157682 0.0072477483
0.4691356 0.11158077 0.10414082 0.057957485 -0.66982985 0.04787393 -0.35035503 0.12383956
-0.71327573 -0.19228302 1.1209755 0.5516195 -0.79042745 -1.4556916 0.47654098 -1.773116
-0.25220755 -0.075507365 0.267932 0.7896374 0.8897109 0.27052638 -0.5168467 0.11339864
0.27700692 0.37830034 0.076289065 0.38397068 -0.17838804 0.105677225 0.80387634 1.7425416
0.036517546 -0.091825224 -0.08475832 0.9940971 -0.20288226 0.11308174 0.010323907 0.07830758
-0.16861269 0.019552652 0.8364744 -0.2806337 0.46237198 -0.35656866 0.21790342 -1.6474122
0.15445259 0.40974042 0.60470045 -1.2201693 -0.25456852 0.18739907 -1.3049878 -0.48742718
0.3084176 -0.08491934 0.217672 0.43856367 0.23914875 0.46728864 0.021074397 0.064481944
0.21535087 -0.34861776 0.025294269 0.57565904 0.7197116 0.104014166 0.34952182 -0.107985854

fc.2.bias f4 [128]
00000000: 159b d1be d94c 183d 8691 d93d 69cf 02bf
00000010: beca d3bd 5830 b5bd 1c6f 8dbe 040c 49bd
00000020: 937d 03be 8ff1 133d 5156 b33e 880f 3ebe
00000030: 6300 a7bc 3c59 8d3e 80af 2e3f 1023 543f
00000040: fe9f 16bf 932e 533e 3647 2abf 342c 0ebf
00000050: e59f bcbe 36be b03e 34a2 f93b 3fe2 193f
00000060: ec89 8abc d0dc bf3e 1307 1f3f 86d9 073f
00000070: 7ac8 8dbe 0c5e 3b3e e8af bdbd c9d5 433e
00000080: 359b 423d b148 6cbe de98 bdbe 3694 8f3d
00000090: 874d 0c3f 69e9 b5be e2a5 eebe 3ada 283f
000000a0: 2ef8 f73e b87f 6dbc d4e6 103f 2401 d2be
000000b0: ad4c f7bd 7a73 e93e af98 063f ac17 c63e
000000c0: 9e5e d9bd a6e4 1bbf b919 c5bd 4a50 d53d
000000d0: 22e3 0c3f 10ac 20be d581 eabd 8d81 773c
000000e0: 147f 283e f96a 9b3b dc59 38be 0bd8 6c3f
000000f0: ee16 a43e 249f d5be 7249 2ebd af6d 703e
00000100: 2b86 31be c624 60bd 26bf 88bd be05 e43e
00000110: 2d5e d5be 50bf 743b 683c 53bd c297 71bd
00000120: 64b8 bebc 99d1 0b3d d738 9e3e b90b bf3e
00000130: 37f3 7f3d 09f9 a4bd 0eaf 0bbf fbab 493d
00000140: 5e84 0fbf 352e 283c 8672 283e fd90 8d3c
00000150: 983f 75bd 6ff7 f03c 3448 d9bd 7173 ac3e
00000160: 442e f8bc de04 da3c 2916 3b3e b284 e83d
00000170: 752d cb3d 7174 193f 23fb 30bd 6576 22bd
00000180: 6433 94be 1a20 063f 6353 bf3d e983 72bd
00000190: 8e8f 0fbe e0c6 8b3e f391 e13d 02e0 0cbe
000001a0: f8f8 72bd ebd7 ddbd 9f25 223e e2eb 0a3f
000001b0: ae4f 093f de06 c9be 583a 25be b628 d8bd
000001c0: b0d9 dfbd c2bc 0c3f fa60 9c3e cc91 1abe
000001d0: fec0 abbd 593c 483e b8f3 c73e 86a5 cbbc
000001e0: 3ce2 1cbe f0e1 163f e655 063f 3eb3 113d
000001f0: da10 f5bc 9cdc 863e ce3a 52bb f9bc 8fbd
-0.4093863 0.037182663 0.106234595 -0.5109773 -0.103414044 -0.088471115 -0.27623832 -0.049083725
-0.12840872 0.03611904 0.35026792 -0.18560612 -0.020385927 0.27607143 0.6823654 0.82866
-0.5883788 0.20623235 -0.6651491 -0.555362 -0.3684074 0.3452012 0.007618213 0.6011085
-0.01691147 0.37473154 0.6212017 0.5306629 -0.27692014 0.18297595 -0.09262067 0.19124521
0.0475113 -0.23074605 -0.3703069 0.07010691 0.548058 -0.3552964 -0.46610934 0.6595799
0.48431534 -0.014495783 0.56602216 -0.41016495 -0.120751716 0.45595914 0.52576727 0.38689935
-0.1061375 -0.60895765 -0.09624047 0.104157045 0.5503408 -0.15690637 -0.11450545 0.015106571
0.16454726 0.0047429767 -0.18003029 0.92517155 0.32048744 -0.41722977 -0.04255051 0.23479341
-0.17336337 -0.05472257 -0.06677084 0.4453563 -0.41673413 0.0037345476 -0.05157128 -0.05898262
-0.023281284 0.034135435 0.3090274 0.3731363 0.062487807 -0.08055312 -0.5456399 0.04923628
-0.5606135 0.010264923 0.16449937 0.01728105 -0.0598751 0.02941486 -0.10609475 0.33681825
-0.030295499 0.026613649 0.18270172 0.113534346 0.099207796 0.599433 -0.043208253 -0.03966369
-0.28945458 0.52392733 0.09342077 -0.05920783 -0.14019606 0.27300167 0.11014166 -0.13757327
-0.059319466 -0.10832199 0.15834664 0.5426618 0.53637207 -0.39263052 -0.16135538 -0.1055464
-0.109301925 0.5497552 0.30542737 -0.1509468 -0.0838642 0.19554271 0.3905313 -0.024859201
-0.15320677 0.58938503 0.5247482 0.03557133 -0.029915262 0.26340187 -0.0032078507 -0.070184655

fc.4.weight f4 [4, 128]
00000000: 42f0 d1bd 3c50 54be 87a5 f7be 212f 9dbf
00000010: 18db 04bf cd4d f7bb 272d 8a3f 01cb b53c
00000020: 683c e03e 008e 86bf ae20 1abf e64a 7e3f
00000030: 5b6e 2b3d 7b82 503e 4682 da3e 3259 743f
00000040: b88e de3c a9ba 34bf 89a8 52bf f98d b83e
00000050: 43fa 4ebf baf6 973d 9177 493b 9984 5b3f
00000060: 607e 8bbf a1cc 2ebf 64d7 103f 3099 35bf
00000070: 0dfc a8bf 17e4 9d3e 17f9 803d 49b9 abbf
00000080: 5d82 d1be 99fb a3bf d633 1dbe 33f4 65bf
00000090: 2de5 1bbf 5ddf e4be 97c3 0e40 892a 8d3f
000000a0: ebdd 6a3f f8fe ce3c 978c b73e 8480 5ebf
000000b0: 545c eebc 44cc 1cbf f93d b4bf af99 953f
000000c0: 321b 6fbf 025d 203f 616d 83bd dec4 3b3f
000000d0: 44ba c73e 0053 2c3f 2c34 fabb f719 d43e
000000e0: b736 88bf 0246 a03d 141f 6fbf cef1 393f
000000f0: c5e7 71be d802 2ebe cca2 163d 090c 5abf
00000100: 88a9 15bf 0f9a bc3c 7c44 a7bd 1b63 4e3f
00000110: acc4 a23f a1ff de3d e053 68bf b167 7b3f
00000120: 8583 a5bc 5bcb 6ebf c42b 79bf 4c16 073f
00000130: 999f 46bf b0ea 573d 7193 833f ed42 59bf
00000140: a99e 05bf 17b8 c5be a3d9 8f3f a984 b13e
00000150: 1e12 183d cdfa 2440 7278 4dbc 4c5c 04bf
00000160: 5213 88bd 30ec 0ebf c623 59bf 6088 223e
00000170: e08b 623f 2010 863f 6fcc cebf e379 873d
00000180: 1cba 44bf d6fe 9bbf e291 093f ce42 073f
00000190: 5d8d 02bf 3a28 c8be 069c 00c0 79a6 bc3d
000001a0: 92e9 203d bb47 303d 546c bbbe f0f2 b73f
000001b0: 14c1 1b3f 15df febe 1098 603f e3fc 6fbf
000001c0: 5b27 4ebd a223 173f c2c1 2ebf 1710 8cbc
000001d0: 4e9b 793f d3dd 3abe 5c20 8d3f 9e45 5cbf
000001e0: 3eaa bbbe becb 983f cf9a 873f 0c08 8d3d
000001f0: c220 2dbf e919 70be 4f2d 23bd f09a 1ebd
00000200: 31d3 ebbe 00fe 26be adfd a0bf 94b1 d1bf
00000210: 5232 e7be e96c 26bc 7b89 593f 0048 afbc
00000220: f47e 833f fcef 70be e6e1 bfbf 95a6 a63f
00000230: 33a0 473d a27e f23e 862b 0d3f c27f 5d3f
00000240: 0c32 7cbf 56ff 66bf 8e3d 26bf 7012 0a3f
00000250: f57c bbbe f64e 913f 0259 d33d f3e0 833f
00000260: 2973 6cbf 5670 0cbf d112 4a3f 24d2 31bf
00000270: 623e 99be e4ef f93d 9b96 a83d 83d3 3bbf
00000280: 3c95 06bf 0a33 7fbf 9b71 d4be 1af2 3ebf
00000290: 65ed 45bf 2687 73bf e016 1740 45ec 983f
000002a0: 0b3c 423f a9b0 75bc 4357 a33e f3a2 a0bf
000002b0: 78a8 fdbc 2275 acbe e952 cdbf d61a 5f3f
000002c0: d3dc 2dbf 06a3 983e f5f6 43bd 6cb2 ef3e
000002d0: d5b8 273f a225 4a3f e8c5 1fbd 2d86 393e
000002e0: ad3e 50bf 5e5e f1bc 7334 9cbf 7e25 413f
000002f0: aa25 d9bf 8034 45bf 6dd1 d3bb 8b9b 82bf
00000300: c210 b2be bc95 143d 8a67 76bd d817 073f
00000310: cc5d d33e e49e ad3c 7949 6dbf fa36 903f
00000320: e407 94bc a7b3 61bf 019e 98bf 879b dd3e
00000330: 3e6e 4dbf 7e84 f1bb f504 293f 6147 06c0
00000340: fd32 7abf f6d5 06bf ac82 843f bb8e 393f
00000350: eba6 583d ab5a 0240 34d2 1fbd bbc2 62bf
00000360: 5963 423d e83c 0dbf 71d9 68bf 814a 39be
00000370: b15c 213f 3d44 993f dd1a 9bbf a9fc 74bb
00000380: 2ec6 3cbf 577c 4fbf ae35 473f 4a67 4a3f
00000390: eda9 1bbf 427e 69bf f4db b4bf a8b8 9a3c
000003a0: bade 61bc 0e1c 443d b74b 06bf e2f6 b13f
000003b0: 1a58 de3e 2c1d d4bf 7c48 6e3f 9271 53bf
000003c0: 0074 06ba 54f5 cb3e b9e6 58bf 0733 283d
000003d0: 82ec 683f 3273 e73d 778e 813f de05 32bf
000003e0: 762b 48bf 2ae8 ad3f 2262 863f cb80 b2be
000003f0: 5086 3cbf 1475 50be f017 1b3d 376a 3fbd
-0.10250904 -0.20733732 -0.48368475 -1.2280008 -0.5189681 -0.0075471164 1.0795029 0.022191526
0.43796086 -1.0512085 -0.60206115 0.99333036 0.04185329 0.20362274 0.42677516 0.954486
0.027167663 -0.7059732 -0.82288414 0.36045817 -0.8085062 0.07420106 0.0030741433 0.857492
-1.0897942 -0.6828099 0.5657866 -0.7093687 -1.320192 0.3083808 0.0629751 -1.341592
-0.40919772 -1.2811157 -0.15351805 -0.89825743 -0.6089657 -0.44701663 2.2306879 1.1028606
0.9174487 0.025268063 0.3584945 -0.8691485 -0.02909676 -0.61249185 -1.4081413 1.1687526
-0.9340087 0.6264192 -0.06417347 0.7334727 0.39009297 0.6731415 -0.007635614 0.4142606
-1.0641698 0.07825853 -0.93406796 0.7263459 -0.2362357 -0.16993272 0.03677635 -0.85174614
-0.5846181 0.02302268 -0.08167359 0.8061997 1.271627 0.10888601 -0.90752983 0.98205096
-0.020204315 -0.93279046 -0.97332406 0.527684 -0.77587277 0.05271405 1.027937 -0.84867746
-0.5219522 -0.38617012 1.1238292 0.34671524 0.037126653 2.5778077 -0.012540923 -0.51703334
-0.0664431 -0.55829144 -0.8482021 0.15872335 0.8849468 1.0473671 -1.6156138 0.06615045
-0.7684648 -1.2187145 0.53738225 0.5283631 -0.50996953 -0.3909319 -2.009523 0.0921144
0.03928525 0.043037158 -0.36606085 1.4371014 0.6084149 -0.49779573 0.8773203 -0.9374525
-0.0503305 0.59038746 -0.682644 -0.017097516 0.975026 -0.18248682 1.10255 -0.8604373
-0.36653322 1.1937177 1.0594119 0.068863004 -0.6762811 -0.23447384 -0.03983813 -0.03872198
-0.46059564 -0.16307831 -1.2577416 -1.6382318 -0.4515558 -0.010157802 0.84975404 -0.021396637
1.0273118 -0.23529047 -1.4990814 1.3019587 0.048736762 0.47362238 0.55144536 0.8652307
-0.98513865 -0.9023336 -0.64937675 0.53934383 -0.36618772 1.1352222 0.10319711 1.0303024
-0.9236322 -0.5485891 0.7893496 -0.69461274 -0.29930407 0.12203959 0.08231851 -0.73369616
-0.52571464 -0.99687254 -0.41492924 -0.7458817 -0.7731536 -0.95128095 2.3607712 1.1947104
0.7587287 -0.014995732 0.31902513 -1.2549728 -0.030964121 -0.33683115 -1.6040927 0.87150323
-0.67915076 0.29811877 -0.04784294 0.46815813 0.65516406 0.78963673 -0.039007097 0.1811759
-0.81345636 -0.029463943 -1.2203506 0.75447834 -1.6964619 -0.77033234 -0.0064641745 -1.0203718
-0.3477841 0.03627561 -0.060157336 0.5277076 0.412825 0.021193929 -0.92690235 1.1266778
-0.018070169 -0.8816475 -1.1923219 0.4328272 -0.8024634 -0.0073705306 0.6602319 -2.0981066
-0.9773405 -0.5267023 1.0352378 0.72483414 0.05289356 2.036784 -0.039018825 -0.88578385
0.047458027 -0.5517106 -0.9095679 -0.18094827 0.6303206 1.197395 -1.2117573 -0.0037382043
-0.737399 -0.810491 0.77816284 0.79063857 -0.6080616 -0.9120828 -1.4129624 0.01888688
-0.013786012 0.047878318 -0.5245928 1.3903468 0.4342659 -1.6571403 0.9307935 -0.8259517
-0.00051289797 0.39835608 -0.84727055 0.04106429 0.9098588 0.11301269 1.0121602 -0.695402
-0.78191316 1.3586476 1.0498698 -0.34863886 -0.73642445 -0.20357162 0.037864625 -0.046732154

fc.4.bias f4 [4]
00000000: c94d cc3e 6ee9 9f3d ebb7 0f3f ef6b 903e
0.39903095 0.07808195 0.5614001 0.28207347
