dqn_cartpole.pth (torch, 72314 bytes, 6 tensors)

fc.0.weight f4 [128, 4]
000000 2d ba 6e 3f 34 36 06 3e 5d 42 e1 be 10 fc 1e 3d
       0.9325283 0.13106614 -0.43995944 0.038814604
000010 23 ef 6b 3f 30 04 d9 be 6a 9d a7 bf a7 14 09 bf
       0.9216177 -0.42386007 -1.3094914 -0.5354714
000020 8d 8c 24 be ba dd e5 be f9 e4 2d bf 34 2f a7 bd
       -0.16069241 -0.44895726 -0.6792751 -0.081633
000030 94 b1 f5 bd f7 bb 59 3e 91 80 0e 3f 2b 79 27 be
       -0.11996761 0.21263109 0.55664927 -0.16354816
000040 c7 2c 3e 3e c3 eb 2a bd 6d be 14 bf 5d 3f c5 be
       0.18571769 -0.041728746 -0.58103067 -0.38524905
000050 e0 41 fe bd e6 e2 90 3e 28 bc c7 be 80 0f 35 3e
       -0.124149084 0.2829811 -0.3901074 0.17681694
000060 70 7a 04 bf be 9b 1c be ed 56 f5 bb 2f 6e 9d 3e
       -0.51749325 -0.15293786 -0.007487169 0.30748126
000070 48 18 50 be 9a cc a0 be a3 04 4d bf ce 67 20 3e
       -0.20321763 -0.314061 -0.800852 0.15664598
000080 d4 87 94 3e 3a 24 23 3d 9e 1e 14 3e b7 6c 09 be
       0.2900988 0.03982947 0.14464805 -0.13420378
000090 94 59 4d 3f f2 e9 d7 be 1a be 5e bf f9 ad 9c 3e
       0.8021481 -0.42170674 -0.8700882 0.3060148
0000a0 58 35 67 3e e1 73 f0 3d ff 15 5a bf 79 da 23 be
       0.22578943 0.11740852 -0.85189813 -0.1600131
0000b0 b8 a3 20 3d b8 e0 33 bd 5e 9a 07 bf 31 e3 22 3e
       0.039218634 -0.04391548 -0.5296992 0.15906979
0000c0 dc c3 0c 3f 51 31 48 be ba 47 34 bd e1 fc 62 3e
       0.5498636 -0.19550063 -0.044013716 0.22166778
0000d0 08 9a 90 be 32 ea 5a 3d c4 56 11 3f f4 bc 6c bd
       -0.28242517 0.053446002 0.5677302 -0.057797387
0000e0 96 8a c8 3c 3d 14 08 3d 83 31 7b bf ef f5 21 be
       0.024480145 0.033222426 -0.98122424 -0.15816472
0000f0 78 b3 b3 be 25 c6 ca 3e 09 59 21 be cb 15 95 3e
       -0.3509786 0.39604297 -0.1575662 0.2911819
000100 59 8f 0e bf 75 e9 18 bf 54 50 1e 3f 4e 65 f9 be
       -0.5568748 -0.5973123 0.6184132 -0.48710102
000110 36 e9 a8 3d 78 78 27 bf 4b 59 88 3e dd 93 2c be
       0.082476065 -0.65418196 0.26630625 -0.1685328
000120 72 c0 5f 3e 68 f5 38 3e bc d4 1e bf c1 0e 48 3e
       0.21850756 0.18062365 -0.62043357 0.19536878
000130 93 03 85 3d 16 51 b0 bd 8e 6d 86 3f 9c 37 f2 bd
       0.06494822 -0.08609216 1.0502183 -0.11827013
000140 c0 0b 96 3e 11 5c eb 3e 05 aa 2f 3f e7 71 75 3e
       0.2930584 0.4596868 0.68618804 0.23969232
000150 3d a4 09 bf 94 cb 8e be 15 91 82 3f 66 aa 26 be
       -0.5376623 -0.27889693 1.0200526 -0.1627594
000160 db 04 0c be b8 a7 2d be be 95 ed 3e 7f b3 11 bd
       -0.13673727 -0.16958511 0.46403307 -0.03557157
000170 c1 5d f4 be c8 59 82 3e 7a cf df 3f bd 36 e9 3e
       -0.4772778 0.25459123 1.7485192 0.45549574
000180 2f 25 b4 3d 4e e0 b6 ba cf 3b 03 bf 63 54 43 be
       0.08796155 -0.0013952346 -0.51263136 -0.1907516
000190 ed 57 3c 3f 52 75 ed be b4 30 f1 be 4e 7c db 3e
       0.73571664 -0.4637857 -0.4710747 0.42868274
0001a0 07 9a 17 3f b7 e7 b1 3e c3 54 05 3e 9c 29 31 bd
       0.592194 0.34747097 0.13020615 -0.043252572
0001b0 2c e6 29 bf fd ea 02 be 5d 0b 1c 3f bb ab f2 be
       -0.6636684 -0.12784953 0.6095484 -0.47396645
0001c0 3e 9a 09 3e 63 73 62 3e 9c 11 41 be 79 f0 9e be
       0.13437745 0.22114329 -0.18854374 -0.3104284
0001d0 27 b5 cf 3c 0b e1 4c bc 66 f7 f8 be 7f d9 03 3d
       0.025354935 -0.012504826 -0.4862625 0.032189842
0001e0 f8 4b 16 3e b2 d4 af be d6 b8 96 bf cb b5 95 be
       0.14677417 -0.3434196 -1.1775157 -0.2924026
0001f0 6e c9 65 be 24 de ed 3d f4 3f db be c6 fc c4 3c
       -0.2244012 0.116146356 -0.4282223 0.024046313
000200 c8 4b f3 3d 19 f9 5d bd 63 26 11 3f 4d 88 81 3e
       0.118796885 -0.054192636 0.566992 0.25299302
000210 65 40 e6 3e 0b 4c 8a 3e a1 bc 57 bf 95 51 9e bb
       0.44971004 0.2701114 -0.842722 -0.0048315027
000220 f3 f6 e8 be 35 92 de 3e 68 cf 01 3f 28 16 18 bf
       -0.45500907 0.43470922 0.507071 -0.5940881
000230 d6 37 3d be 52 8f 65 3e 78 db 01 40 23 4a f6 3e
       -0.18478331 0.22417954 2.0290203 0.48103437
000240 3e ca cf bc 93 c8 c2 3e de e6 bc bd c2 5a 7d 3c
       -0.025364991 0.3804365 -0.09223722 0.015463533
000250 d2 e0 49 3e 36 d9 85 3e 93 f5 19 3e d1 b2 8a be
       0.19714668 0.2614228 0.15035085 -0.2708955
000260 1c 6d 92 3d ca 90 01 3f fe 1f db 3e cb 20 85 3e
       0.07149717 0.50611556 0.42797846 0.26001582
000270 9f 63 92 bd 3a 6e 9f 3e db 49 a5 bc 9f e7 b1 be
       -0.071479075 0.31138784 -0.020176819 -0.34747025
000280 6d 8d d4 bd 36 f7 18 be 5e 77 fc 3e 96 8b dc 3d
       -0.10378537 -0.14938053 0.4930982 0.107688114
000290 c8 87 2f bf 72 c8 6a 3e 21 44 b4 3c 49 3f d8 3e
       -0.6856656 0.22928026 0.022005143 0.42235783
0002a0 0a bc d2 be f7 a6 7f 3d cc 97 24 3c ed 1d 67 be
       -0.41159087 0.06241509 0.010045957 -0.2257001
0002b0 4b 90 a2 bd 74 b7 ca 3d d7 af d0 3f 4a c5 6d 3e
       -0.07937678 0.09898272 1.6303662 0.23219791
0002c0 a2 1f 10 3f ee 25 31 be 91 ea 89 bf f3 5d ad be
       0.5629827 -0.17299625 -1.0774709 -0.3386074
0002d0 5b d8 39 3e ad a9 2b be 20 87 b7 bf d1 b8 dc be
       0.1814894 -0.16763945 -1.4338112 -0.43109754
0002e0 fa 5e 2a bf 35 71 27 3e 34 da b5 3e 4d a7 61 3e
       -0.6655117 0.16351779 0.35518038 0.22036476
0002f0 ff 58 05 be fc d6 15 3d b0 d7 7f bf 71 93 e8 be
       -0.1302223 0.03658198 -0.9993849 -0.4542499
000300 35 9b 55 bf 88 61 e3 bb 01 0e 6b 3f a4 25 0d 3e
       -0.8343995 -0.006939117 0.91818243 0.1378389
000310 d1 48 a3 3d ab fe 99 be af 66 9a 3f 4f 14 c9 3e
       0.07972873 -0.3007711 1.2062587 0.39273307
000320 f2 9a a9 3e 5e b3 d1 be 25 02 fa be 19 db e5 be
       0.33126026 -0.4095716 -0.4882976 -0.4489372
000330 dc 5e 4c 3e 57 68 22 be 0e 4b b9 3f 67 c5 22 bc
       0.19958061 -0.15860115 1.447603 -0.00993476
000340 1d 00 2a 3e 8e 00 32 be 6f 4f b7 bf 8c b2 d3 be
       0.16601606 -0.17383024 -1.4321116 -0.41347158
000350 b2 38 e7 3e c2 00 77 be 2b d8 36 3e 4e 12 cf be
       0.45160443 -0.24121383 0.17855899 -0.40443653
000360 05 c4 6d 3e d2 79 0f 3f 01 d5 2a 3f 49 7c ec 3e
       0.23219307 0.5604526 0.6673127 0.46188572
000370 cc 38 d5 3e 27 ba f4 3e a9 b6 93 be f2 21 5a 3e
       0.41644895 0.47798273 -0.28850296 0.21302012
000380 66 f6 6f 3d f6 da f0 3e 25 c1 1f 3f 43 be ac 3e
       0.058584593 0.47042054 0.6240409 0.33738908
000390 f1 1c d8 3e 2f fc bc be e3 bc 71 3e dd 38 bb bd
       0.4220958 -0.3691115 0.23607211 -0.09141705
0003a0 80 a7 ef bc c0 48 a2 3c 2c b1 c7 bf 58 10 22 be
       -0.029254675 0.01981008 -1.5600944 -0.15826547
0003b0 8a 1b 88 3e 81 46 49 be 2b af 6b bf 30 f6 8b bd
       0.2658351 -0.19655801 -0.9206416 -0.06834066
0003c0 75 7a 2a be ed 36 b7 be 41 2e 51 3e da 0d c8 be
       -0.16648276 -0.35784093 0.204278 -0.39073068
0003d0 e9 9f a5 be 84 53 bd 3e bf 41 68 bd 34 c9 6e be
       -0.32348564 0.3697778 -0.056703325 -0.2331894
0003e0 12 14 e1 3e 1f d2 b4 bb 43 a6 9b bf 78 c3 8c 3e
       0.43960625 -0.0055182124 -1.2160114 0.2749288
0003f0 e8 32 3a be af 29 e5 bc 17 75 29 3e a2 38 2b be
       -0.18183482 -0.027973978 0.16548572 -0.16720822

fc.0.bias f4 [128]
000000 7c 79 19 be 62 94 d1 bb 1f cb 30 bf 25 b7 b4 3e
       -0.14987749 -0.0063958624 -0.6905994 0.35295978
000010 3f 5d 23 bf 36 48 ce be 93 a5 57 3e ba 98 e6 be
       -0.6381416 -0.40289468 0.21059255 -0.45038396
000020 1e ba a0 3e 7e 04 14 3e e3 da ff be 7d ac c8 3e
       0.31391996 0.14454839 -0.49971685 0.39194098
000030 4b 52 0c bf bf 63 92 3e 20 c3 c7 3e 16 fe 4c 3d
       -0.5481307 0.28591725 0.39016056 0.050047003
000040 28 51 2a be 6e 57 e8 3d 28 c7 97 3e 1a e5 42 3e
       -0.16632521 0.11344801 0.29644132 0.19032708
000050 1e f8 9e 3e cd 7e d6 bd ad 2b 0a 3f 07 3b cd be
       0.31048673 -0.10473404 0.53972894 -0.40084097
000060 d0 22 ab be 01 b3 39 bd 90 b9 08 3f 87 ca a8 bd
       -0.33424997 -0.045336727 0.53408146 -0.08241754
000070 13 d4 a9 3e 2c 43 f5 3e 59 23 8e be 86 d7 df 3e
       0.33169612 0.4790281 -0.27761343 0.4371912
000080 d2 bd 12 3f 3f da 1c bf a8 30 c2 3d eb e3 c4 be
       0.5732089 -0.6127052 0.09481937 -0.38455138
000090 51 4c ca 3d 8c e5 9c 3d 54 7e 86 3e af 5e 8a 3e
       0.098778374 0.0766097 0.26268256 0.27025363
0000a0 cd f9 c1 3e dc f8 8b be a7 b2 db 3e 20 c0 90 be
       0.37885895 -0.27338302 0.42909738 -0.2827158
0000b0 11 32 80 be 6b 93 ab be dd 2f 8d 3e 8f 10 02 bf
       -0.25038198 -0.33510908 0.2757558 -0.50806516
0000c0 a3 01 8f be 05 8c 8c be 8b f8 b6 3e 26 79 39 be
       -0.27930936 -0.27450576 0.35736498 -0.1811262
0000d0 e7 a8 83 be e1 c5 9b be 05 5d 24 3d 5e d4 43 be
       -0.257148 -0.30424407 0.040127773 -0.1912398
0000e0 cc c1 ce be a0 1e ef 3e 64 9f 97 be 79 e5 81 3e
       -0.4038223 0.46703053 -0.29613793 0.25370386
0000f0 84 3a ff bd d5 a6 ad 3e 3a 7e 64 3e 3e 2f 03 3e
       -0.12462333 0.33916345 0.22313777 0.1281099
000100 6f 09 ee bc ea 2b 32 bd 6f c2 dd bc 83 20 93 3e
       -0.029057233 -0.04349891 -0.027070252 0.28735742
000110 c1 83 fa 3e 9e d3 63 3e 91 fa 9d bd 33 d8 87 3e
       0.48928645 0.22248694 -0.077138074 0.26532134
000120 28 2b b4 be 63 25 c3 be 4e 72 a9 be 4e e0 f9 be
       -0.35189176 -0.3811446 -0.3309502 -0.48803943
000130 37 b4 80 be ba 13 6f be e8 a0 cd 3e 07 c6 fc 3e
       -0.25137493 -0.23347369 0.40161824 0.49369833
000140 85 e7 e8 be ab 5e a5 3e 00 16 f5 3e 67 86 90 3e
       -0.45489135 0.32298788 0.47868347 0.2822754
000150 c9 21 03 3f c0 94 f3 be ba e6 d9 bd 39 9e a5 bd
       0.5122343 -0.47574425 -0.10639711 -0.08086819
000160 db a1 fe 3e 26 db 02 3e af 9c 49 bd 40 bf e1 be
       0.4973286 0.12778911 -0.04922169 -0.44091225
000170 65 fc e4 be 49 0f 82 be db 6a b3 3e 3b 0b e5 bd
       -0.44723812 -0.25402287 0.35042462 -0.11183783
000180 e3 63 cf 3e 33 0d c5 be 0c 37 7b bd 53 55 f0 be
       0.40505895 -0.38486633 -0.061331794 -0.46940097
000190 bb 53 19 bf f8 84 ed be ba 94 03 bf b6 cc 7e be
       -0.5989339 -0.4639051 -0.51398814 -0.24882779
0001a0 3e 57 25 be 5f 1e 58 be fd a4 b2 be 88 1b 5c 3d
       -0.16146562 -0.21105336 -0.348915 0.053737193
0001b0 9d aa ac 3e 20 a3 df 3e 66 0f 97 be 38 57 2e 3d
       0.33723918 0.43679142 -0.29503936 0.042563647
0001c0 0b 1e 02 3e 19 17 dd 3e b5 2a d4 3e 41 41 69 be
       0.12706773 0.43181685 0.41438833 -0.22778799
0001d0 c0 35 f1 3e f7 10 b3 3e 6c 92 cb 3e 18 f4 f4 be
       0.4711132 0.3497388 0.3976015 -0.4784248
0001e0 79 c4 95 3e 36 48 7c be 2a 05 c1 be 6b 15 84 3e
       0.2925146 -0.24636921 -0.37699252 0.2579759
0001f0 b6 5f fd 3e 35 a1 81 be dc b2 a2 be 20 bf 0a be
       0.49487084 -0.25318304 -0.31777084 -0.13549471

fc.2.weight f4 [128, 128]
000000 f3 b0 ff 3c 89 8b 6d bb a0 e1 c2 3b 71 55 83 bc
       0.031212306 -0.00362465 0.0059473068 -0.016031953
000010 d7 20 8f bd 17 84 8d bd d2 26 ae 3c 75 19 f2 3c
       -0.069886856 -0.0690996 0.021258745 0.029553154
000020 d0 8d bd bc d3 b4 c3 bb a4 c8 8d 3d cc fe dc bd
       -0.02313891 -0.0059724837 0.06923035 -0.10790786
000030 60 26 0c bd 66 da d7 bd b1 64 d5 3b 30 50 38 bc
       -0.034216285 -0.10539703 0.0065122475 -0.011249587
000040 8b b3 58 bd 8e 50 0c 3d 59 2b fd 37 a4 d5 82 bd
       -0.0529056 0.03425651 3.0180136e-05 -0.06388405
000050 42 64 a2 3d f0 6e de bd 27 e3 3d bd c2 b5 27 3b
       0.07929279 -0.108610034 -0.046359207 0.0025590514
000060 34 b8 3f bd 71 e6 7c bd 7f 3b 75 bd bf 60 44 3d
       -0.04680653 -0.061743204 -0.059871193 0.047943827
000070 f2 26 d1 3b 82 ea 96 3c be f3 bc bc 9b f8 d5 bc
       0.0063828165 0.018422369 -0.023065444 -0.02611952
000080 b4 8a a9 bd a1 cd 58 3d 04 fd 9a bd 9d ba e2 bd
       -0.08278409 0.052930478 -0.0756779 -0.1107075
000090 01 54 40 3d 47 2a ed bb 86 23 91 3c a3 22 8a bd
       0.046955112 -0.007237706 0.017717134 -0.06744888
0000a0 d5 36 e8 bc 97 37 f0 bd ea 1f 73 3d e1 8b 9f bd
       -0.028346458 -0.11729353 0.059356607 -0.07790352
0000b0 49 0d 56 3d b9 e5 50 bc 39 fa 20 bd 2b be 3f 3d
       0.052258763 -0.012750083 -0.03930113 0.046812218
0000c0 a8 05 b0 bc 2f 7a 20 bd 80 0e 80 3d d9 38 e8 bd
       -0.021487072 -0.039179023 0.06252766 -0.11338968
0000d0 f6 8c 59 bd 9b d0 af bd 71 bd 45 bd 6f 94 d1 bc
       -0.053112946 -0.0858471 -0.04827637 -0.025583474
0000e0 3b 36 1b bd 16 e0 ee 3c 00 18 04 bd 88 9a 98 bd
       -0.037893515 0.029159587 -0.03224945 -0.074513495
0000f0 43 7d 89 bd 7e 55 52 bc c8 86 d0 3c 3c c4 aa bd
       -0.06713345 -0.012837766 0.025454894 -0.0833821
000100 9d 01 06 bd 2c c2 66 bb 83 fb 65 3d 4b 1c 89 bd
       -0.032716382 -0.003521095 0.056148063 -0.066948496
000110 fa b9 0c 3d 41 73 5d bd 3f a4 b3 bd c9 ce ac 3c
       0.03435705 -0.054064993 -0.08771562 0.021094697
000120 04 4e 18 bd 47 07 d8 3d 76 17 ad bc 15 9f 62 bd
       -0.037183776 0.10548263 -0.021129351 -0.055327494
000130 87 4f c0 3b a4 c9 ca bd 0d a1 47 bc 6f 57 68 3c
       0.0058688554 -0.09901741 -0.012184394 0.014181002
000140 bc a1 ca bc 08 29 ae bd c3 ef f7 bd a1 6a a7 bc
       -0.024735324 -0.0850392 -0.12106278 -0.020436587
000150 1c 5c ea 3c c6 6e e4 bd 6e b5 59 3d 28 54 a3 ba
       0.028608374 -0.11153941 0.05315154 -0.0012460994
000160 59 c3 8b bd 67 75 49 3c ba 56 40 bc 7e 7e 77 bd
       -0.06824369 0.012296057 -0.011739427 -0.060423367
000170 83 0b 96 bb 90 19 18 3d 3b 7d ce 3c 1d 15 57 bc
       -0.004579009 0.037133753 0.025206199 -0.013127592
000180 8c c0 e7 bc 65 d6 22 bd 66 9f 0d bd 1c 9a 87 3c
       -0.028290056 -0.039755244 -0.034575842 0.016552977
000190 03 5b e3 3b fd f4 73 bd 90 9b e2 3c fb 63 cb 3c
       0.0069383397 -0.05955981 0.027662069 0.024827948
0001a0 65 3d 90 3d 1e 55 f4 3b d4 a6 aa bd 19 ae a9 3c
       0.0704296 0.007456436 -0.08332601 0.020712899
0001b0 1b 31 77 bd c5 b8 3c 3d 19 02 cc bd 45 25 ab bd
       -0.060349565 0.046074647 -0.099613376 -0.08356718
0001c0 3a bb da 3c 6d 5f 02 be 7b 01 cf bd e0 bc 8e 3d
       0.026700605 -0.12731715 -0.10107704 0.06969619
0001d0 76 8c d2 bd aa 21 be bd 75 9f 1c 3d bd 53 a8 3d
       -0.10280697 -0.09283765 0.038238008 0.08219097
0001e0 f2 cd b8 bd 2d c0 a2 3d 1b 2b db bd 91 c2 22 bd
       -0.09023656 0.07946811 -0.10701581 -0.039736334
0001f0 1e 71 c4 bc 26 2e 31 3d 33 5d 21 3b 72 c9 15 bc
       -0.02397972 0.0432569 0.0024622201 -0.009142267
000200 44 aa 79 bd 0a 2c 2d 3e 3f df 8f 3e d6 1d 2f bf
       -0.060953394 0.16911331 0.2810001 -0.684049
000210 dc 4b 14 3d 77 dc 50 bd a0 96 b3 3c 89 b5 2b 3d
       0.036205158 -0.0509915 0.02192241 0.041921172
000220 66 23 80 be 48 5d dc be 24 dc 08 3e bb b6 22 bd
       -0.25027007 -0.43039918 0.13365227 -0.039725047
000230 2a 99 17 3d 9e f7 3a be 3d 65 d9 3d 3f 40 b5 be
       0.037011303 -0.18258521 0.10615013 -0.35400578
000240 f6 0e 39 3e 98 44 e3 3d 7a b1 e5 be 41 88 96 bf
       0.18072113 0.110970676 -0.44861966 -1.1760331
000250 cd 73 96 bc 0d 66 99 bd 11 8e db bc 37 12 d6 bd
       -0.018365765 -0.07490168 -0.026801141 -0.10452693
000260 e2 4c 2a 3d 0f 63 59 bf b7 af 1f be a6 a4 80 bc
       0.041577227 -0.84916776 -0.15594374 -0.01570351
000270 c3 4e 98 be 01 70 a4 bd e8 a5 fb 3e 33 47 6e 3b
       -0.2974759 -0.080291755 0.49150014 0.0036358356
000280 d5 35 c4 be 5a c8 cc 3d 7f 0c 5f bf d6 7a e6 3b
       -0.3832232 0.099991515 -0.8712844 0.007033686
000290 16 c3 07 be 7c 54 a5 be 06 76 b2 bd 08 cb aa be
       -0.13258013 -0.3229102 -0.087139174 -0.33358026
0002a0 0c 88 ea bd 5b 36 26 bf 3e 82 36 3d f5 f9 94 bd
       -0.1145173 -0.6492669 0.044557802 -0.07274238
0002b0 7c 8e 1a 3f 4a cb 13 3f ec a7 24 be 6a 89 84 be
       0.60373664 0.5773207 -0.16079682 -0.2588609
0002c0 0b d8 23 be 84 fe 0c bf 51 61 4b 3d 3e 89 40 3b
       -0.16000383 -0.5507586 0.049653355 0.0029378678
0002d0 42 8d 01 3f e0 b8 9f bc b1 44 13 be ef 53 9e 3d
       0.5060617 -0.019497335 -0.14381672 0.07730853
0002e0 d5 0f 8d bd 97 9f c5 bd ad 19 1a 3f 0d 96 29 3e
       -0.06887785 -0.0964958 0.6019543 0.16561146
0002f0 45 46 5d 3e 4d e1 b5 bd 63 7e 13 bf 1e a9 af bb
       0.21608837 -0.08880863 -0.57614726 -0.0053607365
000300 1b 2f ce 3b 4b c4 0f 3d db bb b5 be 8f da 86 3b
       0.0062922365 0.03509931 -0.35494885 0.0041154097
000310 b8 7c 32 3b e0 7e 4a bd 44 4b 43 3e 39 ef e9 3d
       0.0027234983 -0.049437404 0.1907168 0.11422581
000320 d7 e7 1c bf 6e 6e 4c 3c 0c ad 31 be 7a c4 d9 bc
       -0.6129126 0.0124775 -0.17351168 -0.026582945
000330 f2 0b cb bd 13 9f 14 3f e1 0f 91 be 73 cc bf be
       -0.09914388 0.5805523 -0.28332427 -0.3746067
000340 90 99 88 3c 7d 70 03 bf bd 76 31 3d 94 49 2a bd
       0.016674787 -0.5134352 0.04332613 -0.041574076
000350 2e a8 8d bc 6b f8 53 be 82 bb 29 bd f2 17 a9 bf
       -0.017292108 -0.20700233 -0.041438587 -1.3210433
000360 18 24 45 3d 7d a7 21 3e 55 ad 2c 3e d4 ca f4 3c
       0.048130125 0.15786548 0.16862996 0.029881872
000370 71 50 46 3e dd 54 bc 3c 61 a5 df 3c 9b 0a 39 3e
       0.19366623 0.022989685 0.027300538 0.18070452
000380 9d 97 68 bf c7 bf 8d be e0 cc ad 3e 33 a6 96 3d
       -0.90856344 -0.27685377 0.3394537 0.07355919
000390 cc 67 16 3d 6b fd d5 bd 2b f9 96 bd 70 33 e5 be
       0.036720082 -0.10448726 -0.07371744 -0.44765806
0003a0 da f0 2a 3f 44 c5 77 be 7d 27 1e 3f b1 59 a9 3e
       0.6677376 -0.24196345 0.61779004 0.33076242
0003b0 5a ea 95 3c 4d 6e fe be d1 ab 11 3e 11 52 6a be
       0.018300224 -0.49693528 0.14225699 -0.22882868
0003c0 63 27 b1 3c 6e fd 23 be f5 0e 95 bf 37 59 5a 3e
       0.021625226 -0.16014645 -1.164519 0.21323095
0003d0 aa ec 64 3d b5 5e 6a bd de 6c f3 be e9 55 ae 3d
       0.055889763 -0.057219226 -0.47543997 0.0851248
0003e0 1f 4e 6b bd 6b e4 e8 3e c6 3d 61 3d e2 9d d5 3d
       -0.05744755 0.4548677 0.054990552 0.104305044
0003f0 09 77 16 be 06 7c f9 bc 02 60 17 3e 21 14 9f be
       -0.14693846 -0.030454647 0.14782718 -0.31070045

fc.2.bias f4 [128]
000000 c6 0f a3 bb 65 fa 11 bd cd d6 8a bd ef 4a 45 3e
       -0.0049762456 -0.035639185 -0.06779251 0.19266866
000010 f9 ab 97 3d 32 5c 0b 3e 5c 8b 0c 3e c8 6e 5c bd
       0.07405848 0.13609388 0.13725036 -0.053816587
000020 70 87 2e 3e 72 f8 ac bd 49 ae 3e 3e 47 8d af bb
       0.17043853 -0.08445825 0.18621172 -0.0053574177
000030 a1 96 75 3d 03 de 94 3d bf a7 84 bd 6c 10 93 bc
       0.059958104 0.07268908 -0.064773075 -0.017952166
000040 48 b8 94 bc 46 fc 0a 3b 8c 6f f2 3c a7 a8 0a bd
       -0.018154278 0.0021207496 0.029594205 -0.033852246
000050 8a 42 75 bd dc 2f 2c bd 9b df 42 3e d6 d8 2d bd
       -0.05987791 -0.04203783 0.19030611 -0.04244312
000060 0a a5 94 3d be 6a 18 3e ff a6 8d bd 21 a1 a9 3d
       0.07258041 0.14884469 -0.069166176 0.08282686
000070 68 ce d6 3d d7 a7 01 3e f7 9e 09 3e 52 ea 10 bc
       0.104885876 0.12661682 0.13439547 -0.008844929
000080 65 a1 d5 bd 73 55 24 3e 64 e0 85 bd 59 c4 21 3e
       -0.10431174 0.16048221 -0.0653694 0.15797557
000090 e7 38 bd 3c d7 af bd bd 0a fa 16 3d 4d 2b c6 ba
       0.023098422 -0.092620544 0.03685955 -0.0015119106
0000a0 4f 86 cb 3d 57 1e c5 bd 70 19 19 3e 27 75 21 3c
       0.09937727 -0.096249275 0.1495111 0.009854591
0000b0 66 88 9f bd a1 91 ca bc 49 67 0c be be f8 a7 bd
       -0.07789688 -0.024727644 -0.13711275 -0.08201741
0000c0 06 5d 64 3e a5 f2 c8 bd 8b f0 a8 bd e6 a2 3f bd
       0.2230111 -0.09811906 -0.08249005 -0.04678621
0000d0 0a 3f bd bb 5b 08 ca 3d 00 b9 80 3d 5c 02 25 3d
       -0.005775337 0.09864875 0.06285286 0.040285453
0000e0 2f 21 ad bc 44 be b6 bd 59 25 03 bc ea 53 f6 3d
       -0.021133987 -0.08923009 -0.00800451 0.12027724
0000f0 08 6b f8 3d 2b a2 ff 3c 34 f3 7c 3d ee b6 6e 3d
       0.121297896 0.031205257 0.061755374 0.058279924
000100 d5 d5 04 3d 5c e1 1d 3e b3 9f 82 3d 28 55 50 3e
       0.03243049 0.15417999 0.063781165 0.20344985
000110 9d 5e 8e bd 6f b3 81 bc 85 b2 fa 3c 8e 95 1d 3d
       -0.0695164 -0.01583263 0.030602703 0.038472705
000120 2d 1a e6 3d cc d9 d4 bd cb a6 1c 3e 87 55 9b bd
       0.112354614 -0.10393104 0.15298001 -0.075846724
000130 dc b8 39 3d 6a 04 2c 3e 0c 35 b1 3d 30 32 38 bd
       0.04534231 0.16798559 0.08652696 -0.044969738
000140 59 0a da bd d3 ec 19 3e 92 02 13 3e 2d 80 26 3e
       -0.10646505 0.15031748 0.14356449 0.16259833
000150 b0 54 5b bd 5d 3d 42 3e b8 05 21 bd 1b 5a 01 3e
       -0.05354756 0.1896872 -0.039312094 0.12632029
000160 f5 50 7e bd ef f7 00 3e c7 63 99 3d cb db 22 3e
       -0.062088925 0.12594579 0.07489734 0.15904157
000170 63 39 0e bd 5b d9 01 3d d1 7c c3 3d b1 fe 03 3e
       -0.034722697 0.031701427 0.09545291 0.12890126
000180 fe d4 81 3d 38 69 23 bc 24 59 25 bd 68 08 5b 3e
       0.06339453 -0.009973817 -0.040368214 0.21389925
000190 5c 05 18 bd 74 e2 11 3d 27 04 05 3d 14 ff d1 bd
       -0.037114486 0.035616353 0.032474663 -0.102537304
0001a0 b0 77 c9 bb 6d 14 30 3e 85 4d 09 3d 08 c5 76 3e
       -0.006148301 0.17195292 0.033521194 0.24098599
0001b0 8e b4 db bc d5 38 44 3e 83 b4 d1 3d 27 6d b1 bb
       -0.026819494 0.19162305 0.10239508 -0.0054146233
0001c0 ba b0 9d 3d b0 9d c3 bd 0d 8b fd bd 35 2b 48 3d
       0.076997235 -0.09551561 -0.123800375 0.04886933
0001d0 72 db 39 3d db 6c 2d 3e d1 73 25 3e 91 a8 5f bd
       0.045375295 0.16936056 0.16157462 -0.054604117
0001e0 e1 83 1c 3e 33 41 af bd 30 38 8e bd 07 d0 16 3e
       0.15284683 -0.08557358 -0.06944311 0.14727794
0001f0 e4 ef b7 3c b4 79 ca bd ba d1 21 3d 60 7c 3a 3e
       0.022453256 -0.09886494 0.03950665 0.18211508

fc.4.weight f4 [2, 128]
000000 e8 53 8d bd c2 1d 0d 3f 52 31 c1 39 15 16 38 3e
       -0.069007695 0.5512353 0.00036848575 0.17977174
000010 23 7f e2 bc 31 8d 7e 3e eb 9a cb 3e 1c 0b d5 bb
       -0.027648514 0.24858548 0.3976663 -0.0065015685
000020 f2 ad c9 3d 06 51 d8 bc 69 8b 9c 3e 1c f1 70 bf
       0.098476306 -0.026405822 0.30575112 -0.94117904
000030 4c 76 50 bd dc a3 0d 3e 14 6a a1 39 80 71 4f bd
       -0.050894067 0.13832039 0.00030787347 -0.05064535
000040 50 df 69 3c 2d 28 41 bd 14 91 86 bc 35 58 25 3d
       0.014274433 -0.047157455 -0.0164266 0.040367324
000050 a6 a6 4e 3d 92 02 34 3c 1c 27 1a bf b7 73 1c bd
       0.050451897 0.010986941 -0.60215926 -0.03819629
000060 73 fe 00 bc 3a 09 0d be b3 12 81 3d 3a ca cb 3e
       -0.007873165 -0.13773051 0.06302395 0.39802724
000070 a9 1a 9d 3e 8a e8 ca 3e fd 55 a9 3e 3d 8d f9 3d
       0.30684403 0.39630538 0.33073416 0.12185142
000080 0c 13 96 3d cd 2d 5d 3e 11 ab 43 bb 7b d9 78 3e
       0.07327852 0.21599503 -0.0029856602 0.24301712
000090 39 93 8f 3e 0c 5d c1 bd ce 32 be 3e 68 58 4c bd
       0.2804201 -0.094415754 0.37148136 -0.049889
0000a0 ad 8a cb 3d c8 de 89 3c 2a d5 e2 3e a4 6d 3b 3d
       0.0993856 0.016829863 0.44303256 0.04575886
0000b0 7c 05 89 be 30 d9 77 3d 57 a0 00 3f c8 8b 05 bc
       -0.26761997 0.06050986 0.5024466 -0.008151002
0000c0 c1 75 8b 3e 8f 28 bc bb dd 07 4c bd d2 3e c4 ba
       0.27238277 -0.0057421396 -0.049812187 -0.0014972335
0000d0 c1 bf 5b bf 32 87 8d 3e fb df 85 bd 22 22 20 bd
       -0.8583947 0.27642208 -0.065368615 -0.03909505
0000e0 fb 43 a9 3d 08 19 11 bd ff eb 7a bc 24 05 9d be
       0.08264919 -0.035424262 -0.015315055 -0.30667984
0000f0 13 87 26 3e dd fd 43 bd 48 51 32 3d af 8b f8 3c
       0.16262464 -0.047849525 0.043534547 0.030340044
000100 2c c4 95 3c 7c 7c 53 3e d7 8b 9e ba d9 20 90 3e
       0.018282019 0.20652956 -0.0012096119 0.2815006
000110 08 a1 b6 bd 6c b6 64 3d d2 03 96 bd 8e 0a 00 3d
       -0.08917433 0.055838034 -0.073249474 0.031260066
000120 f9 1b c8 3e fe ad cc bc fc 03 04 3f a9 6d 4b bc
       0.3908384 -0.02498531 0.5156858 -0.012416282
000130 c0 09 35 3e ba 6f 89 3e fa 72 de 3e 36 4f 73 bd
       0.176795 0.26843053 0.43447095 -0.059401713
000140 8c 84 aa 3c 21 b6 a8 be f5 0c 14 3e 70 73 d6 3e
       0.020815156 -0.32951453 0.14458068 0.41884947
000150 5f e3 a8 bc b7 97 92 3d 0b 8d c9 3d ee 85 94 3e
       -0.020616231 0.071578436 0.09841355 0.2900843
000160 c3 a2 17 3d 2f 57 f2 3d be f0 d1 3e 92 63 77 3e
       0.037020456 0.11833035 0.41003984 0.24159077
000170 a2 64 4a 3d 5c be 86 bd e7 f2 a7 3e ad f9 e0 3e
       0.049412377 -0.06579277 0.32802507 0.43940488
000180 4b 26 93 3e e1 4c e9 bb de 4f 02 bd 93 5e a7 3e
       0.28740153 -0.0071197604 -0.03181445 0.32689342
000190 94 d3 92 bc 19 09 a9 bf 13 d8 b4 3e da f4 ae bf
       -0.017923154 -1.3205901 0.35321102 -1.3668473
0001a0 6f 36 3e bd 96 5d 47 3e 89 2a d6 bb e0 45 62 3d
       -0.04643863 0.19469294 -0.0065358323 0.05524242
0001b0 dc 04 51 3b d8 5e 7a 3e 33 cd 87 3e 43 f8 ed 3c
       0.0031893766 0.24450243 0.26523742 0.029049044
0001c0 50 cf 5e 3e 07 da 35 bd f7 5c bd bb 99 7a 31 bc
       0.21758771 -0.04439738 -0.0057789045 -0.010832452
0001d0 98 9c ae bd b4 fc 16 3e 5a 64 1a 3e 9e bc 36 3d
       -0.08525962 0.14744836 0.15077344 0.044613473
0001e0 a2 4b 77 3e 32 e2 53 be 9a bb 73 bd 7a fc 4f 3e
       0.24149945 -0.20691755 -0.059505083 0.20311156
0001f0 74 a9 5e bd b6 5d 6f 3b 1e e3 6c bd 4c 11 3c 3e
       -0.05436082 0.0036524362 -0.057833783 0.18365973
000200 d7 20 a0 3d 79 3a 79 bf 6d 1a 1c bd ab e6 aa 3e
       0.07818764 -0.9735485 -0.03811114 0.3337911
000210 8d 68 f4 3b d4 12 9e 3e e4 65 8c be f0 0f 03 3c
       0.0074587525 0.3087374 -0.27421486 0.007999405
000220 dc 29 42 3e d7 09 17 3d c9 71 14 3e 26 4c 12 bf
       0.1896128 0.03687462 0.1449653 -0.57147443
000230 df 78 5c bd 6c e7 48 3e 04 84 c5 3b 2b 67 66 bb
       -0.05382621 0.1961953 0.0060277004 -0.0035156708
000240 40 ea a2 3a 99 10 5c bd e8 5b 87 bd b3 5e a8 bc
       0.0012429431 -0.053726766 -0.066093266 -0.020552969
000250 54 2a 0b bc b8 8e cc 3b 4b 3c b6 3e 12 b3 ea 3c
       -0.0084939785 0.0062425993 0.35592875 0.02864984
000260 93 06 54 3c a9 69 fd 3e c6 3c 81 3d b5 0b ab 3e
       0.012941021 0.49494675 0.0631042 0.3340737
000270 3e dd 87 3e d2 e4 06 3e 66 b9 db 3e c5 7b 95 bf
       0.26535982 0.13173226 0.42914885 -1.1678396
000280 29 5e d0 bc f8 35 56 3e 6d 27 32 3d 7a 7f 5c 3e
       -0.025435524 0.20919025 0.04349463 0.21533003
000290 01 70 a8 be d9 fc 59 3b a0 c7 4e bd 9c 8b c7 3c
       -0.32897952 0.0033262281 -0.050483346 0.024358563
0002a0 56 ff 5d 3e af 1d 44 bd dc 6a 9f 3e ca e7 84 bd
       0.21679434 -0.04787987 0.31136215 -0.06489523
0002b0 91 0c bf bf 7c f3 66 bd 5e ff 80 be 89 23 a3 3d
       -1.492571 -0.05638455 -0.2519483 0.07965762
0002c0 2b 31 82 3e cb 23 ac 3d 1b e4 8d bd 94 40 87 3c
       0.25428137 0.084052645 -0.06928273 0.016510285
0002d0 cc 04 a1 bf 70 65 9e 3e 46 5e a1 3c c9 34 7a bd
       -1.2579589 0.30936766 0.019698273 -0.061085496
0002e0 9c b6 7a bd 86 66 71 3c f3 86 04 3d f2 2e 01 3f
       -0.061209306 0.014733916 0.03235526 0.5046226
0002f0 b4 fe 50 3e 5e 3d f9 3b 74 3e 37 bd 26 39 48 bd
       0.20409662 0.0076061925 -0.044737294 -0.048882626
000300 3f ea a3 3c d5 c6 5e 3e 21 8b c2 bc 8c ca 2b bf
       0.020009158 0.21755536 -0.023747982 -0.67105937
000310 b7 06 60 bd c5 11 69 bd 0a 33 18 bd 3c eb 5c 3d
       -0.054693904 -0.056901712 -0.03715805 0.053935274
000320 17 c1 c2 3e 8b 44 e9 bc 9f e9 87 3e 10 30 fa bb
       0.3803794 -0.028475067 0.26545426 -0.007635124
000330 1e 7a 27 3e ee 51 7d 3e 34 eb f8 be 15 20 ad 3d
       0.16355178 0.24738285 -0.48616946 0.08453385
000340 a9 d1 56 3b f9 e7 0a 3f 40 36 83 3e bb 3b a9 3e
       0.0032778776 0.5426021 0.25627327 0.33053383
000350 ac cf 71 bc ec 85 64 3e af 8e 5c bd 33 46 81 3e
       -0.0147589855 0.22316712 -0.05384701 0.2524887
000360 61 2d 85 bd 46 e7 4f 3e 0b 7d b3 3e 91 24 58 3e
       -0.06502796 0.20303068 0.35056338 0.21107699
000370 60 b6 7d bc c0 72 56 3d 2f 91 b4 3d df f1 a0 3e
       -0.015485376 0.052355528 0.08816754 0.31434533
000380 71 3a 6a 3e e1 90 f9 bc 2c 5e cc 3c 35 47 85 3e
       0.22873856 -0.030464591 0.024947248 0.2603089
000390 70 ab 45 bd 3e 38 96 3e f7 c9 b6 3c 25 12 78 3e
       -0.0482592 0.29339784 0.022313101 0.24225672
0003a0 28 25 84 bc e8 5f 5d 3e 61 a8 59 3d ac 40 e3 3e
       -0.016130999 0.21618617 0.053139094 0.44385278
0003b0 5f fd 8f bd 83 2b 8a 3e fd 8f 34 3e 66 d4 7e bd
       -0.070307486 0.26986322 0.17633052 -0.062214278
0003c0 15 8d 93 3e ea e3 9d 3d 70 8a 9b bd f1 e4 1d bb
       0.28818575 0.07709487 -0.07594764 -0.0024092759
0003d0 01 c8 cc bc 87 0e 55 3e 03 0b 4e 3e cd 20 5d 3b
       -0.024997713 0.20806323 0.20121388 0.0033741475
0003e0 19 29 91 3e 4f c8 cf bf 75 d4 51 bd 08 0f 91 3e
       0.28351668 -1.6233004 -0.051228005 0.2833178
0003f0 4a ec 17 3c 35 1b 3a bd 78 69 31 bd d5 4a ab 3e
       0.009272644 -0.045436103 -0.043313473 0.3345553

fc.4.bias f4 [2]
000000 03 64 37 3e 59 f8 38 3d
       0.17909245 0.045158718
