dqn_lunar_lander_mul_env.pth (torch, 76065 bytes, 6 tensors)

fc.0.weight f4 [128, 8]
-0.054987986 0.002276965 0.011873405 -0.02173175 -2.9601533 0.110605516 0.13048652 -1.8186449
0.42422146 -0.46025673 -1.0756247 0.012667993 1.995016 -0.05632437 -0.34736943 0.2329413
-1.4059085 -1.7529949 -0.59577113 -0.7116684 -0.23094374 0.2690752 -0.12024515 0.14012536
-0.5322888 -0.22487214 0.072270475 -0.16576496 -1.0864452 0.72270477 0.076325424 -0.57982266
-1.296365 -0.2677562 -0.8991462 0.11619972 -0.523131 0.09258139 0.4292522 -0.63617676
0.24450803 0.21519668 0.15032314 -0.21832284 0.05987023 0.9553462 -0.028490039 0.12240888
1.1186566 -2.5436885 0.13913217 -0.45060682 -0.7662684 -0.21854068 -0.3051928 -0.17208609
0.4194279 0.4170367 -0.5717621 -0.45778215 -0.3974619 0.21544904 -0.30407283 -0.80039674
-0.03284656 0.08922878 -0.83962715 -0.49132055 -1.7722218 0.0352563 -0.9377647 0.16050848
-0.11951097 -0.31569606 0.84117013 0.20666403 -0.5785616 -0.05677214 0.5746025 -0.40277663
0.1276896 -0.11836227 -0.17770517 -0.028527742 -0.15851113 -1.5414011 -0.85617536 0.97620416
0.07240733 0.49027163 0.3549968 0.1184149 -0.09136474 1.3077862 -0.6302832 -0.8759605
0.6142647 -2.0198243 -0.37948096 -0.7145836 -0.68088984 -0.46437547 -0.40341055 -1.5520096
0.8145839 -0.12060874 0.071070865 0.68949044 0.10695288 -0.032254297 0.19167389 0.039538044
0.058212724 -0.757289 0.24599726 -0.8434725 -1.6264702 -0.65486854 0.60594845 0.15387587
-0.0978883 0.32663622 -1.1574746 0.4612897 -0.30548996 -0.4912988 0.4801809 -0.6891008
-0.5685448 -0.3275077 -0.020371504 1.5574945 -1.8306198 0.20571096 0.7331658 -0.14493749
0.30115858 -0.9615192 -0.20839559 -1.250379 -0.5417636 0.425996 -0.84027195 -0.22242558
0.08720262 0.13601023 0.74772847 -0.054847263 -2.1261415 -0.3697085 -0.6093708 -2.2352931
0.4754175 -0.06284672 -0.20474833 -0.7197057 0.8991197 -0.36855778 -1.4741942 0.053613275
0.10535706 -3.6133797 -0.3666568 -0.5299328 -0.21646065 -0.3413219 0.87461346 -0.41126132
0.4321493 -1.7392938 -0.255583 -1.2558258 0.7906072 -0.5201416 0.43405378 -0.17246555
-0.62081 -1.0325912 -0.6770342 -0.8426182 -0.62584347 -0.016373662 0.5205644 -1.4643466
-0.008956357 -0.025152177 0.54338855 -0.85084826 0.7169219 0.33330405 -0.09875466 0.28875962
0.024724288 -1.2835487 -0.34961715 -0.87320054 -0.92885834 -0.3195179 0.5401742 0.24939571
-0.10420225 -0.09072129 -0.64930534 -0.1962904 1.3979037 0.63365453 -2.5201035 -0.22257482
-0.33906353 0.02108388 0.8804306 -0.101261206 -0.2904325 0.1259549 -0.030245498 -0.496261
-0.56788427 -0.093844876 -1.495391 0.12135125 -1.0277364 -0.63988304 -0.2750223 0.82789177
-0.27203298 -2.4222543 0.31607053 -0.97563624 -1.076472 -0.012914141 -0.3105681 0.31166705
-0.48145586 0.6047295 -0.4806737 0.40564126 0.10664287 -1.7990696 -0.76818115 -0.38116476
0.40714735 0.16300419 -0.08098204 0.10969613 1.2890075 -1.31026 -0.41996273 0.615484
0.0051109167 -0.0036191153 -0.03405969 -0.007907485 -2.5545373 0.26584107 -0.2875936 1.0925487
00000000: 153b 61bd 2239 153b ac88 423c c806 b2bc
00000010: 2773 3dc0 2585 e23d 429e 053e 5bc9 e8bf
00000020: 8e33 d93e c5a6 ebbe 12ae 89bf 6a8d 4f3c
00000030: af5c ff3f 62b4 66bd 68da b1be 2a88 6e3e
00000040: cff4 b3bf 2362 e0bf 7584 18bf e62f 36bf
00000050: 847c 6cbe 3ac4 893e 1743 f6bd 067d 0f3e
00000060: 1444 08bf e244 66be 8b02 943d 4abe 29be
00000070: a310 8bbf 2e03 393f 8150 9c3d 426f 14bf
00000080: 4aef a5bf 5717 89be 722e 66bf 1efa ed3d
00000090: eaeb 05bf 509b bd3d f2c6 db3e 7bdc 22bf
000000a0: 5060 7a3e 855c 5c3e 4fee 193e 0690 5fbe
000000b0: 7c3a 753d 9291 743f f163 e9bc 82b1 fa3d
000000c0: 2430 8f3f cbcb 22c0 aa78 0e3e f0b5 e6be
000000d0: 2a2a 44bf 21c9 5fbe 3b42 9cbe 5637 30be
000000e0: 41bf d63e d685 d53e 005f 12bf 6c62 eabe
000000f0: 2080 cbbe ac9e 5c3e 6faf 9bbe cde6 4cbf
00000100: 1d8a 06bd 94bd b63d cef1 56bf 5e8e fbbe
00000110: 2ad8 e2bf e968 103d 5911 70bf 565c 243e
00000120: 2bc2 f4bd eaa2 a1be ed56 573f bc9f 533e
00000130: 9d1c 14bf e789 68bd 2619 133f bd38 cebe
00000140: 10c1 023e eb67 f2bd 58f8 35be 03b3 e9bc
00000150: be50 22be a24c c5bf 4f2e 5bbf 84e8 793f
00000160: 4b4a 943d e204 fb3e 24c2 b53e 8383 f23d
00000170: 701d bbbd 8a65 a73f 3d5a 21bf f33e 60bf
00000180: 7440 1d3f cd44 01c0 544b c2be f3ee 36bf
00000190: cc4e 2ebf 9fc2 edbe d48b cebe 40a8 c6bf
000001a0: 9288 503f b701 f7bd 9a8d 913d 7282 303f
000001b0: 1d0a db3d 151d 04bd 2946 443e a5f2 213d
000001c0: 7770 6e3d b1dd 41bf b5e6 7b3e d0ed 57bf
000001d0: 2d30 d0bf 77a5 27bf 701f 1b3f a391 1d3e
000001e0: a979 c8bd dd3c a73e 2128 94bf 2a2e ec3e
000001f0: 2e69 9cbe 848b fbbe 45da f53e e968 30bf
00000200: 278c 11bf 17af a7be 24e2 a6bc fb5b c73f
00000210: c051 eabf e5a5 523e c1b0 3b3f 7e6a 14be
00000220: 7531 9a3e 1f26 76bf a765 55be 6b0c a0bf
00000230: 05b1 0abf 261c da3e 101c 57bf 88c3 63be
00000240: 4a97 b23d 4446 0b3e 226b 3f3f 86a7 60bd
00000250: b412 08c0 6f4a bdbe baff 1bbf 0b0f 0fc0
00000260: ec69 f33e c8b5 80bd 8ca9 51be a23e 38bf
00000270: b52c 663f 9bb3 bcbe 65b2 bcbf 9899 5b3d
00000280: 71c5 d73d 9d41 67c0 71ba bbbe ada9 07bf
00000290: dca7 5dbe bec1 aebe abe6 5f3f d890 d2be
000002a0: ac42 dd3e 2ea1 debf c6db 82be e6be a0bf
000002b0: 3c65 4a3f 0028 05bf 4c3c de3e cf9a 30be
000002c0: 67ed 1ebf f32b 84bf 1d52 2dbf d4b5 57bf
000002d0: 4737 20bf 0f22 86bc b543 053f b66f bbbf
000002e0: afbd 12bc f00b cebc 831b 0b3f 31d1 59bf
000002f0: 3288 373f d4a6 aa3e e23f cabd 4dd8 933e
00000300: 978a ca3c 534b a4bf 0501 b3be 128a 5fbf
00000310: a9c9 6dbf da97 a3be db48 0a3f 9761 7f3e
00000320: fd67 d5bd 15cc b9bd e038 26bf 5a00 49be
00000330: 82ee b23f 2f37 223f 6049 21c0 a7ea 63be
00000340: bc99 adbe 1ab8 ac3c e663 613f 0962 cfbd
00000350: 92b3 94be 52fa 003e 68c5 f7bc ec15 febe
00000360: dd60 11bf be31 c0bd f968 bfbf 0187 f83d
00000370: de8c 83bf 60cf 23bf b9cf 8cbe b7f0 533f
00000380: e847 8bbe 3706 1bc0 ffd3 a13e 4cc3 79bf
00000390: d6c9 89bf d595 53bc c802 9fbe d392 9f3e
000003a0: 6281 f6be 8dcf 1a3f dd1a f6be 36b0 cf3e
000003b0: 9467 da3d ea47 e6bf 85a7 44bf 0728 c3be
000003c0: 9e75 d03e 92ea 263e e9d9 a5bd 5da8 e03d
000003d0: 33fe a43f 9ab6 a7bf 5b05 d7be 5c90 1d3f
000003e0: 7a79 a73b ae2e 6dbb 2c82 0bbd 658e 01bc
000003f0: 8a7d 23c0 521c 883e 783f 93be a3d8 8b3f

fc.0.bias f4 [128]
-0.018728597 0.12204374 -0.10557687 0.7226187 -0.12206235 -0.28070122 0.009291452 -0.3888514
-0.13081986 0.19615775 0.19791718 0.06447532 0.032972608 0.24469547 -0.17993924 -0.43061262
-0.4159736 -0.12129964 -0.3599164 -0.14716847 0.6534353 0.17614065 -0.35791185 0.11182207
0.020460425 -0.2549596 0.4992682 -0.43794194 -0.03629988 -0.42292762 -0.19169258 -0.005402356
0.62275416 -0.19628762 -0.67937976 0.36493322 -0.017878678 -0.16992083 0.23370357 0.2852026
0.24634357 0.12625556 0.078654625 0.044223804 0.057845898 0.21687047 -0.17807278 -0.34428567
-0.117363535 -0.26545748 -0.16257103 -0.26640338 0.32400617 -0.6970195 -0.21064968 0.9125103
-0.02179051 0.47880653 0.3986523 -0.2661463 0.05135638 0.072024666 0.009840544 0.18346381
0.15229855 0.19509846 0.18563993 -0.49337462 0.26730123 -0.016000312 -0.5728155 -0.42734328
0.84874606 0.1374746 0.03738781 -0.8839929 0.0963899 -0.5573343 -0.24739078 0.16575539
0.2909955 -0.29869488 0.39204723 -0.41807976 0.5762516 -0.7321527 -0.5092333 0.19127521
0.08203788 -0.57120556 -0.75024706 -0.3137768 -0.4844149 -0.28381026 0.3161834 0.18149894
-0.17143631 0.19765846 -0.11362106 -0.2189447 -0.4188091 0.3145186 0.17386702 0.20065056
-0.25161454 0.1452706 -0.6090975 0.00905421 -0.51294196 0.33824435 0.2565164 0.12432788
0.18055463 0.41194022 0.19336033 0.32958078 -0.269398 0.12245315 0.8668241 0.19899848
-0.37382776 -0.09911726 -0.120715916 -0.05554105 0.03957288 0.23938148 0.21790162 0.3267455
00000000: b76c 99bc 11f2 f93d b038 d8bd 8afd 383f
00000010: d3fb f9bd 12b8 8fbe 2d3b 183c 8817 c7be
00000020: a4f5 05be 94dd 483e cdaa 4a3e a30b 843d
00000030: 490e 073d 7391 7a3e fe41 38be 4279 dcbe
00000040: 7efa d4be f26b f8bd f646 b8be 55b3 16be
00000050: 8947 273f 375e 343e 3940 b7be f802 e53d
00000060: 9f9c a73c 118a 82be 15a0 ff3e ed39 e0be
00000070: 2faf 14bd f889 d8be 0f4b 44be 3f06 b1bb
00000080: d16c 1f3f 9fff 48be d5eb 2dbf 87d8 ba3e
00000090: 4e76 92bc baff 2dbe fd4f 6f3e 1306 923e
000000a0: 7d41 7c3e 2349 013e ad15 a13d 0524 353d
000000b0: d2ef 6c3d 4b13 5e3e b658 36be 3646 b0be
000000c0: 4b5c f0bd 0bea 87be 0579 26be 0666 88be
000000d0: 23e4 a53e df6f 32bf 8db4 57be 469a 693f
000000e0: 0382 b2bc 2126 f53e 271c cc3e 5444 88be
000000f0: 115b 523d ab81 933d 3c3a 213c f0dd 3b3e
00000100: 27f4 1b3e e4c7 473e 6518 3e3e 999b fcbe
00000110: b5db 883e 1613 83bc 09a4 12bf bdcc dabe
00000120: 6c47 593f 24c6 0c3e f623 193d 5c4d 62bf
00000130: 1168 c53d 76ad 0ebf 0254 7dbe c8bb 293e
00000140: 5dfd 943e 89ee 98be 6aba c83e 8d0e d6be
00000150: 3a85 133f 5c6e 3bbf 1d5d 02bf a6dd 433e
00000160: 7a03 a83d 873a 12bf 3110 40bf 5aa7 a0be
00000170: 3b05 f8be 944f 91be cae2 a13e dcda 393e
00000180: 008d 2fbe fb66 4a3e 29b2 e8bd 0a33 60be
00000190: 256e d6be 9508 a13e 320a 323e 5777 4d3e
000001a0: 9fd3 80be d1c1 143e d0ed 1bbf 1c58 143c
000001b0: 2a50 03bf 5d2e ad3e 1e56 833e 9e9f fe3d
000001c0: 50e3 383e d4e9 d23e 4000 463e d0be a83e
000001d0: 89ee 89be b8c8 fa3d 2fe8 5d3f 42c6 4b3e
000001e0: 5a66 bfbe fdfd cabd e839 f7bd 037f 63bd
000001f0: 2c17 223d 6b20 753e 9a21 5f3e 304b a73e

fc.2.weight f4 [128, 128]
-0.4275683 1.0478004 0.5177165 -0.1512516 0.34777147 0.38375026 -0.244376 -1.730592
-0.18586174 -0.64943457 -0.44902864 -0.33322102 -0.56043476 0.40129846 -1.2075791 -0.101032995
-0.49458635 0.411203 -0.2296108 -0.09626938 -1.1646947 -1.2813298 -0.22559577 0.5723642
-0.88954204 -0.13956414 -0.40838063 0.44957227 -0.0071829273 -0.5716728 0.21516259 0.4005177
-0.6572679 -0.18319176 1.1011045 0.13198559 0.58879495 -0.39085016 -1.1687855 -1.2602339
-0.16158338 -0.10043614 0.032681115 -1.1148605 0.44306606 -0.49363047 0.76640594 -0.0799208
-1.4013162 0.3777272 0.9385186 -0.24535285 0.02777209 -0.79195666 -0.4679712 0.2963456
0.20312713 0.6643468 -1.2943931 0.3168064 -0.9834158 0.4002611 -0.9459962 -0.49743313
0.04501946 0.40745255 -0.6344287 -0.2639615 -0.6270365 -0.5816837 -0.08140026 0.17562193
-0.7277273 -0.5751802 0.6423011 -0.24308378 0.21508266 0.062967025 -1.0772668 0.14864543
-0.37129742 -1.3122989 -1.1283698 -0.60620993 -0.1870582 0.47709242 -0.6728874 -0.9003278
0.42122522 -1.1549804 -0.4218458 -0.30016533 -1.0328666 0.91321373 -0.23190328 -0.64999634
-1.002397 -0.7103036 0.4618089 -1.0082203 -0.834879 -0.39367747 -1.1440142 -0.9891141
-0.069040895 0.79074556 0.29433823 0.2534455 -1.0690523 0.5437863 -1.0178125 -1.1917785
0.71492237 -0.8434302 -0.9173152 0.56017095 -1.0322001 -0.49969026 -0.026846435 -0.30680153
0.83503306 0.38928825 0.6802207 0.6544005 -0.3734975 -0.09408235 -1.0529546 -1.0334479
-0.08937879 -0.010165432 -0.06690726 -0.073429 -0.049196582 -0.07139924 0.034854285 -0.02197013
-0.037238408 0.049577575 0.07122294 -0.06587299 -0.04352026 -0.019657977 -0.043399096 -0.09569028
0.009076625 0.00039393298 0.08675637 0.037009943 0.056069437 0.0005386789 -0.01138775 -0.0933482
-0.06607705 0.06089971 -0.109011106 0.04354489 -0.035645664 0.025330847 -0.07919274 0.017540507
-0.0049523325 -0.06805725 -0.10215569 -0.07981321 -0.108562075 -0.05835349 -0.014620705 0.05281978
-0.11045934 -0.029486401 -0.0802791 -0.057069384 -0.08048305 0.00881853 -0.107698746 -0.07680022
0.031125693 -0.1023927 -0.035031475 -0.07492857 -0.017641494 0.019302182 -0.09203486 0.019838147
0.05481962 0.041318633 -0.070485555 -0.08390736 -0.11605117 -0.034012537 -0.037705828 0.013633525
-0.040460777 -0.04510713 -0.07296028 0.050581533 -0.0044437395 -0.0053885235 -0.06265715 0.03682882
-0.05118161 0.035672482 0.019866878 -0.0011344965 -0.0911773 -0.0016369323 -0.07337775 -0.096315116
0.07425291 -0.038222756 -0.04247652 -0.012342833 0.0096999565 0.08203334 -0.06772619 0.048003696
-0.044201504 0.0668472 0.00358094 0.07962064 -0.043707736 -0.057287987 -0.08689836 0.017427232
0.026151907 -0.042736027 -0.07144596 -0.034802478 -0.004475018 0.036972813 -0.074463785 -0.04542796
-0.0027144477 -0.0140968785 0.07172432 -0.005289882 -0.081820056 -0.03208101 0.037382398 0.01489365
0.030730654 0.024401464 -0.10213829 -0.0005481975 -0.03295914 -0.06220836 -0.05272038 0.036773566
-0.09381848 -0.02095525 0.04785724 0.06873565 -0.068407275 -0.0849894 -0.10029255 -0.082624935
00000000: 3bea dabe 531e 863f 1289 043f b3e1 1abe
00000010: 1a0f b23e ea7a c43e b43d 7abe 0a84 ddbf
00000020: 8a52 3ebe 5841 26bf 15e7 e5be f29b aabe
00000030: a778 0fbf fe76 cd3e f491 9abf 63ea cebd
00000040: 6c3a fdbe 3389 d23e 181f 6bbe e128 c5bd
00000050: b714 95bf 9d02 a4bf 9402 67be 7686 123f
00000060: 07b9 63bf e7e9 0ebe 4417 d1be 562e e63e
00000070: c35e ebbb 2659 12bf 9553 5c3e a810 cd3e
00000080: b642 28bf 9f96 3bbe fef0 8c3f 3b27 073e
00000090: 44bb 163f 831d c8be c39a 95bf 584f a1bf
000000a0: 1d76 25be 77b1 cdbd a2dc 053d c0b3 8ebf
000000b0: 8ed9 e23e 22bd fcbe 2e33 443f 84ad a3bd
000000c0: 545e b3bf 7665 c13e c142 703f c73d 7bbe
000000d0: 4b82 e33c acbd 4abf ec99 efbe 9cba 973e
000000e0: 8f00 503e a212 2a3f acae a5bf 7334 a23e
000000f0: 23c1 7bbf 06ef cc3e cf2c 72bf 8eaf febe
00000100: 5366 383d 9f9d d03e eb69 22bf f625 87be
00000110: 7785 20bf 39e9 14bf 2eb5 a6bd 3cd6 333e
00000120: 564c 3abf 023f 13bf d86d 243f f4ea 78be
00000130: a13e 5c3e dbf4 803d e1e3 89bf 8236 183e
00000140: b21a bebe 69f9 a7bf 6c6e 90bf 9330 1bbf
00000150: 2f8c 3fbe 7545 f43e 5942 2cbf e27b 66bf
00000160: d5aa d73e 66d6 93bf 2cfc d7be 45af 99be
00000170: f934 84bf 60c8 693f 0e78 6dbe 2966 26bf
00000180: 8b4e 80bf 75d6 35bf 3772 ec3e 5d0d 81bf
00000190: a1ba 55bf 1890 c9be 0f6f 92bf 9536 7dbf
000001a0: 5065 8dbd 4d6e 4a3f 80b3 963e 9cc3 813e
000001b0: b5d6 88bf 9435 0b3f ae47 82bf 338c 98bf
000001c0: 2705 373f 0beb 57bf 2bd5 6abf 5d67 0f3f
000001d0: 221f 84bf 67d7 ffbe 0eed dbbc 1715 9dbe
000001e0: bac4 553f ca50 c73e f222 2e3f cb86 273f
000001f0: 103b bfbe 3fae c0bd 37c7 86bf 0548 84bf
00000200: 3a0c b7bd e98c 26bc ac06 89bd f261 96bd
00000210: 5b82 49bd c439 92bd 5ec3 0e3d b4fa b3bc
00000220: 4d87 18bd db11 4b3d 55dd 913d 6be8 86bd
00000230: 4d42 32bd c409 a1bc 40c3 31bd 44f9 c3bd
00000240: 20b6 143c ca88 ce39 53ad b13d bd97 173d
00000250: 11a9 653d 2136 0d3a af93 3abc 572d bfbd
00000260: 6853 87bd f971 793d 3741 dfbd 205c 323d
00000270: 3001 12bd a382 cf3c ce2f a2bd 1cb1 8f3c
00000280: 2d47 a2bb 9961 8bbd 0137 d1bd 1c75 a3bd
00000290: cb55 debd 1204 6fbd ae8b 6fbc 8e59 583d
000002a0: 8238 e2bd 778d f1bc 5e69 a4bd 96c1 69bd
000002b0: 4cd4 a4bd 987b 103c 2991 dcbd 6f49 9dbd
000002c0: 4ffb fe3c 44b3 d1bd 2a7d 0fbd 2674 99bd
000002d0: e584 90bc 9c1f 9e3c c67c bcbd 9c83 a23c
000002e0: 8a8a 603d ba3d 293d bb5a 90bd 9fd7 abbd
000002f0: 3cac edbd bb50 0bbd 6d71 1abd 265f 5f3c
00000300: 33ba 25bd 41c2 38bd 336c 95bd 952e 4f3d
00000310: ca9c 91bb 3692 b0bb 6452 80bd d1d9 163d
00000320: cfa3 51bd 4f1d 123d ddbf a23c 63b3 94ba
00000330: 2abb babd 558e d6ba 1347 96bd dc40 c5bd
00000340: e911 983d 778f 1cbd dcfb 2dbd 9839 4abc
00000350: 91ec 1e3c 1901 a83d 07b4 8abd 869f 443d
00000360: a30c 35bd 2fe7 883d 34ae 6a3b 2510 a33d
00000370: e206 33bd cfa6 6abd c4f7 b1bd 8ec3 8e3c
00000380: 863c d63c f90b 2fbd 4252 92bd 0b8d 0ebd
00000390: 2ca3 92bb ce70 173d 7880 98bd ab12 3abd
000003a0: e0e4 31bb 98f6 66bc 33e4 923d bf56 adbb
000003b0: 4691 a7bd 6167 03bd 491e 193d 7f04 743c
000003c0: dabe fb3c 94e5 c73c e12d d1bd e9b4 0fba
000003d0: 2a00 07bd 31ce 7ebd 53f1 57bd e19f 163d
000003e0: e723 c0bd 58aa abbc f405 443d 47c5 8c3d
000003f0: 1d19 8cbd ec0e aebd 2e66 cdbd 4337 a9bd

fc.2.bias f4 [128]
0.25553846 -0.037046123 -0.19003814 0.19282949 -0.33923632 -0.094783455 -0.06317974 -0.25554976
-0.29624042 -0.20796709 -0.0747117 -0.22654492 0.07057453 0.4066745 -0.00815922 0.5630222
-0.033156272 0.24990773 -0.10549538 -0.120438024 -0.04134546 1.0227065 -0.106574185 0.31854978
-0.188597 0.25268278 0.45317918 -0.044907097 0.55158216 -0.32672492 0.02926132 0.096566856
-0.02425659 -0.33595234 -0.38363728 -0.15420511 0.16458483 0.11762797 -0.06632337 0.4264832
0.12022766 0.65016687 0.19064856 0.29014918 -0.18356092 -0.008869332 -0.2293264 -0.10767921
-0.40405178 -0.4154046 -0.052912362 -0.015258613 0.21165864 0.49775615 0.015595711 -0.6113396
-0.45504653 0.11342299 0.32489586 -0.06286242 -0.031148512 -0.24709569 -0.04872686 0.0147373425
0.4453093 -0.011251589 0.42824218 0.18564282 -0.50258064 0.19783159 -0.018728878 -0.056324344
-0.65110755 -0.13743123 -0.042856783 0.049734037 -0.038259268 -0.2740073 -0.109223954 0.33044347
-0.34672123 0.034401093 -0.0013932355 -0.034916535 -0.096590064 0.17017697 0.18272972 0.26813778
0.47355127 -0.097225636 0.21399489 0.26660445 0.020565467 0.0474335 -0.08797202 -0.08253632
-0.16823463 -0.07304382 0.2790767 -0.61414593 0.50045425 0.15180704 0.75850415 -0.11339755
-0.0662849 -0.1555102 -0.121282816 -0.49433196 -0.11351816 0.27664652 0.21357864 0.4001124
-0.14040023 0.0051776236 0.025737299 0.3728502 0.038780298 -0.08253933 -0.31732646 -0.16635801
-0.041028302 -0.19901961 -0.18942034 -0.05972298 0.05611667 0.5282554 -0.5001094 0.15022634
00000000: f0d5 823e adbd 17bd 5c99 42be 1875 453e
00000010: 62b0 adbe d41d c2bd 6164 81bd 6bd7 82be
00000020: d3ac 97be 53f5 54be 7302 99bd 64fb 67be
00000030: 6189 903d a437 d03e 40ae 05bc 3922 103f
00000040: dfce 07bd d0e7 7f3e f60d d8bd 36a8 f6bd
00000050: db59 29bd 0ce8 823f 9143 dabd f518 a33e
00000060: 921f 41be a35f 813e 1a07 e83e 81f0 37bd
00000070: 7d34 0d3f 7d48 a7be 70b5 ef3c d8c4 c53d
00000080: c2b5 c6bc f201 acbe 1b6c c4be f2e7 1dbe
00000090: ed88 283e efe6 f03d 8cd4 87bd 025c da3e
000000a0: eb39 f63d 5671 263f 6039 433e 6f8e 943e
000000b0: 65f7 3bbe ad50 11bc 8ad4 6abe eb86 dcbd
000000c0: e0df cebe e9af d4be a2ba 58bd 43ff 79bc
000000d0: 0bbd 583e e5d9 fe3e 2785 7f3c c180 1cbf
000000e0: dcfb e8be 504a e83d c058 a63e 03be 80bd
000000f0: 2a2b ffbc a706 7dbe d195 47bd e574 713c
00000100: 95ff e33e 9658 38bc 8f42 db3e 2719 3e3e
00000110: 20a9 00bf 5d94 4a3e 4e6d 99bc 5bb4 66bd
00000120: fcae 26bf c6ba 0cbe 988a 2fbd ebb5 4b3d
00000130: c0b5 1cbd af4a 8cbe cfb0 dfbd e32f a93e
00000140: 7285 b1be 29e8 0c3d 3a9d b6ba a404 0fbd
00000150: 03d1 c5bd df42 2e3e 801d 3b3e 5b49 893e
00000160: 5075 f23e 3c1e c7bd 7a21 5b3e 6180 883e
00000170: e978 a83c a149 423d ad2a b4bd cd08 a9bd
00000180: b345 2cbe 0098 95bd 24e3 8e3e ab38 1dbf
00000190: c51d 003f 4e73 1b3e 542d 423f fa3c e8bd
000001a0: 61c0 87bd 113e 1fbe 2063 f8bd 1419 fdbe
000001b0: 367c e8bd 9da4 8d3e 5cb4 5a3e 88db cc3e
000001c0: 14c5 0fbe 0ea9 a93b 07d7 d23c 39e6 be3e
000001d0: 17d8 1e3d 610a a9bd 9d78 a2be c159 2abe
000001e0: 4b0d 28bd cccb 4bbe 68f7 41be 15a0 74bd
000001f0: 98da 653d bf3b 073f 2b07 00bf efd4 193e

fc.4.weight f4 [4, 128]
0.35429397 -0.0037763037 -0.5960989 -0.60185874 -0.33531088 0.05547916 0.022680305 -0.22943065
0.13034658 -0.22387345 -0.5404742 0.43481642 0.5157245 -0.106283344 0.023733309 1.7155119
0.056081377 -0.43439245 0.016172104 -0.05540168 0.01212076 1.9289615 -1.2679679 -1.7157527
-0.99996275 0.9503169 0.9698651 1.1572042 -0.5820956 -0.19142815 -0.8927311 0.07793096
-0.026853858 -1.0798757 -1.0724708 -0.9253712 0.423467 -0.41513348 0.9592696 1.2171267
-0.46480617 1.0859118 -0.55422014 0.5641754 -0.62500167 -0.005314951 -1.4144 0.06579886
-1.4782233 -0.2950706 -0.023327796 0.058285587 1.0553465 0.39505005 -0.551208 -0.8075534
0.5228579 -1.2817296 0.7191218 0.0194741 -0.002820447 -0.41311276 0.027218632 -1.2298615
1.1605008 -1.1012155 1.0724752 0.3987306 -0.45636 1.7567785 -0.12302762 -0.09717894
-1.2452145 -0.04451449 0.0032666842 0.46389917 0.0057587284 -1.0803989 -0.044459376 -0.18256022
-1.3467339 -0.72047466 -1.5507703 -1.3020608 0.6195938 -1.1856937 0.59481657 0.48922333
0.5148969 -0.051952142 0.7356413 -0.9172787 0.03296415 0.14859106 0.42964542 -0.76253194
-0.6492201 -0.17937927 0.36237663 -0.5758089 0.93040043 -1.3579894 0.6365596 0.76314306
-0.046134666 -0.76233655 -0.03499111 0.46584252 -0.055926125 0.060735427 -0.45257345 0.49694413
0.0082879905 -1.0561095 -0.6266022 0.6455723 0.031094654 -0.7485518 -0.6805654 -1.6997591
-0.01597666 -0.22275805 0.1053897 -0.0010326337 -0.28022546 2.5849233 0.27204767 0.41116264
1.0719359 0.029089134 -0.9663906 -0.41121906 -0.7304951 -0.0017005658 0.063046895 -0.0998007
-0.045671728 -0.61089396 -0.48352116 0.7178369 0.6456747 -0.440735 -0.057955023 1.792818
-0.06442237 -0.21383835 -0.023167986 -0.008651891 -0.07004576 1.9853027 -0.74038714 -1.6506193
-0.70312965 1.065361 0.8127871 1.3866544 -0.8187529 -0.33906916 -1.052667 0.30080017
-0.021725677 -1.2242547 -1.1223277 -0.20449539 0.33430454 -0.3537685 0.8878908 1.2349088
-0.2951405 0.95827293 -0.48186374 0.55353993 -0.6582632 0.046680544 -0.8031519 0.1601968
-0.89932066 -0.36740303 0.09805416 -0.07430922 1.0795882 0.4264416 -0.2711061 -0.8425354
0.9612686 -1.7920545 0.67078984 0.0334116 -0.07498646 -0.26221985 -0.020858368 -0.69374037
1.1433717 -1.1061633 1.0628064 1.408758 -0.25726047 1.8041571 -0.032255366 0.017860956
-0.9914919 -0.017625244 0.0016610218 0.33094895 -0.05144183 -1.393049 0.036476914 -0.10799387
-0.6858718 -0.601684 -0.8849482 -1.1850476 0.59933656 -1.1829693 0.6440242 0.3738642
0.5795905 0.024119118 0.74670106 -0.8412755 0.04149445 0.117603466 0.65278167 -1.1429646
-0.40642598 -0.27991226 0.42163938 -1.2898782 0.9719608 -1.1291606 0.6178613 0.35431033
-0.038049474 -0.30117667 -0.0010158551 0.27809992 -0.03028378 -1.0199212 -0.29918718 0.5279028
-0.059563965 -0.97462094 -1.0008435 0.56368494 -0.0772992 -0.7958895 -0.38150373 -1.6538657
-0.033103988 -0.8064223 0.004484751 0.009393023 -0.6193916 2.3216844 -0.21332774 0.22089255
00000000: 0566 b53e dd7b 77bb f099 18bf 6a13 1abf
00000010: dead abbe 1e3e 633d 0ccc b93c deef 6abe
00000020: 9379 053e 153f 65be 845c 0abf 42a0 de3e
00000030: 8506 043f 15ab d9bd 5b6c c23c e595 db3f
00000040: 96b5 653d b068 debe 5c7b 843c dfec 62bd
00000050: 2796 463c 36e8 f63f c64c a2bf c99d dbbf
00000060: 8ffd 7fbf f847 733f 1449 783f 441f 943f
00000070: 3804 15bf be05 44be 068a 64bf 449a 9f3d
00000080: 9ffc dbbc 5e39 8abf b946 89bf 21e5 6cbf
00000090: abd0 d83e 608c d4be b192 753f cfca 9b3f
000000a0: 13fb edbe 28ff 8a3f 5fe1 0dbf cd6d 103f
000000b0: 1c00 20bf 0a29 aebb 0f0b b5bf 8dc1 863d
000000c0: 6c36 bdbf 7e13 97be ef19 bfbc debc 6e3d
000000d0: 9815 873f 0044 ca3e f81b 0dbf d2bb 4ebf
000000e0: 04da 053f b70f a4bf 5e18 383f 2688 9f3c
000000f0: 40d7 38bb 8483 d3be 9cf9 de3c 1a6c 9dbf
00000100: 4a8b 943f a1f4 8cbf de46 893f 6b26 cc3e
00000110: 05a8 e9be 1ede e03f e8f5 fbbd c105 c7bd
00000120: 3063 9fbf d354 36bd de15 563b 3184 ed3e
00000130: b7b3 bc3b 834a 8abf 091b 36bd 11f1 3abe
00000140: c761 acbf 0771 38bf a47f c6bf eea9 a6bf
00000150: b39d 1e3f d0c4 97bf e645 183f 7b7b fa3e
00000160: 49d0 033f c5cb 54bd fd52 3c3f c7d2 6abf
00000170: 6b05 073d 4128 183e 7cfa db3e 4b35 43bf
00000180: 4a33 26bf 33af 37be 6e89 b93e 3668 13bf
00000190: b92e 6e3f 99d2 adbf 92f5 223f 585d 433f
000001a0: b4f7 3cbd 7d28 43bf d752 0fbd e982 ee3e
000001b0: cb12 65bd b6c5 783d b5b7 e7be 766f fe3e
000001c0: 5aca 073c 992e 87bf 0069 20bf 3a44 253f
000001d0: 37ba fe3c 17a1 3fbf 8939 2ebf b591 d9bf
000001e0: 7ce1 82bc b01a 64be 8ed6 d73d 7059 87ba
000001f0: b679 8fbe 626f 2540 d549 8b3e e983 d23e
00000200: 3235 893f 564c ee3c 6065 77bf 4e8b d2be
00000210: ba01 3bbf 85e5 deba bb1e 813d 4f64 ccbd
00000220: 4712 3bbd 8c63 1cbf 1690 f7be 29c4 373f
00000230: f04a 253f 05a8 e1be 3f62 6dbd 0f7b e53f
00000240: e0ef 83bd 71f8 5abe caca bdbc a9c0 0dbc
00000250: 2774 8fbd 661e fe3f 038a 3dbf 7e47 d3bf
00000260: 4e00 34bf c05d 883f d112 503f e47d b13f
00000270: ca99 51bf 799a adbe cbbd 86bf 7b02 9a3e
00000280: 0cfa b1bc 61b4 9cbf 6fa8 8fbf 3d67 51be
00000290: f729 ab3e 2521 b5be d04c 633f 7e11 9e3f
000002a0: a81c 97be 6051 753f d8b6 f6be cbb4 0d3f
000002b0: f083 28bf 1934 3f3d 5d9b 4dbf a10a 243e
000002c0: e139 66bf 401c bcbe 9fd0 c83d 6f2f 98bd
000002d0: f22f 8a3f 8e56 da3e 6bce 8abe 66b0 57bf
000002e0: b315 763f 0b62 e5bf e2b8 2b3f 9ada 083d
000002f0: 8092 99bd ae41 86be 2bdf aabc f898 31bf
00000300: 015a 923f c296 8dbf 0a0a 883f 2f52 b43f
00000310: a5b7 83be 9fee e63f 341e 04bd 2451 923c
00000320: 6ad2 7dbf d162 90bc a5b6 d93a 2472 a93e
00000330: abb4 52bd 6e4f b2bf d168 153d e42b ddbd
00000340: 4b95 2fbf f607 1abf f78b 62bf a4af 97bf
00000350: 1f6e 193f 8a6b 97bf c5de 243f 216b bf3e
00000360: 0b60 143f 7595 c53c cd27 3f3f d55d 57bf
00000370: 16f6 293d 16da f03d b31c 273f aa4c 92bf
00000380: 1117 d0be a950 8fbe 1ee1 d73e bb1a a5bf
00000390: 6cd2 783f 5688 90bf 282c 1e3f 2a68 b53e
000003a0: c4d9 1bbd d433 9abe 7126 85ba 1d63 8e3e
000003b0: b115 f8bc c78c 82bf 102f 99be a324 073f
000003c0: 58f9 73bd c280 79bf a41b 80bf a84d 103f
000003d0: 0b4f 9ebd 6abf 4bbf 7554 c3be dfb1 d3bf
000003e0: 0c98 07bd b171 4ebf d1f4 923b 32e5 193c
000003f0: 7390 1ebf 7a96 1440 9672 5abe a831 623e

fc.4.bias f4 [4]
0.34343877 0.36467534 0.57534015 0.05681874
00000000: 35d7 af3e bab6 ba3e 7e49 133f c4ba 683d
