FrozenLake.pth (torch, 79462 bytes, 6 tensors)

fc.0.weight f4 [128, 16]
0	0x3d90a5b0	0.070628524
1	0xbdf953b0	-0.12174165
2	0x3e3ef116	0.18646654
3	0xbe0b8cca	-0.13627926
4	0x3d214b02	0.039378174
5	0xbe24fb38	-0.16111457
6	0xbe1d3192	-0.15350941
7	0x3e4bfbd6	0.19920287
8	0x3cd59116	0.026070159
9	0x3db7248b	0.08942517
10	0x3dc6ea28	0.097126305
11	0xbe6b72c2	-0.22992995
12	0xbe18d8e2	-0.14926484
13	0xbe5e9474	-0.21736318
14	0x3e54e7c0	0.2079153
15	0x3e5d4ba2	0.21610883
16	0xbdfa2732	-0.12214507
17	0xbe452d82	-0.19255641
18	0x3e26bd9d	0.16283269
19	0x3dcb2edd	0.09921048
20	0xbe0322b5	-0.12806208
21	0x3c619fc0	0.0137709975
22	0x3df7a6b3	0.12092342
23	0x3e16c3c2	0.14723113
24	0x3dd78f3a	0.10525365
25	0x3d020b0d	0.03174882
26	0x3d402fa2	0.046920426
27	0x3e1a494a	0.1506702
28	0x3e114eb2	0.14190176
29	0xbe6c5a30	-0.23081279
30	0x3e32e2de	0.17469355
31	0xbe771be6	-0.24131736
32	0xbe6915ba	-0.22762194
33	0xbe1815aa	-0.14852014
34	0xbe4244fa	-0.18971625
35	0xbe4cc7b8	-0.19998062
36	0x3e6140d6	0.21997389
37	0xbdc7ca5c	-0.09755394
38	0xbe1def93	-0.15423422
39	0xbde5ee1c	-0.112270564
40	0x3e3cf6cc	0.1845352
41	0xbe72c25e	-0.23706958
42	0x3e489fc2	0.19592193
43	0xbdc2de80	-0.09515095
44	0x3e791642	0.24324897
45	0x3e64774f	0.22311138
46	0x3d52b244	0.05143954
47	0x3e05e662	0.13076165
48	0xbd1624c8	-0.03665617
49	0x3e5fdd1d	0.21861692
50	0xbd673df8	-0.056455582
51	0x3e83847a	0.2568701
52	0xbcbfa840	-0.023395658
53	0x3cf29ae0	0.029614866
54	0xbe3553aa	-0.17707697
55	0x3e599208	0.21247113
56	0xbc7502a0	-0.014954239
57	0x3dd12718	0.10212535
58	0x3d73e88a	0.05954794
59	0x3c815f90	0.015792638
60	0x3e481bd0	0.1954186
61	0xbe2ad1b6	-0.16681561
62	0xbd855754	-0.06510797
63	0xbe427ed0	-0.18993688
64	0x3c9ea680	0.019366503
65	0xbda30c90	-0.079613805
66	0x3e34006b	0.17578284
67	0x3e125d60	0.14293432
68	0x3c53c980	0.012926459
69	0x3e035548	0.12825501
70	0x3b8df540	0.0043322146
71	0x3e789118	0.24274099
72	0x3e168aa9	0.14701332
73	0xbe3b0ddc	-0.18267006
74	0xbdabed50	-0.08394873
75	0xbe75493a	-0.23953715
76	0x3d3948d8	0.045235485
77	0x3e06833a	0.13135996
78	0xbd6fbcd8	-0.058529705
79	0x3db074d4	0.08616033
80	0xbc05c6a0	-0.008165032
81	0xbe012cce	-0.12614748
82	0xbe56cc38	-0.20976341
83	0xbe03a5b6	-0.12856182
84	0xbe43223c	-0.19056028
85	0x3d768f60	0.060195327
86	0x3e3bde3e	0.18346497
87	0x3bbd3c80	0.0057750344
88	0x3e43894d	0.19095345
89	0xbe7656bc	-0.24056524
90	0x3d70ce83	0.058790695
91	0xbe2f1456	-0.17097601
92	0xbe6fca44	-0.23417002
93	0x3dee7e35	0.11645166
94	0x3dd0f0cc	0.10202178
95	0x3d3d3db0	0.046201408
96	0x3e2c4060	0.16821432
97	0xbdf94aac	-0.12172446
98	0x3dd62d98	0.10457915
99	0x3e4c567f	0.1995487
100	0x3e7b6f0c	0.2455408
101	0xbe5c9838	-0.21542442
102	0x3ddd1242	0.10794498
103	0xbc35d880	-0.011098981
104	0xbd239176	-0.039933644
105	0x3db79370	0.08963668
106	0xbd173075	-0.036911447
107	0x3e312a5a	0.17301312
108	0xbe5c2d9c	-0.21501774
109	0xbe332737	-0.17495428
110	0x3e80dcc7	0.2516844
111	0x3d9cf1c8	0.076633036
112	0x3c812a3f	0.015767215
113	0x3dae7fac	0.08520445
114	0xbe64b074	-0.22332937
115	0x3e47ef5d	0.19524904
116	0x3e06c91e	0.13162658
117	0x3e6c2e3e	0.23064515
118	0xbe5ac2b4	-0.21363336
119	0xbe664bd0	-0.22489858
120	0x3e0d80f5	0.13818724
121	0x3e9fb669	0.31193855
122	0x3e861f18	0.26195598
123	0xbe206804	-0.15664679
124	0xbb952ec0	-0.004552692
125	0x3d3814d2	0.04494173
126	0x3e30901b	0.17242472
127	0xbe785646	-0.2425166
128	0x3e23190a	0.1592752
129	0x3e72007e	0.23633
130	0xbd61b415	-0.05510338
131	0x3e3bd893	0.18344335
132	0x3c810efd	0.015754217
133	0x3e408948	0.18802369
134	0x3e7aae6d	0.244806
135	0xbde4aa44	-0.11165288
136	0x3e966d21	0.29380134
137	0xbd835463	-0.0641258
138	0xbd6f1d4b	-0.058377545
139	0x3e425e5c	0.18981308
140	0x3e488df2	0.19585398
141	0x3e4c954d	0.19978829
142	0xbd701bfd	-0.05862044
143	0x3e0a8f3c	0.13531202
144	0xbe010166	-0.1259819
145	0x3c8d6775	0.017261246
146	0xbe06a00e	-0.13146994
147	0xbd20f958	-0.039300293
148	0x3e0c97b8	0.13729751
149	0x3e68a3e0	0.22718763
150	0x3c71af47	0.014751262
151	0xbe4e81e4	-0.20166737
152	0x3e8a0448	0.2695639
153	0x3be0bd3f	0.0068584974
154	0xbe1521ce	-0.14563677
155	0xbe6ec036	-0.2331551
156	0x3e5c2440	0.21498203
157	0xbdd30809	-0.10304267
158	0xbe7bbb62	-0.245832
159	0x3de00c90	0.10939896
160	0x3e50538a	0.20344368
161	0x3e13eefd	0.14446636
162	0x3db7a17e	0.08966349
163	0x3c9f3e02	0.019438747
164	0x3e95c1b8	0.29249358
165	0xbcd747d0	-0.02627936
166	0x3d9e748c	0.07737073
167	0xbd572f10	-0.052535117
168	0x3e33c8e3	0.17557101
169	0xbe64247a	-0.2227954
170	0x3c005d36	0.007834723
171	0xbe29596e	-0.16538021
172	0xbdaa86d0	-0.08326495
173	0xbd773d0d	-0.060360957
174	0xbe59dc1a	-0.21275368
175	0x3d54da38	0.051965922
176	0xbe590cfc	-0.2119636
177	0x3cb70576	0.022341471
178	0x3d71c773	0.0590281
179	0x3d23c874	0.03998609
180	0x3d53ee65	0.051741023
181	0xbd86886c	-0.06568989
182	0xbe8062b1	-0.25075296
183	0xbe35b662	-0.17745355
184	0xbc1af322	-0.009457381
185	0x3d9cfe0b	0.07665642
186	0xbe7faf22	-0.24969152
187	0x3e4c457c	0.19948381
188	0xbd948ab0	-0.07253015
189	0xbe03fb7d	-0.12888904
190	0x3e0cd4a6	0.13752994
191	0xbe64e988	-0.2235471
192	0xbd1c0ac4	-0.038096204
193	0x3e3378c2	0.17526534
194	0xbc8c1e4a	-0.017104287
195	0x3d9b2596	0.07575528
196	0x3e5bfb72	0.21482638
197	0xbe74a8a4	-0.23892456
198	0x3d1f18ac	0.03884189
199	0xbd516df0	-0.051130235
200	0xbe02f59f	-0.1278901
201	0xbe812dac	-0.25230157
202	0xbdf66598	-0.12031096
203	0xbd0ec548	-0.03485611
204	0xbcabcf30	-0.020972818
205	0x3dd948f0	0.10609615
206	0x3e7d0286	0.24707994
207	0x3e72c9aa	0.23709741
208	0x3e1e115a	0.15436307
209	0x3e6afda8	0.22948325
210	0xbd0234a8	-0.0317885
211	0x3de0244f	0.10944425
212	0xbe082314	-0.13294631
213	0x3e6387d6	0.22219786
214	0xbdc4784c	-0.09593257
215	0xbdc24168	-0.094851315
216	0xbd0a9fb8	-0.033843726
217	0x3dadf15d	0.08493302
218	0x3dbd49c0	0.09242582
219	0xbd5aadf8	-0.053388566
220	0xbe781470	-0.24226546
221	0x3e13175a	0.14364377
222	0x3d93468a	0.07191189
223	0x3dd478d0	0.10374606
224	0xbcbe1567	-0.023203565
225	0xbe3e5524	-0.18587166
226	0x3d0cc37a	0.03436611
227	0x3c0a059a	0.008424187
228	0xbddf53d0	-0.10904658
229	0xbda9592c	-0.08268961
230	0x3e612806	0.21987924
231	0xbd1535d0	-0.036428273
232	0xbd1941e5	-0.037416358
233	0x3e14e341	0.14539815
234	0x3e3cb0ac	0.1842677
235	0xbe23107a	-0.15924254
236	0xbe3fdace	-0.18735811
237	0xbd0155b5	-0.031575877
238	0x3b2ad977	0.002606956
239	0xbe0432aa	-0.12909952
240	0x3e37d11a	0.1795086
241	0xbd14a648	-0.03629139
242	0x3e7711a8	0.24127829
243	0xbe78c98c	-0.24295634
244	0xbde56664	-0.1120117
245	0x3e1c510e	0.15265295
246	0xbe76dabe	-0.24106881
247	0xbe6a5094	-0.228823
248	0xbe148c86	-0.1450673
249	0xbe2461f0	-0.16052985
250	0x3e1aab91	0.1510451
251	0xbd011400	-0.031513214
252	0x3abd5e00	0.001444757
253	0xb9bf5f74	-0.00036501477
254	0xbd77e428	-0.06052032
255	0xbd1fc730	-0.03900832

fc.0.bias f4 [128]
0	0x3e505b3c	0.20347303
1	0x3e69c21c	0.22827953
2	0x3e282dfe	0.16423795
3	0x3b31604a	0.002706545
4	0xbe2e74f5	-0.17036803
5	0xbca02a02	-0.01955128
6	0x3e31c04d	0.17358513
7	0x3e4f46b9	0.20241822
8	0x3d80d403	0.06290438
9	0x3dfee891	0.12446702
10	0x3e45e595	0.1932586
11	0x3e7e2c37	0.24821554
12	0x3e8056ca	0.25066215
13	0x3c1d9761	0.009618611
14	0x3dd6b5b4	0.10483876
15	0x3c7e1b35	0.015509416
16	0x3e010a55	0.12601598
17	0xbbfb85bf	-0.007675856
18	0xbdb7c7d0	-0.08973658
19	0xbe319ed7	-0.17345749
20	0x3cb741d0	0.022370249
21	0x3b9d950a	0.0048090266
22	0x3d5241d0	0.051332295
23	0xbe62bf30	-0.22143245
24	0x3e0908b5	0.13382228
25	0x3d7ea819	0.06217203
26	0x3e7b2dc0	0.24529171
27	0xbd4b71a0	-0.049668908
28	0x3de2ceb3	0.11074581
29	0x3cdba03c	0.026809804
30	0xbd8180a7	-0.063233666
31	0x3cbd6fea	0.023124654
32	0x3e8c5cba	0.27414495
33	0x3e8fdc60	0.2809782
34	0xbda07f03	-0.078367256
35	0xbd56ba3a	-0.052423693
36	0x3e654590	0.22389817
37	0xbd8b887a	-0.0681314
38	0xbe3097c7	-0.17245398
39	0xbe12a2e2	-0.14319947
40	0xbe6d592d	-0.23178549
41	0x3e1494eb	0.14509933
42	0xbd2775b4	-0.040883735
43	0x3a681974	0.00088538905
44	0xbe248b3f	-0.16068743
45	0x3e335bb5	0.17515452
46	0x3d763f26	0.060118817
47	0xbd3ce66d	-0.04611819
48	0x3c9041ea	0.017609555
49	0x3df3c44c	0.11902675
50	0xbc7df9e4	-0.015501473
51	0x3dbfd7dd	0.093673445
52	0xbdf94c0c	-0.12172708
53	0x3e8a8836	0.27057046
54	0xbdcce964	-0.10005453
55	0x3e8d05cc	0.27543485
56	0xbe804819	-0.25055006
57	0xbd30cae5	-0.043162245
58	0x3e43d8e6	0.19125709
59	0xbe2b849b	-0.16749804
60	0x3e80fb1d	0.25191584
61	0x3e92a2b8	0.2863977
62	0x3df98b69	0.121847935
63	0x3e1e0e3b	0.15435116
64	0x3e4a21c6	0.19739446
65	0xbdba82d9	-0.091069885
66	0x3e03049c	0.12794727
67	0x3e314ddf	0.17314862
68	0x3e5f50f1	0.2180822
69	0x3d3b5c38	0.045742244
70	0x3e5d2326	0.2159544
71	0x3bf9acfa	0.0076194974
72	0x3c556659	0.01302489
73	0x3cf45a0b	0.029828092
74	0xbe7b4344	-0.24537379
75	0xbd68ba84	-0.0568185
76	0xbded9f05	-0.11602596
77	0x3d6926f9	0.056921933
78	0x3ca6f7c0	0.020381808
79	0x3e60c993	0.21951894
80	0x3cfebba1	0.031095328
81	0x3d85ae17	0.06527346
82	0xbe7ec8a2	-0.24881223
83	0xbde0787e	-0.10960482
84	0x3d9ec4ed	0.07752404
85	0x3e8ca84a	0.27472144
86	0xbbf1f74a	-0.0073842155
87	0x3e38208a	0.17981163
88	0x3db51b23	0.088430665
89	0x3e80443f	0.25052068
90	0x3df2f9bc	0.11864039
91	0xbd7a93e9	-0.061176214
92	0x3e8b66e8	0.2722695
93	0x3e6c9671	0.23104264
94	0xbda7d084	-0.08194068
95	0xbe634841	-0.22195531
96	0xbdf2738e	-0.118384466
97	0x3d2bd75c	0.04195343
98	0x3ce5fb2a	0.028073866
99	0x3e2e4167	0.17017137
100	0x3daa781e	0.08323692
101	0x3db1bab7	0.08678191
102	0xbe176c61	-0.14787437
103	0x3d27a8db	0.040932517
104	0xbe780d98	-0.24223936
105	0xbe09694b	-0.13419072
106	0xbd8de592	-0.06928553
107	0x3e2ed98f	0.1707518
108	0x3deae15d	0.11468766
109	0x3e5d9903	0.216404
110	0xbdc33f56	-0.09533565
111	0xbe6bb34e	-0.23017618
112	0xbdfc1169	-0.12308008
113	0xbe78e77e	-0.24307057
114	0x3e287e5e	0.16454455
115	0x3df6695c	0.120318145
116	0xbce4c15c	-0.027924232
117	0x3e67ed30	0.22649074
118	0x3e68d198	0.22736204
119	0x3e1379ef	0.14401983
120	0x39b44749	0.00034385387
121	0xbb3636b9	-0.0027803613
122	0x3e44324b	0.1915981
123	0x3e8e3036	0.27771157
124	0x3cbe8436	0.023256402
125	0xbe25d176	-0.16193184
126	0x3baf14d3	0.0053430586
127	0xbd4db760	-0.05022371

fc.2.weight f4 [128, 128]
0	0x3d7e2a1c	0.062051877
1	0x3d10249d	0.035191167
2	0x3d68700b	0.056747478
3	0xbd86e88c	-0.065873235
4	0xbcc06c32	-0.023489092
5	0x3d59a0c2	0.053131826
6	0x3dccfc22	0.10009028
7	0x3ca7f035	0.020500282
8	0x3ca1ea4d	0.019765044
9	0xbd13ff94	-0.03613241
10	0x3dbb85b8	0.09156364
11	0xbb764ceb	-0.0037582468
12	0xbd85e1a0	-0.06537175
13	0xbd9cb50a	-0.07651718
14	0x3d6f1cff	0.058377262
15	0x3dc36200	0.095401764
16	0x3d3acff1	0.045608465
17	0x3deb5987	0.11491685
18	0x3de4ad93	0.11165919
19	0x3b4745db	0.0030406627
20	0xbdcb355a	-0.099222854
21	0x3d94acd0	0.07259524
22	0x3dfdce42	0.12392856
23	0xbda1eb47	-0.07906204
24	0x3df89e7c	0.121396035
25	0x3d86de50	0.065853715
26	0x3d686ab4	0.056742385
27	0xbd02ae11	-0.031904284
28	0x3dd0656e	0.10175596
29	0xbc4ec5d3	-0.012620407
30	0x3d000deb	0.031263273
31	0x3df9afd6	0.12191741
32	0x3d7d69b9	0.061868403
33	0xbc4a79b4	-0.012358118
34	0x3cce5f25	0.025191853
35	0x3d5ae119	0.053437326
36	0xbdb30e3d	-0.0874295
37	0xbd10ff0a	-0.035399474
38	0xbd3ad433	-0.045612525
39	0x3d503844	0.05083491
40	0x3ba46c18	0.0050177686
41	0x3dba1e27	0.09087782
42	0xbd4ca344	-0.04996039
43	0xbd59144b	-0.05299787
44	0xbd83557d	-0.0641279
45	0x3dd66094	0.104676396
46	0xbc2119ab	-0.00983278
47	0xbdb4c266	-0.08826141
48	0xbd31843a	-0.04333899
49	0x3dbc1a64	0.09184721
50	0x3cd6630e	0.02617028
51	0xbdf06a24	-0.11738995
52	0xbd80c8d2	-0.062883034
53	0xbd394465	-0.04523124
54	0x3ca1000d	0.019653345
55	0x3d434f87	0.047683265
56	0xbd0637dd	-0.03276812
57	0xbcd4e9bc	-0.02599036
58	0xbc925c37	-0.017866237
59	0x3d9cea78	0.07661909
60	0x3ca7c4fb	0.02047967
61	0x3c843a75	0.016141156
62	0x3d816933	0.06318893
63	0x3d1c119c	0.03810273
64	0x3d019e58	0.03164515
65	0xbc38f167	-0.011288024
66	0xbd9d9773	-0.07694902
67	0x3c9ca280	0.019120455
68	0xbd1b2f6e	-0.03788703
69	0x3d9d6999	0.07686157
70	0xbd887aea	-0.06664069
71	0x3cd901d5	0.026490131
72	0xbd0ef373	-0.03490014
73	0x3d9c9ddd	0.076472975
74	0x3ba134d0	0.004919626
75	0x3cd89b46	0.026441228
76	0x3ca6f8fb	0.020382395
77	0x3d824ef7	0.063627176
78	0xbd567cbd	-0.052365053
79	0x3dc0202b	0.093811356
80	0xbd5d820b	-0.054079097
81	0x3d963c46	0.07335715
82	0xbd13e868	-0.03611031
83	0xbd0ecddc	-0.03486429
84	0x3c392f89	0.011302837
85	0x3e036eb4	0.12835199
86	0xbc268e9f	-0.010165839
87	0x3dcc7ef7	0.09985154
88	0xbb339e04	-0.0027407417
89	0x3cc56861	0.024097623
90	0x3d984c35	0.0743641
91	0x3d0d305f	0.03446996
92	0xbd9f4cbe	-0.07778309
93	0xbd8d96c0	-0.06913519
94	0x3d84dc2f	0.06487309
95	0x3d20675e	0.03916108
96	0x3cc61371	0.024179192
97	0x3bf39ab9	0.007434216
98	0xbdb0fd24	-0.08642033
99	0x3bae511a	0.0053197267
100	0xbcaa5d44	-0.020796426
101	0x3dc4c799	0.09608383
102	0xbdcb705b	-0.099335395
103	0xbd021675	-0.031759698
104	0x3d34e982	0.044168003
105	0xbdf60edc	-0.12014553
106	0x3c13fc43	0.009032312
107	0xbb756369	-0.0037443286
108	0x3cfaa5ea	0.030596692
109	0xbc8fc882	-0.017551664
110	0xbd45b93b	-0.048272353
111	0xbd8598ef	-0.065233104
112	0xbd058ab0	-0.032602966
113	0x3d87df05	0.066343345
114	0xbc8eec7e	-0.017446753
115	0x3c371348	0.011174031
116	0xbd082363	-0.033236872
117	0xbbedbbda	-0.0072550597
118	0xbd24a5fc	-0.040197358
119	0xbc7a99bf	-0.015295445
120	0x3d4d2308	0.050082237
121	0x3c6cf124	0.014461789
122	0x3be5bd8e	0.007011122
123	0x3ba9d8ec	0.00518333
124	0x3ccb0891	0.024784358
125	0xbd713b8c	-0.05889468
126	0xbd51149a	-0.051045038
127	0x3d47d7f6	0.04878994
128	0x3d138031	0.036010925
129	0xbcf2c0e0	-0.029632986
130	0x3cb787a9	0.022403555
131	0xbd9ddc01	-0.07707978
132	0x3d5ebfaa	0.054382004
133	0xbaa20459	-0.0012360915
134	0xbc69b01c	-0.014263179
135	0x3d1fb1c4	0.03898789
136	0x3d4d6e60	0.05015409
137	0xbd4b55ee	-0.049642496
138	0xbc86f718	-0.016475245
139	0xbcc9c644	-0.024630673
140	0xbcf529cd	-0.029927159
141	0xbdaff3da	-0.08591433
142	0x3c02417a	0.007950181
143	0x3d18a2ac	0.03726451
144	0x3c223102	0.00989938
145	0xbc3adce7	-0.011405206
146	0xbd453be5	-0.048152823
147	0xbd7b764b	-0.06139211
148	0xba17732d	-0.00057773554
149	0x3d033fcc	0.032043263
150	0x3d5e31d7	0.05424675
151	0xbd70b2ff	-0.058764454
152	0x3d992339	0.07477421
153	0x3aada03f	0.001324661
154	0x3c997556	0.018732708
155	0xbc9aef45	-0.01891292
156	0x3ceb6602	0.028735165
157	0xbd1d1803	-0.038352977
158	0x3d5c82f6	0.05383583
159	0xbda6375f	-0.0811603
160	0xbda2f6ed	-0.079572536
161	0x3c829e65	0.015944669
162	0xbc20e8a3	-0.00982109
163	0xbd4cf42c	-0.050037548
164	0x3ba2280a	0.0049486207
165	0x3d9f73cb	0.07785758
166	0x3d20e752	0.039283104
167	0xbcdf64d8	-0.027269766
168	0xbb97272d	-0.0046128244
169	0xbdcec98c	-0.10097036
170	0x3d4fe0b6	0.05075141
171	0x3d836d62	0.064173475
172	0x3d253986	0.04033806
173	0x3cc93ae6	0.024564218
174	0x3d1ff6a2	0.039053567
175	0x3d8a4dc0	0.06753111
176	0xbd6b06c0	-0.057379484
177	0xbd42dbf5	-0.04757305
178	0x3cac3b5e	0.021024402
179	0xbd0bbac9	-0.03411368
180	0x3df6629b	0.12030526
181	0x3d54ed56	0.051984154
182	0x3cd28448	0.025697842
183	0xbcf14518	-0.029451892
184	0x3aa15fbb	0.0012311855
185	0xbd011571	-0.03151459
186	0xbcc85027	-0.024452282
187	0x3dc92320	0.09821153
188	0x3c8b1918	0.01697974
189	0xbdb4c5c2	-0.08826782
190	0xbd0e28ca	-0.03470687
191	0xbd2596a3	-0.04042686
192	0x3d1dccb4	0.0385253
193	0x3bef3528	0.007300038
194	0xbc45d186	-0.01207388
195	0x3b52fd1f	0.003219433
196	0xbcb8b1cd	-0.02254572
197	0xbd569281	-0.05238581
198	0xbcb9e94c	-0.022694252
199	0x3d9d92e0	0.0769403
200	0xbcd6accb	-0.026205441
201	0x3d78cb0c	0.060740516
202	0x3d7630de	0.060105197
203	0x3d7001d6	0.0585955
204	0xbd867d77	-0.06566899
205	0xbd56f6bd	-0.0524814
206	0xbd72a4ed	-0.059239317
207	0x3d62e71a	0.055396177
208	0x3cb38ce9	0.021917777
209	0xbd0497cd	-0.03237133
210	0xbd94d777	-0.07267659
211	0x3cd62f6a	0.026145656
212	0x3cbeca01	0.023289682
213	0xbcba15c3	-0.022715455
214	0xba98a67a	-0.0011646294
215	0x3da4e4f9	0.080514856
216	0x3bdfedad	0.006833753
217	0xbd149da5	-0.036283154
218	0x3cca2de5	0.024680087
219	0xbd76dcad	-0.060269047
220	0xbcd9a20a	-0.026566524
221	0xbd9e54c8	-0.077310145
222	0x3d7b9cb1	0.06142873
223	0xbd196def	-0.037458356
224	0xbbe184a7	-0.0068822685
225	0xbcb24478	-0.021761164
226	0x3c9013d7	0.017587585
227	0x3d95019e	0.07275699
228	0x3d6eae7b	0.058271866
229	0xbd8eadf1	-0.069667704
230	0xbd16d56e	-0.036824636
231	0x3cecc601	0.02890301
232	0x3c073e78	0.00825464
233	0x3ddb8c42	0.107201114
234	0x3d194251	0.03741676
235	0xbca7163d	-0.020396346
236	0x3d9409cf	0.07228433
237	0xbdd423e9	-0.10358412
238	0x3d1314d2	0.035908528
239	0x3cefc8d8	0.029270574
240	0x3df53876	0.1197366
241	0x3cdab0a0	0.02669555
242	0x3cc0d90c	0.023540996
243	0x3d5d649d	0.05405103
244	0xbd96eeb8	-0.07369751
245	0x3a351e40	0.00069091097
246	0xbd74601b	-0.059661966
247	0xbd72073f	-0.05908894
248	0xbd070d2e	-0.032971554
249	0xb9e13fa2	-0.00042962754
250	0xbc64d0d7	-0.013965807
251	0xbc016b45	-0.00789911
252	0x3da768ea	0.08174308
253	0xbc6b9640	-0.014379084
254	0x3d5fbd10	0.054623663
255	0x3ba22915	0.004948745

fc.2.bias f4 [128]
0	0x3bc7215d	0.0060769753
1	0x3cc809fd	0.024418825
2	0xbd9315b0	-0.07181871
3	0x3d996f2f	0.0749191
4	0xbc0f1668	-0.008733369
5	0x3c69e0da	0.0142748
6	0xbd0362b8	-0.032076567
7	0xbd2fbcc3	-0.042904627
8	0x3ca2f6f2	0.019893143
9	0xbcd60b7f	-0.026128529
10	0xbd86230e	-0.06549655
11	0x3dbe3716	0.092878506
12	0xbd8ffe7e	-0.070309624
13	0xbb4cb67b	-0.0031236697
14	0x3d27f3f6	0.041004144
15	0xbcf8cb51	-0.030370386
16	0xbd70ef3e	-0.05882191
17	0x3d0a8ce8	0.033825785
18	0xbd3c6676	-0.045996152
19	0xbc87e70c	-0.016589664
20	0x3ddd5cdf	0.108087294
21	0x3de0bee5	0.1097391
22	0xbd3ee8a6	-0.04660859
23	0x3b5f4b36	0.0034071929
24	0x3d7165bb	0.05893491
25	0x3c1a2f18	0.009410642
26	0xbd549fd6	-0.051910244
27	0xbd1aca52	-0.037790604
28	0x3d897cfd	0.06713293
29	0x3dc94436	0.09827463
30	0xbdb69094	-0.08914295
31	0x3d740b25	0.05958094
32	0xbd6d2adc	-0.057902202
33	0xbdac2783	-0.08405974
34	0x3cbafff8	0.022827134
35	0x3c985b74	0.018598296
36	0xbd4058fe	-0.04695987
37	0x3dd5a20c	0.104312986
38	0xbcc2f66d	-0.023799146
39	0x3d48fda2	0.049070008
40	0x39dfd6e4	0.0004269398
41	0xbcf40e3c	-0.029791944
42	0xbd4515ed	-0.048116613
43	0x3c15c66f	0.009141549
44	0x3d069293	0.032854628
45	0x3db3395c	0.08751175
46	0xbc42a3de	-0.011879889
47	0xbaffa8ba	-0.001950524
48	0xbd23d04c	-0.03999357
49	0xbc97951a	-0.018503714
50	0x3cb10f36	0.021613698
51	0xbce2197d	-0.027600044
52	0x3cdfadcb	0.02730455
53	0x3d926290	0.071477056
54	0xbda5939d	-0.080847956
55	0xbcb9ac8b	-0.022665283
56	0x3cdcba2a	0.026944239
57	0x3ced68b4	0.02898059
58	0x3d20198b	0.03908686
59	0x3c99059f	0.018679438
60	0x3d0dffaf	0.034667667
61	0xbd348129	-0.04406849
62	0xbcfba9a5	-0.030720541
63	0xbda71742	-0.08158733
64	0xbda88b69	-0.082297154
65	0xbccbd5ad	-0.024882162
66	0xbd6b794c	-0.057488725
67	0x3c9b4cd9	0.018957542
68	0xbd360d7d	-0.044446457
69	0xbc6b0330	-0.014344022
70	0xbd831b50	-0.06401694
71	0xbbaa35db	-0.0051944084
72	0xbd14f607	-0.036367442
73	0xbcc5b3dd	-0.024133617
74	0x3d8ad2e8	0.067785084
75	0xbd056597	-0.032567587
76	0xbd8f6d14	-0.07003227
77	0xbda3599c	-0.07976076
78	0x3d73a08c	0.05947928
79	0x3dbb2cee	0.09139429
80	0xbc906691	-0.017627032
81	0x3a983804	0.0011613374
82	0xbd84aaad	-0.06477866
83	0x3d64f706	0.055899642
84	0x3d4bdadc	0.049769267
85	0x3da16a1a	0.078815654
86	0xbd2361a6	-0.039888047
87	0xbd9ec329	-0.077520676
88	0x39ab780e	0.0003270511
89	0x3dcf6fb1	0.10128725
90	0x3db989ba	0.090594724
91	0x3da50cad	0.08059058
92	0x3b72b6f1	0.003703531
93	0x3c058ac5	0.008150761
94	0x3b16f459	0.0023033826
95	0x3cb7d16f	0.022438733
96	0x3d7c04de	0.06152808
97	0xbd9f3f8f	-0.07775795
98	0x3d6525a1	0.05594409
99	0x3dabd30f	0.083898656
100	0xbd604c09	-0.054760013
101	0x3d76af00	0.060225487
102	0xbc63b5ef	-0.013898357
103	0x3da7a978	0.081866205
104	0x3bc99872	0.006152206
105	0xbd7b1d7f	-0.061307427
106	0x3c8be5e9	0.017077403
107	0x3d23792e	0.039910488
108	0x3da5bb7f	0.08092403
109	0xbd76006c	-0.060058996
110	0xbd13562d	-0.035970856
111	0xbd2afa62	-0.04174269
112	0x3d9bea19	0.0761301
113	0x3cc39f5c	0.0238797
114	0x3da8ef54	0.08248773
115	0xbc157d68	-0.009124137
116	0xbd0c34dc	-0.034230098
117	0xbdacd405	-0.08438877
118	0x3cf98551	0.030459078
119	0xbc252fa4	-0.010082159
120	0x3d33bff6	0.04388424
121	0x3d3436c8	0.043997556
122	0x3c734f2c	0.014850419
123	0xbba18bba	-0.004929987
124	0x3dcb6a55	0.099323906
125	0x3d0fa8bc	0.035073027
126	0x3d951b9a	0.07280655
127	0x3a5e272a	0.0008474464

fc.4.weight f4 [4, 128]
0	0x3dd76896	0.10517995
1	0xbd2867a3	-0.04111446
2	0x3d9f693d	0.077837445
3	0x3bbac45f	0.005699679
4	0x3e04a53d	0.12953658
5	0x3d5c075e	0.053717963
6	0x3d6bf697	0.057608213
7	0x3c78bb13	0.015181321
8	0xbd44fbc1	-0.048091654
9	0x3d1649d3	0.036691498
10	0x3da382d7	0.0798394
11	0xbdd7c64f	-0.10535871
12	0xbd6daae9	-0.05802432
13	0x3ba66ebc	0.0050791185
14	0xbd87fb82	-0.06639768
15	0xbca345f8	-0.019930825
16	0x3d41cb8e	0.047313266
17	0x3dc7800a	0.097412184
18	0xbd0a4c32	-0.03376407
19	0xbd96f3c8	-0.07370716
20	0x3dd2241c	0.102607936
21	0x3ce5170d	0.027965093
22	0x3dc43dca	0.09582098
23	0x3ceeba52	0.029141579
24	0x3dd04c0f	0.10170757
25	0x3dd03079	0.101654954
26	0xbd8fccfd	-0.0702152
27	0x3c44d080	0.012012601
28	0xbc1742a8	-0.009232201
29	0x3da5cae4	0.08095339
30	0xbd9db1f3	-0.07699957
31	0x3daa4e3a	0.08315702
32	0x3cf4d1a4	0.02988512
33	0xbb5f9bea	-0.0034120032
34	0x3d83ae1f	0.06429695
35	0xbcef5e17	-0.02921967
36	0x3e12225e	0.14270923
37	0x3d7bc92a	0.061471142
38	0x3dbc412c	0.09192118
39	0xbd4be510	-0.049778998
40	0x3e00dfb6	0.12585339
41	0xbd871128	-0.06595069
42	0xbc0945b8	-0.008378439
43	0xbb84a07f	-0.004047453
44	0xbd209092	-0.039200373
45	0x3b4978fb	0.0030742276
46	0x39c5f19e	0.00037754787
47	0xbc8b02c9	-0.016969102
48	0x3db9bbbe	0.09069012
49	0xbdd05dd8	-0.10174149
50	0xbda76a2a	-0.08174546
51	0xbda43a78	-0.080189645
52	0xbdc825e6	-0.097728536
53	0x3dad7cd2	0.08471073
54	0xbd7e51da	-0.06208978
55	0xbdb07c84	-0.086174995
56	0xbd79c5de	-0.060979716
57	0xbde2a50a	-0.11066635
58	0xbd1989d5	-0.037484962
59	0x3db9880e	0.090591535
60	0xbd1ce6aa	-0.038305916
61	0xbcb82d95	-0.022482673
62	0x3e0cf741	0.13766195
63	0xbcf9ed66	-0.030508708
64	0x3d877e8d	0.066159345
65	0x3d94397f	0.07237529
66	0xbdab718f	-0.08371269
67	0x3e1a9187	0.15094577
68	0x3d96e5b4	0.07368031
69	0xbd18f328	-0.037341267
70	0x3d4ec964	0.05048503
71	0x3d9a3329	0.07529289
72	0x3d4c1ca0	0.049831986
73	0xbd5f5aea	-0.05453006
74	0xbd8c9ee8	-0.068662465
75	0xbd286727	-0.041114
76	0x3cb886e8	0.022525266
77	0x3c90aee0	0.017661512
78	0x3d8877c9	0.06663472
79	0x3dc93f84	0.09826568
80	0xbd460aed	-0.048350263
81	0xbc854f81	-0.016273262
82	0xbce87a92	-0.028378759
83	0xbd83b984	-0.06431869
84	0x3e0c12af	0.13679002
85	0xbd84c0c1	-0.064820774
86	0xbda1291f	-0.07869171
87	0xbc6d3f78	-0.014480464
88	0xbd538fb3	-0.051650714
89	0x3db556da	0.08854456
90	0xbd7e758a	-0.062123813
91	0x3d92099f	0.07130741
92	0x3db5b0af	0.0887159
93	0xbd782389	-0.060580764
94	0x3cb643b2	0.022249077
95	0x3ded4082	0.115845695
96	0xbd1f3349	-0.03886727
97	0x3b6f05e1	0.003647201
98	0xbcb04d2e	-0.021521177
99	0x3cda711f	0.026665268
100	0xbcc9d28c	-0.02463653
101	0x3b188608	0.0023273248
102	0x3d97304f	0.07382261
103	0x3bd00ba7	0.0063490453
104	0x3cbb1ef4	0.022841908
105	0x3b9330b0	0.004491888
106	0xbc4c6542	-0.012475314
107	0x3da02466	0.078194425
108	0xbd26f191	-0.04075772
109	0x3caee473	0.021349167
110	0x3dc506cc	0.09620437
111	0x3d0cfa58	0.034418434
112	0x3cdb31f4	0.026757218
113	0xbd87abf5	-0.06624595
114	0xbd60d57a	-0.054891087
115	0xbd196c64	-0.037456885
116	0x3dae6862	0.08516003
117	0x3d34cbe7	0.04413977
118	0xbcec482f	-0.028843014
119	0x3dd29c6c	0.10283741
120	0x3dfcd833	0.12345924
121	0x3d041369	0.032245073
122	0x3dfb2b8e	0.12264167
123	0xbc84d61c	-0.016215377
124	0xbda00b0c	-0.07814607
125	0x3e157d4d	0.1459858
126	0x3de7d546	0.113199756
127	0x3de14210	0.109989285
128	0x3d545355	0.051837284
129	0xbd450c18	-0.048107237
130	0x3c9a47e4	0.018833108
131	0x3def6a3d	0.11690185
132	0xbdba68cd	-0.091020204
133	0xbc009c40	-0.007849753
134	0x3d942961	0.07234455
135	0x3db29001	0.08718873
136	0xbdac95ff	-0.08427047
137	0x3dc0be7b	0.09411331
138	0xbcd6378e	-0.026149537
139	0x3c392059	0.011299216
140	0x3d4fc75c	0.050727233
141	0x3d951a65	0.07280425
142	0x3e04fbb6	0.12986645
143	0xbd6aaac7	-0.057291772
144	0x3c722dd8	0.014781438
145	0xbe049f06	-0.12951288
146	0x3c0b0ef0	0.008487448
147	0xbd3d665e	-0.046240203
148	0xbe2c8531	-0.16847683
149	0xbd33f7a2	-0.043937333
150	0x3d436d41	0.047711615
151	0x3da510b8	0.080598295
152	0xbde47f86	-0.11157136
153	0x3dad3378	0.084570825
154	0xbd14e79e	-0.0363537
155	0xbd5a3e73	-0.053282212
156	0xbd6253b3	-0.055255603
157	0xbb9519b7	-0.0045501846
158	0xbde3ef6f	-0.11129653
159	0xbd8f8107	-0.07007032
160	0xbda70feb	-0.08157333
161	0xbcdaedff	-0.026724814
162	0x3c818858	0.015812084
163	0x3de11e19	0.10992069
164	0xbd02dfaf	-0.031951603
165	0x3de71989	0.11284167
166	0x3d5f9bef	0.05459207
167	0xbc1ecc50	-0.009692267
168	0xbd4d905d	-0.050186504
169	0xbbe3abd0	-0.006947972
170	0xbceadd0c	-0.028669856
171	0x3d3b6ca8	0.04575792
172	0xbc2947c8	-0.010332055
173	0x3d186e1f	0.037214395
174	0xbcf8d008	-0.030372635
175	0x3c271725	0.010198389
176	0xbdf2704d	-0.11837826
177	0x3d994979	0.07484717
178	0xbdc19a22	-0.094532266
179	0x3d5d042e	0.053959064
180	0x3d8f1799	0.06986923
181	0xbdbb609f	-0.091492884
182	0x3d53dfde	0.05172717
183	0x3d3c9bbe	0.046046965
184	0x3d12255d	0.035680164
185	0xbbfc9274	-0.0077078883
186	0xbcc32749	-0.023822444
187	0x3ddf574a	0.10905321
188	0xbd904901	-0.070451744
189	0xbd2013fe	-0.039081566
190	0x3e055200	0.13019562
191	0xbd754857	-0.05988344
192	0xbda86d40	-0.08223963
193	0xbd25709c	-0.040390596
194	0xbc72c5a8	-0.014817633
195	0xbdad90ac	-0.084748596
196	0x3d92e06b	0.071717106
197	0x3c868a4b	0.016423365
198	0x3d3d59a9	0.046228085
199	0x3c9bf724	0.019038744
200	0xbca237da	-0.019802023
201	0x3db4675d	0.088087775
202	0xbdc88dc7	-0.09792667
203	0xbd9fa474	-0.07795039
204	0x3d53db46	0.051722787
205	0xbccbb460	-0.024866283
206	0xbcd78a27	-0.026310993
207	0x3d701c5f	0.058620807
208	0xbd685f92	-0.056731768
209	0x3df1bffb	0.118041955
210	0xbdb1ece4	-0.086877614
211	0x3db39dea	0.08770354
212	0x3c36dbc0	0.011160791
213	0x3db838fe	0.089952454
214	0xbc7dcb9c	-0.015490439
215	0xbc41a3f0	-0.011818871
216	0xbdf76e53	-0.120815895
217	0xbb123a70	-0.0022312663
218	0x3d25330f	0.040331896
219	0x3dea638b	0.114447676
220	0x3d69fba1	0.057124738
221	0x3d3f0f7a	0.04664562
222	0x3d8da87e	0.06916903
223	0xbd20c975	-0.039254624
224	0x3dbcdd49	0.09221894
225	0x3cab111e	0.020882186
226	0x3dbff379	0.093726106
227	0x3ba0c476	0.0049062325
228	0xbcc2ffca	-0.02380361
229	0x3d961161	0.073275335
230	0x3df0d61d	0.11759589
231	0xbd25ed70	-0.04050964
232	0xbaaa6f96	-0.0013003226
233	0x3c41e150	0.011833504
234	0x3da4fbfa	0.08055873
235	0x3e044068	0.12915194
236	0x3cd9a1b9	0.026566373
237	0x3d532152	0.05154545
238	0xbb6ebf8e	-0.0036430093
239	0x3d8e9099	0.069611736
240	0x3dd7cb51	0.105368264
241	0x3da25deb	0.0792807
242	0x3df77837	0.12083476
243	0x3da2536c	0.07926068
244	0x3d9a190b	0.07524308
245	0x3d917a8d	0.07103453
246	0xbd177765	-0.036979098
247	0x3d9d25dd	0.076732375
248	0x3cdaf1c1	0.026726605
249	0x3d44add9	0.048017357
250	0x3d49eb0d	0.049296428
251	0xbb04decb	-0.0020274397
252	0x3e206232	0.15662459
253	0xbdb87cd3	-0.09008183
254	0x3d61e08d	0.05514579
255	0x3d733e4e	0.05938559

fc.4.bias f4 [4]
0	0x3d708d87	0.05872872
1	0x3d24d543	0.040242445
2	0x3d6f6976	0.058450185
3	0x3d951f38	0.07281345
